0_quantization/model/model_converted.tflite (tflite, 372672 bytes, 39 tensors)

model/time_distributed_1/dense_1/MatMul f4 [1, 64]
000000 9f 0a 40 be be 8b 70 be dc 97 3f 3e 13 64 de bd
       -0.18754052 -0.23490807 0.18710274 -0.108589314
000010 84 ca 67 3e 49 aa 91 be 16 ab 64 3e 76 86 ac bd
       0.22635847 -0.2845023 0.22330889 -0.08424084
000020 92 a5 14 be cb d9 66 bd 88 1e 94 3d b2 ed 88 be
       -0.14516285 -0.056360047 0.07232386 -0.26743847
000030 03 84 56 3e 0e 29 77 3e 01 0d 7c be 7a 9f f7 bc
       0.20948796 0.24136755 -0.24614336 -0.030227412
000040 b9 03 66 bd 3e 93 5d 3d 4f e4 6d be 58 84 65 be
       -0.056155894 0.0540955 -0.23231624 -0.22413766
000050 ac 89 a0 3d c7 46 8a 3e cf 06 43 bd e8 04 2d be
       0.07838759 0.27007124 -0.047613915 -0.16896403
000060 aa df 4b be ae f7 89 be ef 85 c2 3e be 97 5f 3e
       -0.1990954 -0.26946777 0.37992808 0.21835229
000070 f7 2e 2b bd d7 bc 93 be 1f d2 8e be 05 17 a9 3d
       -0.041792836 -0.2885501 -0.27894685 0.08256344
000080 06 6a 06 3e c8 c4 e2 bd 53 1f 79 3e 52 cb 39 bd
       0.13126382 -0.11072689 0.24328355 -0.045359917
000090 1c ab b1 3d 4e 5d 88 be 57 17 cd bc 86 f4 95 3e
       0.08675215 -0.26633686 -0.025035543 0.2928812
0000a0 df c0 1f be 96 bd 9c bd 10 3a e4 3d ef 64 81 3e
       -0.15600918 -0.07653348 0.11143887 0.2527232
0000b0 44 40 8b 3e 3d e0 ff bc a8 a9 e8 bd c9 a2 2c 3e
       0.27197468 -0.031234855 -0.11360484 0.16858973
0000c0 2b 70 a6 bd bd 82 26 be e7 c0 46 3e 00 57 f3 bc
       -0.08126863 -0.1626081 0.19409524 -0.02970457
0000d0 18 6e 67 be cd 4a 9c be c5 46 38 be 4c 0e 08 3e
       -0.22600591 -0.30525818 -0.17995746 0.13286704
0000e0 3b 5d 86 3e d0 73 90 be 25 93 d0 bd 39 d5 be bc
       0.26243004 -0.28213358 -0.101843156 -0.023295032
0000f0 78 b5 be bd db 2f 91 3e a3 c0 ac 3d 47 33 e5 bd
       -0.09311956 0.28356823 0.0843518 -0.11191421

unstack f4 [192]
000000 75 8f 46 ba f5 07 5a bc 06 bf 64 3c d9 96 da 3c
       -0.00075744773 -0.013307561 0.013961559 0.026683258
000010 67 97 8f bc 9b 58 e4 bc 1e 2f bd 3b ce ad c4 3c
       -0.017528249 -0.027874282 0.005773439 0.024008658
000020 63 bc 5e bd 83 a8 50 3d 2e ea fd 3b 84 9a e8 bc
       -0.05437888 0.050941955 0.0077488637 -0.028393991
000030 ca 9e 59 bb 50 65 70 3d 13 9a 0e 3d 31 fa e0 bb
       -0.0033206218 0.05869037 0.034814905 -0.0068657626
000040 f5 ee 17 3c 68 68 05 bc e9 72 33 bc 50 e2 c7 3b
       0.00927328 -0.008142568 -0.01095269 0.0060999766
000050 8e 56 a3 3b 4c 72 98 3c 83 6b 3b bc a7 41 33 bd
       0.0049846834 0.018609188 -0.011439207 -0.043763783
000060 ce ae b6 bc 50 eb 7d 3b 1d d4 1d bb e1 5a bb bb
       -0.02230015 0.0038744994 -0.0024082728 -0.0057176207
000070 2d 29 1d bd f2 8a d7 bc 9f 17 1d 3d 37 42 b8 bc
       -0.038369346 -0.026311371 0.038352605 -0.022492511
000080 c2 3d 3c 3d 03 be 99 3d bc e4 4e 3d 99 7e 9b bc
       0.045957334 0.07506945 0.050511107 -0.018981265
000090 5c 2b ef bb d5 13 e7 bc 1e b3 3a bd 3f 59 ae ba
       -0.00729887 -0.028207699 -0.045580976 -0.0013301744
0000a0 8d 89 df bc 55 5b 4f 3b 6d df 6a 3d 07 1e ed bc
       -0.027287269 0.0031640131 0.05734198 -0.028944982
0000b0 38 d3 97 3d 6c c6 33 3d 02 d5 a1 bc dc 35 f6 bb
       0.07413334 0.0438904 -0.01975489 -0.0075137448
0000c0 8c 0c 68 bc 46 f5 b9 3c 09 6f c6 3b e6 58 09 3b
       -0.014163148 0.022699963 0.006055717 0.0020957529
0000d0 22 8b 32 3b 9c 9d 59 3d 9f 60 be 3d ab 7f 9b bc
       0.0027243574 0.053128824 0.09295773 -0.018981775
0000e0 fa 32 3c 3b cb cd cc 3c af 12 0d 3a 4b b5 7b 3d
       0.0028716908 0.025000473 0.0005381507 0.06145219
0000f0 04 37 34 3c b4 5b ae 3c 98 6b 5a bb 9f f7 6e 39
       0.010999445 0.021283962 -0.003332829 0.00022789695
000100 0c b8 2d bb bc 1e 55 bc 83 5b e5 3b 46 81 b8 ba
       -0.0026507406 -0.013007816 0.0069994344 -0.0014076612
000110 06 b6 32 3d 1a 7d c6 bc 2e a9 cc bc 27 6d e8 bc
       0.043630622 -0.024229575 -0.024983015 -0.02837236
000120 e0 43 a5 3c f3 d5 fb 3c dd 80 b4 3c bc ce d1 3b
       0.020173967 0.030741667 0.022034103 0.0064028185
000130 13 f2 19 3d 08 29 dd bb 94 48 63 bc 0b 08 f0 b8
       0.037584376 -0.006749276 -0.013872284 -0.0001144559
000140 b5 bc cf 3b 42 22 30 bd 0f ef e9 ba c0 8d 12 bb
       0.0063396343 -0.04300142 -0.0017847734 -0.0022362322
000150 ad 34 c9 3c 42 15 11 3d 63 c5 1f bc c8 52 c1 bc
       0.02456125 0.035420664 -0.0097516505 -0.023599043
000160 31 fd 06 bd 2c b1 13 3d 08 46 c7 bc 8b 06 a2 bc
       -0.032956306 0.036057636 -0.024325386 -0.01977851
000170 f6 26 36 bb be 42 ff bc cf 45 31 bc 3d d8 8f bc
       -0.0027794219 -0.031159755 -0.010819866 -0.017559165
000180 f1 3b 36 bd 17 ae 01 3d 37 75 22 bd 6f 52 12 bd
       -0.04449076 0.031660166 -0.039662566 -0.035723146
000190 c6 0c dc 3c 14 2e 41 bc e7 3d 00 3d ac ee 9d bc
       0.02686156 -0.011790771 0.031309035 -0.019278847
0001a0 84 e7 60 b9 d5 0b 0e 3b f6 16 d8 3c c0 56 4a 3c
       -0.00021448551 0.0021674533 0.026378136 0.012349784
0001b0 e1 0f 8a bc 2d 46 03 3c 2a 25 49 3d 22 41 e3 3c
       -0.016853275 0.008012337 0.049107708 0.027741019
0001c0 77 bd 01 bc 27 10 e4 bc 4d 02 c0 3c ec cc 02 bd
       -0.007918707 -0.027839733 0.023438597 -0.03193371
0001d0 eb f9 2a bc 88 e7 f4 bc d7 03 6d 3c 47 d2 37 3a
       -0.010435562 -0.029895559 0.0144662475 0.000701223
0001e0 7f 15 33 3c 4a 3b 1b bd f6 f1 99 bc 3c d7 0c bd
       0.010930418 -0.03789834 -0.018792134 -0.03438495
0001f0 e5 b9 6f bc 75 ce 3d 3d 83 c6 0d 3d 33 29 b9 3c
       -0.014631723 0.04633947 0.034613144 0.022602653
000200 2e 60 b9 3c 6f be 2d bd 09 2f 2b 3c 01 82 7f bc
       0.02262887 -0.04241794 0.010448226 -0.01559496
000210 7e 5a 1a bd 75 05 b0 bc 6c c8 a9 bc 93 ec 1b 3c
       -0.037683956 -0.021486977 -0.020725451 0.009516853
000220 69 3c 0c 3d cd e7 66 bb 0e ba ee bc 2a d2 09 3d
       0.0342373 -0.003523338 -0.029141452 0.033647694
000230 c7 96 81 3d 5e f6 22 3b 60 8c 7b 3b 67 ab ad bc
       0.063275866 0.0024866085 0.003838323 -0.021199895
000240 4a d5 cb bc 43 e7 a8 bc 49 2c 09 3d 61 fb 5b bc
       -0.024881978 -0.020618087 0.0334895 -0.013426633
000250 d7 cf 29 bd b6 a2 97 3b 09 91 95 bc ef d7 af 3c
       -0.041457977 0.004627551 -0.018257635 0.02146527
000260 81 a2 15 bd 32 ac 45 3d ba d9 d3 3c b7 f1 56 3c
       -0.03653193 0.04825992 0.025860656 0.013119153
000270 2d 0a 1b 3d 4d ec 14 bd ea a2 85 3b 78 c9 d3 bc
       0.0378515 -0.036358166 0.0040782588 -0.025852904
000280 5b fc 0f bd f3 de f3 3b 9e 16 9a 3c 90 50 8a bc
       -0.035152774 0.007442349 0.018809613 -0.016884118
000290 ae 2a 12 bd f7 11 ee bc db 99 35 bd c7 02 ca 3b
       -0.035685234 -0.0290613 -0.04433618 0.006164882
0002a0 6a dc 1b bd e7 86 a9 3c d5 78 8a 3a 34 c2 c3 3c
       -0.038052 0.02069421 0.0010564575 0.023896314
0002b0 1a 0d 8f 3c 2a 13 73 3c b9 bd 34 bd 57 99 09 bd
       0.017462302 0.014836112 -0.044126246 -0.033593502
0002c0 4e ec 09 bd 1a 6d 7a bc b7 50 c9 3c 97 2b c5 3c
       -0.033672623 -0.015284801 0.02457462 0.024068637
0002d0 13 87 c0 3b ed 35 38 38 2a 46 ae 3b aa 27 21 bc
       0.005875477 4.391924e-05 0.005318423 -0.009836117
0002e0 48 18 b5 3c db 73 a2 3b 29 72 5f bc c9 c8 9c 3a
       0.022106305 0.0049576587 -0.013638058 0.0011961694
0002f0 49 0a 87 bc d7 95 40 bd 2f 3c 87 bc fb d2 0b bd
       -0.016484397 -0.0470179 -0.01650819 -0.034136754

unstack1 f4 [192]
000000 75 8f 46 ba f5 07 5a bc 06 bf 64 3c d9 96 da 3c
       -0.00075744773 -0.013307561 0.013961559 0.026683258
000010 67 97 8f bc 9b 58 e4 bc 1e 2f bd 3b ce ad c4 3c
       -0.017528249 -0.027874282 0.005773439 0.024008658
000020 63 bc 5e bd 83 a8 50 3d 2e ea fd 3b 84 9a e8 bc
       -0.05437888 0.050941955 0.0077488637 -0.028393991
000030 ca 9e 59 bb 50 65 70 3d 13 9a 0e 3d 31 fa e0 bb
       -0.0033206218 0.05869037 0.034814905 -0.0068657626
000040 f5 ee 17 3c 68 68 05 bc e9 72 33 bc 50 e2 c7 3b
       0.00927328 -0.008142568 -0.01095269 0.0060999766
000050 8e 56 a3 3b 4c 72 98 3c 83 6b 3b bc a7 41 33 bd
       0.0049846834 0.018609188 -0.011439207 -0.043763783
000060 ce ae b6 bc 50 eb 7d 3b 1d d4 1d bb e1 5a bb bb
       -0.02230015 0.0038744994 -0.0024082728 -0.0057176207
000070 2d 29 1d bd f2 8a d7 bc 9f 17 1d 3d 37 42 b8 bc
       -0.038369346 -0.026311371 0.038352605 -0.022492511
000080 c2 3d 3c 3d 03 be 99 3d bc e4 4e 3d 99 7e 9b bc
       0.045957334 0.07506945 0.050511107 -0.018981265
000090 5c 2b ef bb d5 13 e7 bc 1e b3 3a bd 3f 59 ae ba
       -0.00729887 -0.028207699 -0.045580976 -0.0013301744
0000a0 8d 89 df bc 55 5b 4f 3b 6d df 6a 3d 07 1e ed bc
       -0.027287269 0.0031640131 0.05734198 -0.028944982
0000b0 38 d3 97 3d 6c c6 33 3d 02 d5 a1 bc dc 35 f6 bb
       0.07413334 0.0438904 -0.01975489 -0.0075137448
0000c0 8c 0c 68 bc 46 f5 b9 3c 09 6f c6 3b e6 58 09 3b
       -0.014163148 0.022699963 0.006055717 0.0020957529
0000d0 22 8b 32 3b 9c 9d 59 3d 9f 60 be 3d ab 7f 9b bc
       0.0027243574 0.053128824 0.09295773 -0.018981775
0000e0 fa 32 3c 3b cb cd cc 3c af 12 0d 3a 4b b5 7b 3d
       0.0028716908 0.025000473 0.0005381507 0.06145219
0000f0 04 37 34 3c b4 5b ae 3c 98 6b 5a bb 9f f7 6e 39
       0.010999445 0.021283962 -0.003332829 0.00022789695
000100 0c b8 2d bb bc 1e 55 bc 83 5b e5 3b 46 81 b8 ba
       -0.0026507406 -0.013007816 0.0069994344 -0.0014076612
000110 06 b6 32 3d 1a 7d c6 bc 2e a9 cc bc 27 6d e8 bc
       0.043630622 -0.024229575 -0.024983015 -0.02837236
000120 e0 43 a5 3c f3 d5 fb 3c dd 80 b4 3c bc ce d1 3b
       0.020173967 0.030741667 0.022034103 0.0064028185
000130 13 f2 19 3d 08 29 dd bb 94 48 63 bc 0b 08 f0 b8
       0.037584376 -0.006749276 -0.013872284 -0.0001144559
000140 b5 bc cf 3b 42 22 30 bd 0f ef e9 ba c0 8d 12 bb
       0.0063396343 -0.04300142 -0.0017847734 -0.0022362322
000150 ad 34 c9 3c 42 15 11 3d 63 c5 1f bc c8 52 c1 bc
       0.02456125 0.035420664 -0.0097516505 -0.023599043
000160 31 fd 06 bd 2c b1 13 3d 08 46 c7 bc 8b 06 a2 bc
       -0.032956306 0.036057636 -0.024325386 -0.01977851
000170 f6 26 36 bb be 42 ff bc cf 45 31 bc 3d d8 8f bc
       -0.0027794219 -0.031159755 -0.010819866 -0.017559165
000180 f1 3b 36 bd 17 ae 01 3d 37 75 22 bd 6f 52 12 bd
       -0.04449076 0.031660166 -0.039662566 -0.035723146
000190 c6 0c dc 3c 14 2e 41 bc e7 3d 00 3d ac ee 9d bc
       0.02686156 -0.011790771 0.031309035 -0.019278847
0001a0 84 e7 60 b9 d5 0b 0e 3b f6 16 d8 3c c0 56 4a 3c
       -0.00021448551 0.0021674533 0.026378136 0.012349784
0001b0 e1 0f 8a bc 2d 46 03 3c 2a 25 49 3d 22 41 e3 3c
       -0.016853275 0.008012337 0.049107708 0.027741019
0001c0 77 bd 01 bc 27 10 e4 bc 4d 02 c0 3c ec cc 02 bd
       -0.007918707 -0.027839733 0.023438597 -0.03193371
0001d0 eb f9 2a bc 88 e7 f4 bc d7 03 6d 3c 47 d2 37 3a
       -0.010435562 -0.029895559 0.0144662475 0.000701223
0001e0 7f 15 33 3c 4a 3b 1b bd f6 f1 99 bc 3c d7 0c bd
       0.010930418 -0.03789834 -0.018792134 -0.03438495
0001f0 e5 b9 6f bc 75 ce 3d 3d 83 c6 0d 3d 33 29 b9 3c
       -0.014631723 0.04633947 0.034613144 0.022602653
000200 7e bb d2 3b a1 19 9a bc b2 cb ef 3b 69 0a 05 bb
       0.006431042 -0.018811049 0.0073179835 -0.0020300394
000210 53 6e fc bc ac d0 37 bd 01 6f 55 bc 17 53 bd 3c
       -0.030814325 -0.04487674 -0.013026954 0.02311091
000220 74 1d 01 3d 5c 9d 7b bc b3 88 f2 bc 91 76 b2 3c
       0.03152223 -0.015357342 -0.029606199 0.021785052
000230 cf 6f bb 3d cd f9 d5 3b 48 41 e6 3b 82 da 19 bd
       0.09152185 0.0065300227 0.007026825 -0.0375619
000240 a7 fb aa bc 1f d6 5e bc 76 48 11 3d cb 1f 2d bd
       -0.02087195 -0.013600855 0.035469495 -0.04226665
000250 b5 9c 4a bd e8 10 ae 3b 13 6a 4e bc 7e 86 39 3c
       -0.049465854 0.005312074 -0.012598532 0.011323569
000260 55 d4 47 bc 8c bb 3a 3d f0 d6 dc 3b cd 26 80 3c
       -0.01219662 0.045589015 0.0067394897 0.015643502
000270 d7 5b 54 3d 60 44 ea bc f1 20 86 3b 62 44 cb bc
       0.051845398 -0.028597057 0.0040932824 -0.02481288
000280 56 96 be bb 84 e3 39 3c 0d c4 06 3d c7 cd 9d bc
       -0.0058162613 0.011345748 0.032901812 -0.019263161
000290 3d 02 fb bc 78 d5 dc bc 0e 9c 61 bd 98 b4 92 3c
       -0.030640716 -0.026957259 -0.055080466 0.01790838
0002a0 81 d6 e5 bc 6f b9 fb 3c 88 4e 69 3b 53 61 e5 3c
       -0.028056385 0.03072807 0.0035599787 0.02800051
0002b0 52 f0 8f 3c 87 f6 35 3c 85 09 80 bd 18 2b 07 bd
       0.017570648 0.01110614 -0.06251816 -0.03300008
0002c0 0a 78 a4 bc 57 5e 53 bb f1 6c 0a 3d c9 26 31 3c
       -0.02007677 -0.0032252276 0.0337953 0.01081247
0002d0 61 6d 08 3d 8f 6a 1d bc 30 28 58 3b b9 f7 80 bc
       0.033307437 -0.009607925 0.0032982938 -0.015743123
0002e0 f9 76 87 3c 04 2b c1 3b 07 4e b1 bb 8f bd 44 bb
       0.016536223 0.0058950204 -0.005410913 -0.0030020212
0002f0 c7 58 53 bc 32 d3 30 bd 8a 68 63 bc 4e 3d 0d bd
       -0.012899584 -0.04317016 -0.0138799045 -0.034482293

unstack2 f4 [192]
000000 88 06 a3 3b e0 58 ad 3d c9 b1 21 3c 80 bc 6c bb
       0.004975144 0.08464217 0.009869047 -0.0036123097
000010 91 f5 9d 3d 64 c6 36 bb a3 de 1f 3d 0f 90 58 3d
       0.07712854 -0.0027889246 0.039030682 0.05287176
000020 a5 af 6a ba b0 17 01 bd 94 1d 09 bc cd 51 15 bd
       -0.00089525647 -0.03151673 -0.008368868 -0.036454964
000030 78 32 ec 3c ba 9b 64 3c b9 5c 71 bc 8a d4 a8 bb
       0.02883266 0.013953144 -0.014731579 -0.0051522898
000040 db 61 88 bc 13 c9 9c 3d 79 d7 da 3b a8 08 51 3d
       -0.016648224 0.07655539 0.0066785184 0.051033646
000050 6c af f8 3b 6c 26 37 bd 53 e0 0a 3d 13 4d b1 bb
       0.0075892713 -0.044714376 0.03390534 -0.0054107993
000060 4b 86 d9 3c 3d 05 3c 3c 9b f1 42 3c bd 48 2c bd
       0.026553294 0.011475858 0.011898424 -0.042061556
000070 57 1e d5 bb 7e dc f6 bc 89 88 1e bd 01 70 95 3d
       -0.006503861 -0.030134436 -0.03870443 0.07296754
000080 b6 b3 66 3c b5 39 a6 bc de 53 de 3c 4a d8 e9 3b
       0.014080932 -0.020291189 0.0271396 0.0071363794
000090 d5 fb a0 3b ce 39 64 3d 38 79 b9 bc ac 6a 94 3d
       0.004912833 0.05571919 -0.02264081 0.072469085
0000a0 5d 03 30 bb de 56 eb bb 7f ce 87 bc df 1b 76 3d
       -0.0026857473 -0.0071819862 -0.016577957 0.060085174
0000b0 74 1a 3a 3d 10 df 68 bc a2 e2 84 bb 47 a4 10 3d
       0.045435384 -0.0142133385 -0.004055337 0.035312917
0000c0 d3 8a 63 3c d5 75 06 3d 19 64 6a 3b f4 8b 09 3b
       0.013888079 0.032827217 0.003576523 0.002098796
0000d0 86 a9 69 3d a4 b3 3a 3c 30 f0 52 bc 3c 0a e0 bc
       0.057046436 0.011395369 -0.012874648 -0.02734863
0000e0 07 8e b8 3d b8 a3 72 3b d3 fc 69 3c 01 04 03 3d
       0.090114646 0.0037023854 0.014281469 0.03198624
0000f0 f6 4c 4f bd e3 2a 53 bc 05 75 24 3b d7 b9 30 bd
       -0.050610505 -0.012888643 0.0025094163 -0.04314598
000100 86 7f 42 3c 44 6a b6 bc 7f e4 2a 3d 62 0e e2 bc
       0.011871224 -0.022267468 0.041721817 -0.027594749
000110 d9 fb 56 bb 64 8f 40 3c b3 8b d1 3c fc 1a 08 3d
       -0.0032803921 0.011752937 0.02557931 0.03322886
000120 91 2a 5f 3d ad 3c 1f bd 17 2d f9 3a d2 79 18 3d
       0.054483954 -0.038876224 0.001901063 0.037225552
000130 ab 58 bf bc d7 48 37 3d 7d d9 93 bb 84 29 52 bc
       -0.02335771 0.0447472 -0.0045120106 -0.012827281
000140 dc 82 a1 3a 35 3e 8e 3b a6 b9 7e 38 05 f3 06 bc
       0.0012322324 0.0043409117 6.0731218e-05 -0.008236651
000150 ea b5 86 3c f7 d6 f2 3c 62 9c 93 3b 45 50 2b bc
       0.016444165 0.029643519 0.0045047263 -0.0104561495
000160 4f 9a 85 3c 48 75 07 3d ad 77 3d 3d bb e3 80 3b
       0.016308932 0.033070832 0.04625671 0.0039333976
000170 7b c4 72 bc cd 57 90 bc ee 78 ec 3c 03 3b 2d 3d
       -0.014817352 -0.017619992 0.028866258 0.042292606
000180 6a a1 a4 3c 0e 18 b4 3c d1 59 d2 3b 31 95 2d bc
       0.0200965 0.021984126 0.0064193984 -0.010594652
000190 b3 74 e8 3a 36 e4 88 3c a6 82 88 3c f0 7a 40 3c
       0.0017734974 0.016710382 0.01666386 0.011748061
0001a0 17 2b 2e bc d7 b0 2d 3b fb a5 0f bc bb 69 66 ba
       -0.010630391 0.002650311 -0.0087676 -0.0008789559
0001b0 90 0a 6a bc 41 67 dc 3c 35 eb 94 bc 4f 4a 3d 3c
       -0.014284745 0.026904704 -0.018178562 0.011553361
0001c0 ff 6e a2 bc 02 dc 87 3b 3a 8c f4 3c b5 ed 4d 3c
       -0.019828318 0.0041461 0.029852021 0.012568881
0001d0 13 8e c2 3c d0 3f 13 3d 95 57 da 3c 13 83 cd 3c
       0.023749387 0.03594953 0.02665309 0.025086915
0001e0 d9 94 da 3c e7 a1 5b 3c 1c b8 58 3c de 64 9a 3c
       0.026682304 0.0134053 0.013227489 0.018846925
0001f0 7e fa 11 bd fc eb b0 bc bc 92 fc bb 53 b3 f4 3c
       -0.03563928 -0.021596901 -0.007707922 0.029870665
000200 3d b5 b0 bb 5e 8e 94 3b 75 81 dc 3c 41 42 53 3c
       -0.005392699 0.004533573 0.026917199 0.012894214
000210 b1 cf a0 3c 1f 63 b4 bc 6d 70 9c 3c 11 be a1 bc
       0.019630285 -0.02201992 0.019096578 -0.019743951
000220 18 e8 1b 3d c5 cc bc 3b 87 9b 8e bc 34 89 fc 3c
       0.03806314 0.005761715 -0.017408146 0.030827142
000230 16 7a ad bc 76 f3 74 3c 69 39 04 bd d9 d5 5e 3d
       -0.02117638 0.014950624 -0.032281313 0.05440316
000240 7c 14 91 bc de 87 9c 3b 47 9f 74 bc f2 ef 6a bb
       -0.017709963 0.004776939 -0.014930553 -0.0035848585
000250 10 6c 80 bb d5 20 15 bd f2 a4 64 bb 95 4c 95 3c
       -0.003919132 -0.036408264 -0.0034888354 0.018224994
000260 12 c4 86 3c 5f 49 ba bc f8 ac 34 bd 22 d1 18 bd
       0.016450915 -0.022740064 -0.04411027 -0.03730882
000270 9b 52 a5 bc 3f c5 0c 3d a0 a2 27 bd e7 db df bc
       -0.02018099 0.034367796 -0.040926576 -0.027326537
000280 0e b8 0b bd 8a ca 3b 3c 7a 78 2e bb 8a 12 f5 bc
       -0.034111075 0.011461863 -0.0026622103 -0.029916067
000290 9e 1d c0 bc 72 74 c5 3c 53 6b bc bc fd c3 42 3c
       -0.023451623 0.024103377 -0.023000395 0.011887548
0002a0 e5 38 33 bc 20 40 2e 3c 63 40 cc 3c c1 92 23 3b
       -0.010938858 0.010635406 0.024933046 0.0024959298
0002b0 80 fc be 3b 92 8a d9 bc be eb 0b 3d 64 1a 11 bd
       0.00582844 -0.026555333 0.03416037 -0.03542556
0002c0 36 63 47 3a a5 79 bc 3c e2 82 a3 3c d8 e7 a7 bc
       0.0007606031 0.023007223 0.01995987 -0.020496294
0002d0 7c 57 ee 3c 6d 90 0e bd a2 c3 ca 3c 67 6c af bc
       0.02909445 -0.034805704 0.024751488 -0.021413995
0002e0 32 be 7c 3a 94 af e4 3b 0d 2b 82 3b 78 45 b6 3c
       0.00096413784 0.0069789384 0.003972417 0.022249922
0002f0 9f 8c 9a bb fb 47 8b 3c 26 7a 85 bc 17 1e f0 3c
       -0.0047164704 0.017002096 -0.016293596 0.029311223

unstack3 f4 [192]
000000 88 06 a3 3b e0 58 ad 3d c9 b1 21 3c 80 bc 6c bb
       0.004975144 0.08464217 0.009869047 -0.0036123097
000010 91 f5 9d 3d 64 c6 36 bb a3 de 1f 3d 0f 90 58 3d
       0.07712854 -0.0027889246 0.039030682 0.05287176
000020 a5 af 6a ba b0 17 01 bd 94 1d 09 bc cd 51 15 bd
       -0.00089525647 -0.03151673 -0.008368868 -0.036454964
000030 78 32 ec 3c ba 9b 64 3c b9 5c 71 bc 8a d4 a8 bb
       0.02883266 0.013953144 -0.014731579 -0.0051522898
000040 db 61 88 bc 13 c9 9c 3d 79 d7 da 3b a8 08 51 3d
       -0.016648224 0.07655539 0.0066785184 0.051033646
000050 6c af f8 3b 6c 26 37 bd 53 e0 0a 3d 13 4d b1 bb
       0.0075892713 -0.044714376 0.03390534 -0.0054107993
000060 4b 86 d9 3c 3d 05 3c 3c 9b f1 42 3c bd 48 2c bd
       0.026553294 0.011475858 0.011898424 -0.042061556
000070 57 1e d5 bb 7e dc f6 bc 89 88 1e bd 01 70 95 3d
       -0.006503861 -0.030134436 -0.03870443 0.07296754
000080 b6 b3 66 3c b5 39 a6 bc de 53 de 3c 4a d8 e9 3b
       0.014080932 -0.020291189 0.0271396 0.0071363794
000090 d5 fb a0 3b ce 39 64 3d 38 79 b9 bc ac 6a 94 3d
       0.004912833 0.05571919 -0.02264081 0.072469085
0000a0 5d 03 30 bb de 56 eb bb 7f ce 87 bc df 1b 76 3d
       -0.0026857473 -0.0071819862 -0.016577957 0.060085174
0000b0 74 1a 3a 3d 10 df 68 bc a2 e2 84 bb 47 a4 10 3d
       0.045435384 -0.0142133385 -0.004055337 0.035312917
0000c0 d3 8a 63 3c d5 75 06 3d 19 64 6a 3b f4 8b 09 3b
       0.013888079 0.032827217 0.003576523 0.002098796
0000d0 86 a9 69 3d a4 b3 3a 3c 30 f0 52 bc 3c 0a e0 bc
       0.057046436 0.011395369 -0.012874648 -0.02734863
0000e0 07 8e b8 3d b8 a3 72 3b d3 fc 69 3c 01 04 03 3d
       0.090114646 0.0037023854 0.014281469 0.03198624
0000f0 f6 4c 4f bd e3 2a 53 bc 05 75 24 3b d7 b9 30 bd
       -0.050610505 -0.012888643 0.0025094163 -0.04314598
000100 86 7f 42 3c 44 6a b6 bc 7f e4 2a 3d 62 0e e2 bc
       0.011871224 -0.022267468 0.041721817 -0.027594749
000110 d9 fb 56 bb 64 8f 40 3c b3 8b d1 3c fc 1a 08 3d
       -0.0032803921 0.011752937 0.02557931 0.03322886
000120 91 2a 5f 3d ad 3c 1f bd 17 2d f9 3a d2 79 18 3d
       0.054483954 -0.038876224 0.001901063 0.037225552
000130 ab 58 bf bc d7 48 37 3d 7d d9 93 bb 84 29 52 bc
       -0.02335771 0.0447472 -0.0045120106 -0.012827281
000140 dc 82 a1 3a 35 3e 8e 3b a6 b9 7e 38 05 f3 06 bc
       0.0012322324 0.0043409117 6.0731218e-05 -0.008236651
000150 ea b5 86 3c f7 d6 f2 3c 62 9c 93 3b 45 50 2b bc
       0.016444165 0.029643519 0.0045047263 -0.0104561495
000160 4f 9a 85 3c 48 75 07 3d ad 77 3d 3d bb e3 80 3b
       0.016308932 0.033070832 0.04625671 0.0039333976
000170 7b c4 72 bc cd 57 90 bc ee 78 ec 3c 03 3b 2d 3d
       -0.014817352 -0.017619992 0.028866258 0.042292606
000180 6a a1 a4 3c 0e 18 b4 3c d1 59 d2 3b 31 95 2d bc
       0.0200965 0.021984126 0.0064193984 -0.010594652
000190 b3 74 e8 3a 36 e4 88 3c a6 82 88 3c f0 7a 40 3c
       0.0017734974 0.016710382 0.01666386 0.011748061
0001a0 17 2b 2e bc d7 b0 2d 3b fb a5 0f bc bb 69 66 ba
       -0.010630391 0.002650311 -0.0087676 -0.0008789559
0001b0 90 0a 6a bc 41 67 dc 3c 35 eb 94 bc 4f 4a 3d 3c
       -0.014284745 0.026904704 -0.018178562 0.011553361
0001c0 ff 6e a2 bc 02 dc 87 3b 3a 8c f4 3c b5 ed 4d 3c
       -0.019828318 0.0041461 0.029852021 0.012568881
0001d0 13 8e c2 3c d0 3f 13 3d 95 57 da 3c 13 83 cd 3c
       0.023749387 0.03594953 0.02665309 0.025086915
0001e0 d9 94 da 3c e7 a1 5b 3c 1c b8 58 3c de 64 9a 3c
       0.026682304 0.0134053 0.013227489 0.018846925
0001f0 7e fa 11 bd fc eb b0 bc bc 92 fc bb 53 b3 f4 3c
       -0.03563928 -0.021596901 -0.007707922 0.029870665
000200 27 c7 aa 3b d2 33 9d bc d6 72 2d 3c ff 9a e6 3c
       0.005211729 -0.019189749 0.010586461 0.02815008
000210 8f 1e af 3c bd e0 09 bd bd 62 f4 3c 7c df 60 bc
       0.021376876 -0.033661593 0.029832238 -0.013725158
000220 95 3b 11 3d ae 8c 73 3c 0f cb 12 bd 2e ea 76 3d
       0.035457212 0.014865084 -0.035838183 0.060281925
000230 35 9c 96 3b 8f 38 3b 3c 35 8e c7 bc 2d 3f 1e 3d
       0.004596258 0.011427059 -0.024359802 0.038634468
000240 31 7c 91 bc 3e 15 88 bc 2d 79 54 bc ef 04 18 3c
       -0.017759414 -0.016611692 -0.012968344 0.00927852
000250 2c 2c bc bc b9 e9 30 bd 0a e5 08 3c 5c 4c e6 3b
       -0.022970282 -0.043191645 0.008355388 0.0070281457
000260 8b 52 74 3c e6 02 9a bc a7 14 38 bd b2 a7 92 bc
       0.014912258 -0.01880021 -0.04494157 -0.017902229
000270 8e f4 a8 bc 78 b6 50 3c 67 a9 1a bd 53 50 d2 bc
       -0.020624425 0.012738816 -0.03775921 -0.025673067
000280 90 f4 ef bc be f6 2a 3d 04 c4 4c bc ef eb 32 bd
       -0.029291421 0.041739218 -0.012497906 -0.043682035
000290 6d 17 94 bc 3f b8 8a 3c e6 16 4f bd 7e 5f 17 3c
       -0.018077577 0.016933559 -0.050558947 0.009239076
0002a0 a3 6a b9 bc f5 0b 38 3a b5 4e 08 3b 8c 32 5a 3b
       -0.022633856 0.00070208247 0.0020798866 0.0033294288
0002b0 52 ac 6d 3b 98 13 a9 bc 38 c0 91 3c 95 de ae bd
       0.003626604 -0.020639226 0.017791852 -0.08538548
0002c0 42 c9 99 bc ee 2f 94 3c 03 5b 7e 3c 4d 65 0b bd
       -0.018772725 0.01808926 0.015524629 -0.034032155
0002d0 69 d9 f6 3c ea eb ab bc d4 fa 37 3d b4 f0 92 bc
       0.030132966 -0.020986516 0.044916943 -0.017937042
0002e0 d6 d1 0f ba 8c d6 b4 3c 0a 2b 34 ba 4d 84 e2 3c
       -0.0005486285 0.02207496 -0.00068728684 0.027650977
0002f0 45 6d a7 3c 49 dc 81 3c 0a a1 fe bc a2 b2 fa 3c
       0.020437846 0.01585211 -0.031082649 0.030602757

unstack4 f4 [192]
000000 fb e6 cd 3c b8 41 45 bd a1 96 d1 bc d1 60 a2 bc
       0.025134554 -0.048158377 -0.02558452 -0.019821556
000010 ab 3a c1 3d c1 5f 08 3d 02 69 09 bd 47 73 16 bd
       0.09435018 0.033294443 -0.03354741 -0.03673103
000020 66 7e 4b bd 75 20 5b bc 85 cd a0 b9 11 da 9e bc
       -0.04968109 -0.013374438 -0.00030670702 -0.019391092
000030 6e 26 70 bb 6c 88 2a 3b 77 26 66 3c b7 47 69 3b
       -0.0036644 0.0026021255 0.014047257 0.0035595724
000040 83 f3 6a bd 24 84 42 bd f6 78 38 bc 29 e1 9e bc
       -0.057361137 -0.0474893 -0.011259308 -0.019394474
000050 eb 80 8a 3d b4 95 70 3d 2b e6 e3 3c 79 2f 33 3b
       0.067628704 0.058736518 0.027819714 0.0027341528
000060 6e 72 2f 3c 14 0c d5 bc a5 33 3b 3c 44 a7 d9 3c
       0.0107084345 -0.026006736 0.011425887 0.026569016
000070 93 8e be 3c f8 51 84 3c d9 5b 20 bd e3 05 d7 bc
       0.023261344 0.016152367 -0.039150093 -0.026247924
000080 a3 f7 9e bc 29 9b 35 bc f0 6b c0 3d 8c bd 80 bc
       -0.019405192 -0.011084356 0.093955874 -0.015715383
000090 66 7b 8c bd c6 4b 34 bd 82 91 45 3d 17 ec 65 bc
       -0.06859474 -0.044017576 0.04823447 -0.014033339
0000a0 d8 65 6a bd 19 0c d7 bc b1 49 53 bd 32 46 b8 ba
       -0.057226032 -0.026250886 -0.05158395 -0.0014059006
0000b0 6c 46 c3 3d 8f 96 92 3c 82 ee 07 3d 07 6c 09 bd
       0.09534916 0.017894058 0.033186443 -0.03355029
0000c0 38 fc 08 bd 83 54 a7 bc 18 99 07 3d 0c b4 83 3d
       -0.03344366 -0.02042604 0.033104986 0.064308256
0000d0 9d bd 3b bb c1 6b b9 bb c9 3a 73 bd 52 ae ef 3b
       -0.0028646954 -0.005658597 -0.059382234 0.007314482
0000e0 1b 5f 45 bc a6 2f ec 3c e2 05 9f bc 84 35 15 bd
       -0.012046601 0.028831314 -0.019411985 -0.03642799
0000f0 7d 3b df bb bc 3f e4 bc f6 90 0c bd 4c ea 2a bd
       -0.0068125115 -0.027862422 -0.034317933 -0.04172735
000100 86 ff 22 3c fb 53 07 bd 18 60 4c bd f4 92 db bc
       0.009948617 -0.033039074 -0.04989633 -0.026803471
000110 91 a8 4c bd d2 8d 20 bd 33 85 4f bd 35 e6 97 bc
       -0.049965445 -0.03919775 -0.050664138 -0.018542388
000120 49 f4 04 bd 92 bc 83 bc 80 55 15 bd 64 e8 35 bd
       -0.03245953 -0.016081128 -0.036458492 -0.044411078
000130 26 81 6b bd 26 80 c1 bc eb 43 10 bc f6 b4 c9 bb
       -0.057496212 -0.023620676 -0.008805255 -0.0061556054
000140 2d 3b 37 bc bb 57 06 bd 0a 5f 6a bc d0 b3 c8 bc
       -0.011183542 -0.03279851 -0.014304886 -0.024499804
000150 a7 07 84 b9 52 d7 d2 bb b8 fa 74 bc ae 64 c7 bc
       -0.00025182703 -0.0064343596 -0.014952354 -0.02434
000160 c1 61 c4 bb bc eb 41 bc 7e 49 85 bc e5 6b 17 bd
       -0.0059930985 -0.011835989 -0.016270395 -0.03696813
000170 60 bc 3a bd d8 35 6d bc 2e 47 53 bd 1e 51 90 bc
       -0.045589805 -0.014478169 -0.051581554 -0.017616805
000180 d1 19 b1 bc d9 d2 05 bd fe 16 d4 bc 02 b5 fa bc
       -0.021618756 -0.032671783 -0.02588987 -0.03060389
000190 0a 10 3e bd 61 a6 51 bc 67 81 ea 3b a7 64 c1 3b
       -0.046402015 -0.0127960155 0.0071565392 0.0059018913
0001a0 6e 76 1e bd 2e a6 bc bc 57 05 24 bd b7 ef ae bc
       -0.038687162 -0.02302846 -0.040044155 -0.02135454
0001b0 25 82 34 3d a8 51 51 bd 20 9f e4 bc c4 1c a9 bb
       0.044069428 -0.051103264 -0.027907908 -0.0051609
0001c0 87 ba ac bc 4e 87 cc bc 52 5f c9 bb 3b f7 7d 3c
       -0.021085037 -0.024966862 -0.0061453963 0.015500839
0001d0 96 61 3a bc d2 81 8f bc a6 60 32 3c 7d 5b f4 bc
       -0.011375805 -0.017517958 0.010887301 -0.029828781
0001e0 bb 0f 44 3b a4 94 a5 bc 33 42 6d 3c 38 7d 3b bc
       0.0029916603 -0.020212479 0.014481115 -0.011443429
0001f0 26 69 00 bd 2b a4 be bc d9 ab a9 3c c3 45 01 bd
       -0.031350277 -0.02327164 0.020711826 -0.03156067
000200 5a de b1 bb e9 2f 62 bb 9f 93 19 3c 73 63 cd bb
       -0.0054281177 -0.003451342 0.0093735745 -0.006267959
000210 df 80 3e bb 01 01 10 3c 59 83 11 bc 01 4d c4 3c
       -0.0029068512 0.008789302 -0.008881413 0.0239625
000220 7b 03 a4 3b 74 1c 70 3b bf 3e 6b 3c 42 9a 93 3b
       0.0050052977 0.0036638053 0.014358222 0.004504473
000230 db 74 06 3c 11 0d f2 3b 04 22 af 3b f3 bd 03 3a
       0.008206571 0.0073868115 0.005344631 0.0005025558
000240 fc e9 2f 3c a0 e9 e3 ba 6d 65 d3 bb 5a 62 8f 3c
       0.010736939 -0.0017388351 -0.0064513 0.017502952
000250 49 9d 96 bc ba d5 ab 3b c3 51 ee 3b 8e 50 f1 bb
       -0.018385546 0.005243984 0.0072729304 -0.007364339
000260 5b bd 93 3c 2d 96 94 3c 4b 69 e3 bb a3 44 c4 bb
       0.018034628 0.018138016 -0.006940042 -0.0059896274
000270 1c 04 44 3b d6 1b aa 3c c9 37 4a 3c 6f e9 fb b9
       0.0029909676 0.020765226 0.012342402 -0.00048048372
000280 15 54 86 bc 7d 83 7c 3c 57 c7 04 3c 95 b1 ed 3b
       -0.016397515 0.015412209 0.008104167 0.0072538354
000290 78 4e f8 ba bf 0e 10 3d 1d d1 90 3c 84 6e 56 bc
       -0.0018944284 0.035170313 0.017677838 -0.013087872
0002a0 15 79 df bb 26 46 a1 3b 1d 2a 86 3c ea e6 c4 bc
       -0.006819854 0.0049216924 0.016377503 -0.02403589
0002b0 c4 08 b5 bc c3 19 16 bc 69 93 c8 bb 90 e8 5e 3c
       -0.022098906 -0.0091614155 -0.0061210883 0.013605252
0002c0 47 33 cd 3b 13 02 5d bc 69 15 01 3b 5d ed 9d bc
       0.0062622163 -0.013489264 0.00196966 -0.019278223
0002d0 16 0c c2 3a d8 14 98 3c b4 84 26 3c ac 4f b5 3a
       0.0014804627 0.018564627 0.010163475 0.0013832948
0002e0 01 ca 31 bc 14 36 04 3b 29 0b 7a bc 39 b8 28 3c
       -0.010851384 0.0020173835 -0.01526145 0.010297828
0002f0 53 23 a6 bb ee 9c bb 3c b8 2a a1 3c f1 c6 95 bc
       -0.005070129 0.022901978 0.01967369 -0.01828334

unstack5 f4 [192]
000000 fb e6 cd 3c b8 41 45 bd a1 96 d1 bc d1 60 a2 bc
       0.025134554 -0.048158377 -0.02558452 -0.019821556
000010 ab 3a c1 3d c1 5f 08 3d 02 69 09 bd 47 73 16 bd
       0.09435018 0.033294443 -0.03354741 -0.03673103
000020 66 7e 4b bd 75 20 5b bc 85 cd a0 b9 11 da 9e bc
       -0.04968109 -0.013374438 -0.00030670702 -0.019391092
000030 6e 26 70 bb 6c 88 2a 3b 77 26 66 3c b7 47 69 3b
       -0.0036644 0.0026021255 0.014047257 0.0035595724
000040 83 f3 6a bd 24 84 42 bd f6 78 38 bc 29 e1 9e bc
       -0.057361137 -0.0474893 -0.011259308 -0.019394474
000050 eb 80 8a 3d b4 95 70 3d 2b e6 e3 3c 79 2f 33 3b
       0.067628704 0.058736518 0.027819714 0.0027341528
000060 6e 72 2f 3c 14 0c d5 bc a5 33 3b 3c 44 a7 d9 3c
       0.0107084345 -0.026006736 0.011425887 0.026569016
000070 93 8e be 3c f8 51 84 3c d9 5b 20 bd e3 05 d7 bc
       0.023261344 0.016152367 -0.039150093 -0.026247924
000080 a3 f7 9e bc 29 9b 35 bc f0 6b c0 3d 8c bd 80 bc
       -0.019405192 -0.011084356 0.093955874 -0.015715383
000090 66 7b 8c bd c6 4b 34 bd 82 91 45 3d 17 ec 65 bc
       -0.06859474 -0.044017576 0.04823447 -0.014033339
0000a0 d8 65 6a bd 19 0c d7 bc b1 49 53 bd 32 46 b8 ba
       -0.057226032 -0.026250886 -0.05158395 -0.0014059006
0000b0 6c 46 c3 3d 8f 96 92 3c 82 ee 07 3d 07 6c 09 bd
       0.09534916 0.017894058 0.033186443 -0.03355029
0000c0 38 fc 08 bd 83 54 a7 bc 18 99 07 3d 0c b4 83 3d
       -0.03344366 -0.02042604 0.033104986 0.064308256
0000d0 9d bd 3b bb c1 6b b9 bb c9 3a 73 bd 52 ae ef 3b
       -0.0028646954 -0.005658597 -0.059382234 0.007314482
0000e0 1b 5f 45 bc a6 2f ec 3c e2 05 9f bc 84 35 15 bd
       -0.012046601 0.028831314 -0.019411985 -0.03642799
0000f0 7d 3b df bb bc 3f e4 bc f6 90 0c bd 4c ea 2a bd
       -0.0068125115 -0.027862422 -0.034317933 -0.04172735
000100 86 ff 22 3c fb 53 07 bd 18 60 4c bd f4 92 db bc
       0.009948617 -0.033039074 -0.04989633 -0.026803471
000110 91 a8 4c bd d2 8d 20 bd 33 85 4f bd 35 e6 97 bc
       -0.049965445 -0.03919775 -0.050664138 -0.018542388
000120 49 f4 04 bd 92 bc 83 bc 80 55 15 bd 64 e8 35 bd
       -0.03245953 -0.016081128 -0.036458492 -0.044411078
000130 26 81 6b bd 26 80 c1 bc eb 43 10 bc f6 b4 c9 bb
       -0.057496212 -0.023620676 -0.008805255 -0.0061556054
000140 2d 3b 37 bc bb 57 06 bd 0a 5f 6a bc d0 b3 c8 bc
       -0.011183542 -0.03279851 -0.014304886 -0.024499804
000150 a7 07 84 b9 52 d7 d2 bb b8 fa 74 bc ae 64 c7 bc
       -0.00025182703 -0.0064343596 -0.014952354 -0.02434
000160 c1 61 c4 bb bc eb 41 bc 7e 49 85 bc e5 6b 17 bd
       -0.0059930985 -0.011835989 -0.016270395 -0.03696813
000170 60 bc 3a bd d8 35 6d bc 2e 47 53 bd 1e 51 90 bc
       -0.045589805 -0.014478169 -0.051581554 -0.017616805
000180 d1 19 b1 bc d9 d2 05 bd fe 16 d4 bc 02 b5 fa bc
       -0.021618756 -0.032671783 -0.02588987 -0.03060389
000190 0a 10 3e bd 61 a6 51 bc 67 81 ea 3b a7 64 c1 3b
       -0.046402015 -0.0127960155 0.0071565392 0.0059018913
0001a0 6e 76 1e bd 2e a6 bc bc 57 05 24 bd b7 ef ae bc
       -0.038687162 -0.02302846 -0.040044155 -0.02135454
0001b0 25 82 34 3d a8 51 51 bd 20 9f e4 bc c4 1c a9 bb
       0.044069428 -0.051103264 -0.027907908 -0.0051609
0001c0 87 ba ac bc 4e 87 cc bc 52 5f c9 bb 3b f7 7d 3c
       -0.021085037 -0.024966862 -0.0061453963 0.015500839
0001d0 96 61 3a bc d2 81 8f bc a6 60 32 3c 7d 5b f4 bc
       -0.011375805 -0.017517958 0.010887301 -0.029828781
0001e0 bb 0f 44 3b a4 94 a5 bc 33 42 6d 3c 38 7d 3b bc
       0.0029916603 -0.020212479 0.014481115 -0.011443429
0001f0 26 69 00 bd 2b a4 be bc d9 ab a9 3c c3 45 01 bd
       -0.031350277 -0.02327164 0.020711826 -0.03156067
000200 f5 8b 07 bb 17 52 90 3c c0 af c1 3b 28 ea c7 bb
       -0.0020682786 0.017617268 0.0059108436 -0.0061009116
000210 51 3c 26 bb 5e 41 8c bb 11 96 ee bb fb 13 92 3c
       -0.0025365541 -0.0042802533 -0.007281073 0.017831793
000220 3a 0d 3b 3b 3e 6a 6d ba 35 94 d8 3c 60 f6 8f 3b
       0.002854182 -0.0009056664 0.026437858 0.004393384
000230 2f 9b 8e 3c 13 cb e6 ba 7c cc 85 3b 3e 56 0d 3b
       0.017407982 -0.0017608128 0.0040832143 0.0021566297
000240 f1 77 86 3c 4d 62 78 3b 52 79 21 bc 61 c6 1f 3c
       0.016414614 0.0037900389 -0.009855585 0.009751887
000250 74 21 44 bc 84 a3 66 3c 8f 76 82 3b 62 1e bb bb
       -0.0119708665 0.014077071 0.0039814184 -0.005710409
000260 8e c2 76 3c 52 61 17 3d 55 1f 1f bc 98 9a 55 bb
       0.015061034 0.036958046 -0.00971206 -0.0032593366
000270 38 08 04 3c eb 46 a6 3c e0 45 3e 3c 82 f4 4f 3b
       0.0080586 0.020297488 0.011613339 0.0031731431
000280 dc 8e 0b bc e0 5a 9e 3c ef d9 a5 bb f7 b8 c0 3b
       -0.008517947 0.019330442 -0.00506138 0.0058814245
000290 bc 8f a0 bc 71 d0 0a 3d db b3 dd 3b 2e 82 2e bc
       -0.019599788 0.03389019 0.006765825 -0.010651154
0002a0 94 9a f0 bb 2a 78 11 3c eb fb 5b 3c a0 60 c8 bc
       -0.007342646 0.008878747 0.013426761 -0.024460137
0002b0 80 4a c6 bc f8 a2 10 3b a9 94 bf bb 8b 90 84 3c
       -0.024205446 0.0022069793 -0.005846579 0.016182205
0002c0 3c be 7b 35 d1 bd 3a bc 1a f5 a3 3b af 71 75 bc
       9.3781614e-07 -0.011397795 0.0050035836 -0.014980718
0002d0 0f 3d 86 b9 88 74 47 3c 94 87 04 3c 57 63 bc 3b
       -0.00025603964 0.012173779 0.008088965 0.005749147
0002e0 8b 39 0b bc a3 b4 08 bc ab 78 49 bc 19 c4 5b bb
       -0.008497606 -0.008343848 -0.012296836 -0.0033533631
0002f0 c8 00 83 bc 1e 33 b4 3a ed e8 88 3c 6e b7 87 bc
       -0.015991583 0.0013748144 0.01671263 -0.016566958

unstack6 f4 [192]
000000 ee 18 df 3c c3 fc 3a 3c 5b 66 1f bd d8 84 21 3d
       0.027233567 0.011412802 -0.038915973 0.03943333
000010 b1 ac 97 bb e9 79 eb 3c 5f 61 09 3d 6c 58 8c 3d
       -0.0046287407 0.028744655 0.033540126 0.06852803
000020 97 b4 fe 3d f3 b5 c2 bc 52 bb 12 3d 33 1a 11 3c
       0.124367885 -0.0237684 0.035823174 0.008856344
000030 4a e2 13 3d e4 b1 a2 3c 1e 21 40 bd 74 c5 57 3c
       0.036104478 0.019860215 -0.046906583 0.013169635
000040 7c 1f 35 bd 3d f2 c3 3c 29 ca c4 bc 66 fc 14 3d
       -0.04421948 0.02391922 -0.024022179 0.03637352
000050 30 48 3b bc 57 e7 86 bd 77 c8 d8 3b ec 67 94 3d
       -0.011430785 -0.06587093 0.006615694 0.07246384
000060 00 7c 1f 3d 63 5e b8 bc b3 27 23 3d 0e 80 9b bc
       0.038936615 -0.022505945 0.039832782 -0.01898196
000070 8e d9 a0 3d 8a 45 89 3b e2 28 63 3c 88 4a 07 bd
       0.07853995 0.004189198 0.013864728 -0.033030063
000080 59 8b c0 bc e8 58 8e 3c e4 e5 a5 bc b3 f5 cf bc
       -0.023503946 0.017376378 -0.020251222 -0.025385713
000090 c2 94 3f 3d cc 1b 45 3d 17 77 03 bc 13 84 90 3d
       0.046772726 0.048122212 -0.008023999 0.07056441
0000a0 73 01 58 bd c1 d8 5a bb 86 75 53 bd 20 51 d9 bc
       -0.052735757 -0.0033393356 -0.05162575 -0.026527941
0000b0 b5 56 8f 3d bc da 11 3d fd eb 2a 3b aa f1 49 bd
       0.0699896 0.035608992 0.0026080601 -0.049302734
0000c0 9e aa a9 3c 19 59 0c 3c ad d3 fb 3d 91 0c 34 3d
       0.02071124 0.008566164 0.12296233 0.043957297
0000d0 73 8b 2c bd 28 47 4f 3c 58 93 df 3b 74 20 d7 3c
       -0.042125177 0.012651242 0.0068229847 0.026260592
0000e0 58 67 1e 3d 2b 89 92 3d 8e 49 41 3d 8b bd f2 3d
       0.038672775 0.07155069 0.047189288 0.11852559
0000f0 a8 88 99 3d 88 db 0c bb e4 85 b3 3d 76 83 39 3c
       0.07496768 -0.0021493156 0.08765772 0.011322847
000100 e1 a4 ed 3b f4 4b 21 bd 92 7b f5 3b 04 0e 13 bb
       0.007252321 -0.039379075 0.0074915374 -0.0022438774
000110 17 f9 44 bd 4a 74 95 bc 80 04 14 bd 1b e4 15 3d
       -0.048089113 -0.018243928 -0.036137104 0.03659449
000120 7c 8b ea bc ad 3f 41 bd 4c 79 23 bc 4a 64 89 bb
       -0.028630964 -0.047179867 -0.00997765 -0.0041928636
000130 90 9e 00 bc 35 50 08 bd b7 3a 07 bc a5 53 64 bc
       -0.007850304 -0.033279616 -0.008253745 -0.013935958
000140 ee 2b c8 bc 72 6b 73 3b 37 0e 0b bc c0 6c 0c 3d
       -0.02443501 0.00371429 -0.008487276 0.0342834
000150 ab 77 b5 bc bb 57 b5 3c 0f 67 3c bd be 3b 8b 3c
       -0.022151789 0.02213656 -0.04599672 0.01699626
000160 fc 6d 1c bd 20 b5 32 bc ec 6d 2c bc dc f2 12 bd
       -0.038190827 -0.010907441 -0.010524254 -0.03587614
000170 44 14 86 3c 7c 18 62 bd 49 74 85 bc f9 8f e6 bc
       0.016367085 -0.05519913 -0.0162908 -0.028144823
000180 b5 c3 e3 bc 3c 79 2e bc 8e 6f 42 bd 35 63 81 bd
       -0.027803281 -0.010649022 -0.047469668 -0.0631775
000190 29 62 17 bc 10 ef 25 bd a8 0d e0 bc 9b 2f 3c bb
       -0.009239712 -0.04051119 -0.027350262 -0.0028714899
0001a0 6c 48 72 ba 6f b6 6f bd 81 a4 a1 3c f3 45 6e bc
       -0.0009242359 -0.05852359 0.019731762 -0.014543044
0001b0 d1 e5 64 3c e9 04 d9 bc 12 94 8b 3b 4b ce 1e 3b
       0.013970808 -0.0264916 0.0042595947 0.0024231847
0001c0 f2 35 6c bc 04 d6 2f bd 22 90 ea 3a 17 da d4 bb
       -0.014417158 -0.04292871 0.0017895738 -0.006495725
0001d0 66 5b ec bc b0 f2 54 bb 63 d2 fb 38 97 54 7c bb
       -0.028852176 -0.0032493286 0.000120078 -0.0038502568
0001e0 f1 ea c1 bc 0e bc a7 bc ff 2d ec bc bb 8c 1e 3d
       -0.0236716 -0.020475414 -0.028830526 0.03870843
0001f0 25 9c 23 3a 46 0c e5 3b 02 21 f1 ba 28 38 f2 3c
       0.0006241224 0.0069899885 -0.0018396678 0.029567793
000200 73 46 41 3b 5c 1f fb 3a 09 23 e8 bc 05 f7 e3 ba
       0.0029491454 0.0019159126 -0.028337019 -0.0017392343
000210 8d 5a 41 bb d4 bc 4f bc d9 4a 17 3c 93 76 a9 3c
       -0.0029503435 -0.0126792975 0.009234154 0.020686423
000220 9b d9 c4 3b 78 f3 56 3c 9b f0 4d 3b b4 11 a0 3c
       0.006007386 0.013119571 0.003142393 0.019539692
000230 5f 3e 2f 3c d9 9d b8 3a a5 ce 98 bc a5 6e 8c 3c
       0.010696023 0.0014085128 -0.018653223 0.017142603
000240 95 4d 6f bc 81 82 83 bc f9 c8 05 bc 5d 1b 0a 3d
       -0.014605899 -0.01605344 -0.008165591 0.033717502
000250 4a 57 75 bb e8 75 49 bb 24 b3 d6 bc e6 73 8f 3a
       -0.0037436062 -0.0030740444 -0.026208468 0.0010944575
000260 8b 5c 62 3c a9 51 a8 3c b4 d6 6f bc 2b 6e 3d 3c
       0.013816009 0.020546751 -0.014638592 0.011561911
000270 f8 80 f2 bc 8d a7 f0 3a 87 55 21 3c e1 2d 16 bc
       -0.029602513 0.0018360481 0.009847051 -0.009166212
000280 46 df 5c bb 3b 4d a6 3c 4e b7 39 3c 19 73 4d 3c
       -0.0033702417 0.020300498 0.011335207 0.012539648
000290 3d d3 99 ba b8 ae 2c 3b c8 26 4f 3c 15 e7 84 3c
       -0.0011735928 0.0026349258 0.0126435235 0.01622347
0002a0 55 61 d3 bc ea ee 49 3c dc 19 14 3c 90 a6 73 bc
       -0.025803247 0.012325028 0.0090393685 -0.014871255
0002b0 9c 81 02 bc 97 71 a3 bb 21 7d 5c bb 15 59 8e 3c
       -0.007965472 -0.004987906 -0.0033643919 0.017376462
0002c0 62 7f e0 bc 26 e4 92 bc 07 f4 24 bc 10 63 e3 3c
       -0.02740449 -0.017931055 -0.010067946 0.027757198
0002d0 15 dc f2 bb cf cc 15 bc 93 39 5c 3c 52 ab 08 bc
       -0.0074114897 -0.009143068 0.013441461 -0.008341627
0002e0 e4 f3 00 3c 8a 80 3f 3c 85 9a f5 bb ae 3c 1d 3c
       0.007870648 0.011688361 -0.007495227 0.009596987
0002f0 eb 2e 93 bb 01 6a 54 bc 3c e0 83 ba da dd 3c 3b
       -0.004491677 -0.012964726 -0.0010061334 0.0028818757

unstack7 f4 [192]
000000 ee 18 df 3c c3 fc 3a 3c 5b 66 1f bd d8 84 21 3d
       0.027233567 0.011412802 -0.038915973 0.03943333
000010 b1 ac 97 bb e9 79 eb 3c 5f 61 09 3d 6c 58 8c 3d
       -0.0046287407 0.028744655 0.033540126 0.06852803
000020 97 b4 fe 3d f3 b5 c2 bc 52 bb 12 3d 33 1a 11 3c
       0.124367885 -0.0237684 0.035823174 0.008856344
000030 4a e2 13 3d e4 b1 a2 3c 1e 21 40 bd 74 c5 57 3c
       0.036104478 0.019860215 -0.046906583 0.013169635
000040 7c 1f 35 bd 3d f2 c3 3c 29 ca c4 bc 66 fc 14 3d
       -0.04421948 0.02391922 -0.024022179 0.03637352
000050 30 48 3b bc 57 e7 86 bd 77 c8 d8 3b ec 67 94 3d
       -0.011430785 -0.06587093 0.006615694 0.07246384
000060 00 7c 1f 3d 63 5e b8 bc b3 27 23 3d 0e 80 9b bc
       0.038936615 -0.022505945 0.039832782 -0.01898196
000070 8e d9 a0 3d 8a 45 89 3b e2 28 63 3c 88 4a 07 bd
       0.07853995 0.004189198 0.013864728 -0.033030063
000080 59 8b c0 bc e8 58 8e 3c e4 e5 a5 bc b3 f5 cf bc
       -0.023503946 0.017376378 -0.020251222 -0.025385713
000090 c2 94 3f 3d cc 1b 45 3d 17 77 03 bc 13 84 90 3d
       0.046772726 0.048122212 -0.008023999 0.07056441
0000a0 73 01 58 bd c1 d8 5a bb 86 75 53 bd 20 51 d9 bc
       -0.052735757 -0.0033393356 -0.05162575 -0.026527941
0000b0 b5 56 8f 3d bc da 11 3d fd eb 2a 3b aa f1 49 bd
       0.0699896 0.035608992 0.0026080601 -0.049302734
0000c0 9e aa a9 3c 19 59 0c 3c ad d3 fb 3d 91 0c 34 3d
       0.02071124 0.008566164 0.12296233 0.043957297
0000d0 73 8b 2c bd 28 47 4f 3c 58 93 df 3b 74 20 d7 3c
       -0.042125177 0.012651242 0.0068229847 0.026260592
0000e0 58 67 1e 3d 2b 89 92 3d 8e 49 41 3d 8b bd f2 3d
       0.038672775 0.07155069 0.047189288 0.11852559
0000f0 a8 88 99 3d 88 db 0c bb e4 85 b3 3d 76 83 39 3c
       0.07496768 -0.0021493156 0.08765772 0.011322847
000100 e1 a4 ed 3b f4 4b 21 bd 92 7b f5 3b 04 0e 13 bb
       0.007252321 -0.039379075 0.0074915374 -0.0022438774
000110 17 f9 44 bd 4a 74 95 bc 80 04 14 bd 1b e4 15 3d
       -0.048089113 -0.018243928 -0.036137104 0.03659449
000120 7c 8b ea bc ad 3f 41 bd 4c 79 23 bc 4a 64 89 bb
       -0.028630964 -0.047179867 -0.00997765 -0.0041928636
000130 90 9e 00 bc 35 50 08 bd b7 3a 07 bc a5 53 64 bc
       -0.007850304 -0.033279616 -0.008253745 -0.013935958
000140 ee 2b c8 bc 72 6b 73 3b 37 0e 0b bc c0 6c 0c 3d
       -0.02443501 0.00371429 -0.008487276 0.0342834
000150 ab 77 b5 bc bb 57 b5 3c 0f 67 3c bd be 3b 8b 3c
       -0.022151789 0.02213656 -0.04599672 0.01699626
000160 fc 6d 1c bd 20 b5 32 bc ec 6d 2c bc dc f2 12 bd
       -0.038190827 -0.010907441 -0.010524254 -0.03587614
000170 44 14 86 3c 7c 18 62 bd 49 74 85 bc f9 8f e6 bc
       0.016367085 -0.05519913 -0.0162908 -0.028144823
000180 b5 c3 e3 bc 3c 79 2e bc 8e 6f 42 bd 35 63 81 bd
       -0.027803281 -0.010649022 -0.047469668 -0.0631775
000190 29 62 17 bc 10 ef 25 bd a8 0d e0 bc 9b 2f 3c bb
       -0.009239712 -0.04051119 -0.027350262 -0.0028714899
0001a0 6c 48 72 ba 6f b6 6f bd 81 a4 a1 3c f3 45 6e bc
       -0.0009242359 -0.05852359 0.019731762 -0.014543044
0001b0 d1 e5 64 3c e9 04 d9 bc 12 94 8b 3b 4b ce 1e 3b
       0.013970808 -0.0264916 0.0042595947 0.0024231847
0001c0 f2 35 6c bc 04 d6 2f bd 22 90 ea 3a 17 da d4 bb
       -0.014417158 -0.04292871 0.0017895738 -0.006495725
0001d0 66 5b ec bc b0 f2 54 bb 63 d2 fb 38 97 54 7c bb
       -0.028852176 -0.0032493286 0.000120078 -0.0038502568
0001e0 f1 ea c1 bc 0e bc a7 bc ff 2d ec bc bb 8c 1e 3d
       -0.0236716 -0.020475414 -0.028830526 0.03870843
0001f0 25 9c 23 3a 46 0c e5 3b 02 21 f1 ba 28 38 f2 3c
       0.0006241224 0.0069899885 -0.0018396678 0.029567793
000200 b0 71 1b 3b d3 ea 79 bb d3 ad a6 bc 81 c5 ee 3a
       0.0023718886 -0.003813435 -0.020346558 0.001821682
000210 52 2a 82 bb 2b 1f ac bb 97 40 e0 3c 4b 72 25 39
       -0.00397233 -0.005252739 0.027374549 0.00015778204
000220 d3 d0 27 bc 18 a5 b2 3b 9e fc 96 bb d5 ad 9a 3c
       -0.010242659 0.0054518096 -0.004607751 0.018881718
000230 ce 20 4b 3c 72 f4 4a bc 3a 2b ea bc 04 c6 96 3c
       0.012397958 -0.012387382 -0.028585065 0.018404968
000240 ce 84 1a bc 0f 75 d4 bc 48 5c 0e bc 7e 6a e2 3c
       -0.009431077 -0.025934724 -0.008688994 0.02763867
000250 b2 a3 89 bc 01 c3 b8 38 f4 7e 6e bc d4 15 01 bc
       -0.016801689 8.810126e-05 -0.014556635 -0.007878739
000260 94 a3 28 3c d0 a1 9d 3c c5 06 92 bb e1 6a 0b 3c
       0.010292906 0.019242197 -0.0044563734 0.008509369
000270 9c 46 31 bc 17 d7 a9 3c d4 20 3f 3b 0e 9e 0a bb
       -0.010820057 0.020732446 0.0029163854 -0.0021151337
000280 f1 3b 62 3b 22 64 a9 3c d0 bc 8f 3c 7c 13 02 3c
       0.003452059 0.02067763 0.017546088 0.007939216
000290 49 d0 6b 3b bd 5b a4 3b 6e a7 8d 3c a1 42 06 3c
       0.0035982302 0.005015819 0.01729175 0.0081945965
0002a0 5c b2 20 bd 70 64 72 3b d2 77 a1 3c 53 a6 04 bc
       -0.039232597 0.0036986135 0.019710455 -0.008096295
0002b0 d1 a7 02 bb 09 34 b4 bb 25 a5 a7 bb f2 19 b0 3c
       -0.0019936452 -0.005499367 -0.0051161223 0.021496747
0002c0 d8 78 69 bc 84 db 24 bc 28 86 df bb 70 38 1e 3d
       -0.014250003 -0.010062102 -0.0068214126 0.03862804
0002d0 a2 81 a8 3b 06 77 a5 3a 07 31 df 3b cb 84 81 bc
       0.0051424066 0.0012623973 0.0068112644 -0.015810391
0002e0 9d 02 d6 bb 8e ee 98 3a 07 34 9c bb 52 f9 d6 3c
       -0.0065310732 0.0011667775 -0.0047669443 0.026241932
0002f0 f9 2f af 3b ea fc 4e bc a1 58 32 bb cf cb a8 bb
       0.005346295 -0.012633542 -0.0027213471 -0.005151249

model/time_distributed/dense/BiasAdd/ReadVariableOp f4 [64]
000000 b4 cd 80 bb 87 e1 b3 3a fe 24 89 3c 23 e2 8f bb
       -0.0039307717 0.0013723829 0.016741272 -0.0043909713
000010 3e 95 89 3b d3 1a ae b9 26 87 95 bb 3b 38 b1 bb
       0.0041986993 -0.00033207852 -0.00456323 -0.0054083145
000020 2d a1 31 bc 30 48 0e bc f5 9e 20 3b a0 9f 54 bc
       -0.01084165 -0.008684203 0.0024508808 -0.012977511
000030 0f 64 63 3c 39 b4 92 bc e5 47 e9 bb 8f aa 8c bc
       0.013878836 -0.017908202 -0.007119166 -0.017171172
000040 81 4e 82 bb 88 3d 41 bc ed e2 59 bc 8d 74 bb bb
       -0.0039766436 -0.011794455 -0.013298732 -0.005720681
000050 26 c0 22 bc 6a c9 58 3b 8e 5b e1 bb c3 b9 02 bc
       -0.009933507 0.0033079037 -0.0068773692 -0.007978859
000060 26 d6 22 ba aa 43 4b bc 48 7b ab bc bd 3a 85 bc
       -0.000621172 -0.012406269 -0.020932809 -0.01626336
000070 81 5e 83 bc 78 23 74 3c 40 d4 29 bc d2 49 11 3c
       -0.016036274 0.0149010345 -0.010365546 0.008867698
000080 db 60 0d 3b c8 a6 26 3b ad 82 86 bc 25 4a 89 ba
       0.0021572623 0.0025429 -0.016419733 -0.0010474367
000090 9e 0f 02 3c 98 d6 14 3c f7 2a 8c bc fc 0e 8c ba
       0.007938294 0.009084366 -0.017110331 -0.0010685618
0000a0 60 db 19 bb c6 b1 db bb d0 4f 4a ba 98 ad 23 3c
       -0.0023476705 -0.006704542 -0.00077175815 0.009990118
0000b0 6b 5f aa ba 52 bf 42 bc 66 3f a8 bb 62 ad 42 bc
       -0.0012998407 -0.011886435 -0.005134511 -0.011882158
0000c0 eb 87 72 bc 5b 7b 23 bb 98 87 6d 3b 76 ce a8 bb
       -0.014802913 -0.0024945352 0.003624415 -0.005151565
0000d0 f7 4c 98 bb b9 c7 93 3c c9 c2 e6 3b 3c 11 ab 3b
       -0.004647847 0.018039571 0.007042263 0.0052205604
0000e0 0b 96 b0 bb 75 fd 1b 3c 75 07 90 3b c6 af 43 bc
       -0.0053889803 0.009520878 0.00439542 -0.011943763
0000f0 43 66 cd bb 63 6c 88 39 8a b0 7a bb e3 44 bd bb
       -0.006268294 0.00026020696 -0.0038252198 -0.005776034

model/re_lu/Relu;model/batch_normalization/FusedBatchNormV3;model/conv2d/BiasAdd/ReadVariableOp;model/conv2d/BiasAdd;model/conv2d_5/Conv2D;model/conv2d/Conv2D f4 [64]
000000 c0 35 dd bd 88 33 1e be 28 ff 06 be c0 a9 24 bd
       -0.108012676 -0.15449345 -0.13183272 -0.04020095
000010 f8 e7 83 be c0 55 c5 bc 5b 72 8e 3e e4 58 44 3e
       -0.25762916 -0.02408874 0.2782162 0.19174534
000020 98 45 85 be d4 9a 8e 3e 40 09 37 bd 80 37 25 bc
       -0.26029658 0.278525 -0.044686556 -0.010084033
000030 5a 9f 21 be f2 45 0c be 40 d7 4b be f0 32 b7 be
       -0.15783444 -0.13698557 -0.1990633 -0.3578105
000040 10 44 6e 3e 79 af 79 be 10 0e 81 be 80 16 8b 3b
       0.23268151 -0.24383344 -0.2520604 0.0042446256
000050 14 8b 03 be 5e 8c 68 be a8 3b ff be 60 ee 29 3e
       -0.12846023 -0.22709796 -0.49850202 0.16594839
000060 38 04 ee bd 28 a7 af bc 58 60 45 3e 44 5f 00 3f
       -0.116218984 -0.021442011 0.19275033 0.50145364
000070 80 e0 1f 3d 88 67 74 3e 48 24 b0 be 48 a3 04 be
       0.03903246 0.23867619 -0.3440268 -0.12952912
000080 00 82 34 3b 60 1f 90 3d 2e ef f2 3d 3b d1 a4 3d
       0.0027543306 0.07037234 0.11862026 0.0804772
000090 fc 3f 8d be fe 33 68 be 30 82 2a 3d 30 66 6a be
       -0.2758788 -0.22676083 0.041628063 -0.22890544
0000a0 b0 45 0d 3e 29 d8 11 be d1 62 db be 20 e5 90 bd
       0.13796115 -0.14242615 -0.42848828 -0.07074952
0000b0 60 1a 55 be 50 30 10 3e f8 d8 1e be b8 5a dd 3d
       -0.20810843 0.1408093 -0.15512455 0.10808319
0000c0 47 41 07 3d 5f ae 15 3f 0e c5 5b be d8 78 05 3e
       0.033021238 0.58469194 -0.21461889 0.1303438
0000d0 c8 29 46 3e c4 85 cc 3e 70 de f0 bd 30 80 5e 3e
       0.19351876 0.39945805 -0.117611766 0.21728587
0000e0 cc 30 cf 3d c0 e9 a6 bd 98 a7 93 bd c0 82 be bd
       0.10116729 -0.08150053 -0.072097 -0.09302282
0000f0 44 6f 33 3e a0 58 e1 bd 30 b6 36 3e e0 82 85 bd
       0.17522913 -0.11003232 0.17842937 -0.06519103

model/re_lu_1/Relu;model/batch_normalization_1/FusedBatchNormV3;model/conv2d_1/BiasAdd/ReadVariableOp;model/conv2d_1/BiasAdd;model/conv2d_5/Conv2D;model/conv2d_1/Conv2D f4 [64]
000000 b7 84 5f be 72 31 d4 3e 7c bf 71 3f f4 9e b4 be
       -0.2182797 0.41443974 0.94432807 -0.35277522
000010 17 f5 49 3f ae 8b 59 bf 54 3f 5a bf f4 0b 48 3f
       0.788896 -0.8497876 -0.8525288 0.7814324
000020 f8 fd f8 3e 93 87 cb 3d 92 7a 29 3f 97 37 8d bf
       0.48631263 0.09937968 0.6620265 -1.103259
000030 f1 e1 a1 3e 78 f6 0e 3f 90 ed 02 bf cd 86 73 bf
       0.31617692 0.5584483 -0.5114374 -0.95127565
000040 c4 07 d3 3d f9 10 a1 bf d4 bf fd 3d 40 79 90 3e
       0.103042156 -1.2583305 0.12390104 0.28217506
000050 c8 90 79 3f bd 5a 43 bf fc 92 b4 3f 79 1e 22 3f
       0.97486544 -0.7631033 1.4107356 0.6332775
000060 f5 9d 71 be 64 2f 25 3f 9d c5 ff 3e 0e a3 e7 3e
       -0.23595412 0.6452544 0.49955454 0.45241588
000070 5a 7f 93 bf 85 e8 90 bd 66 f8 29 be 54 ee da bd
       -1.152324 -0.070755996 -0.16598663 -0.10689989
000080 77 ea 8f 3e f2 4f b9 3e 3e c2 d5 3f 42 a4 40 be
       0.2810857 0.36193806 1.6699903 -0.1881266
000090 31 b3 9d bd a1 96 ee 3e 78 43 51 bd 07 3d 7e 3f
       -0.07700194 0.46599296 -0.051089734 0.9931187
0000a0 c8 59 79 3f 83 55 87 bf bd 48 0c 3f fe 08 08 3f
       0.9740262 -1.0572971 0.5479849 0.5313872
0000b0 b1 f9 46 3e 80 39 1d bc 45 4c c6 3f 38 b6 89 bf
       0.19431187 -0.009596229 1.5492026 -1.0758734
0000c0 b3 fc 94 bf 32 20 de 3d d1 5b 48 3f ca 98 b0 3f
       -1.1639618 0.108459845 0.782651 1.3796628
0000d0 ce 8b e9 3e 6c 81 66 3f a9 af d7 3e 43 4a e5 3e
       0.45614475 0.9004123 0.42126206 0.4478322
0000e0 5b fa 38 be b8 0e 0a 3f 9e f8 5c be f3 ef f0 3e
       -0.18064253 0.5392871 -0.21579215 0.47058067
0000f0 6c 6e 5f 3e 20 67 1b 3e 8a 74 13 3f e2 b8 fb be
       0.21819466 0.15176058 0.575997 -0.49164492
