python_quantization_old/test_tflite/microfaune_converted_model_float16.tflite (tflite, 668820 bytes, 17 tensors)

model/batch_normalization_1/FusedBatchNormV3/ReadVariableOp f2 [64]
000000 00 00 00 00 00 00 00 00 00 00 00 00 00 00 00 00
       0.0 0.0 0.0 0.0 0.0 0.0 0.0 0.0
000010 00 00 00 00 00 00 00 00 00 00 00 00 00 00 00 00
       0.0 0.0 0.0 0.0 0.0 0.0 0.0 0.0
000020 00 00 00 00 00 00 00 00 00 00 00 00 00 00 00 00
       0.0 0.0 0.0 0.0 0.0 0.0 0.0 0.0
000030 00 00 00 00 00 00 00 00 00 00 00 00 00 00 00 00
       0.0 0.0 0.0 0.0 0.0 0.0 0.0 0.0
000040 00 00 00 00 00 00 00 00 00 00 00 00 00 00 00 00
       0.0 0.0 0.0 0.0 0.0 0.0 0.0 0.0
000050 00 00 00 00 00 00 00 00 00 00 00 00 00 00 00 00
       0.0 0.0 0.0 0.0 0.0 0.0 0.0 0.0
000060 00 00 00 00 00 00 00 00 00 00 00 00 00 00 00 00
       0.0 0.0 0.0 0.0 0.0 0.0 0.0 0.0
000070 00 00 00 00 00 00 00 00 00 00 00 00 00 00 00 00
       0.0 0.0 0.0 0.0 0.0 0.0 0.0 0.0

model/conv2d/Conv2D f2 [64, 3, 3, 1]
000000 27 a1 68 9e 23 a3 a8 9e 18 2b 80 2b e0 a0 9a 2c
       -0.01006 -0.006256 -0.01394 -0.0065 0.05542 0.0586 -0.00952 0.0719
000010 39 2c e3 1f 3c 2d 3a a8 c6 1f 46 2d 5f 2a 47 a9
       0.066 0.0077 0.0818 -0.03302 0.00759 0.0824 0.04977 -0.04123
000020 87 1f 9e 2d a3 a5 c6 19 49 21 5b 2e 4c 2d 79 ae
       0.00735 0.08777 -0.02202 0.00282 0.01032 0.0993 0.08276 -0.10114
000030 5a aa 7b 25 9a 96 00 8c 6d 2e cf 28 0b 2c f7 a6
       -0.04962 0.02141 -0.001612 -0.0002441 0.1004 0.03757 0.0632 -0.0272
000040 4d 2b fe 25 52 ac 0d 28 27 2a d0 a7 fc aa 20 29
       0.05704 0.0234 -0.0675 0.03165 0.04807 -0.03052 -0.05457 0.04004
000050 78 ac af ab ad 1c 21 ae 73 29 11 20 a9 2d 40 2d
       -0.0698 -0.06003 0.004566 -0.09576 0.04257 0.00794 0.08844 0.08203
000060 7d a0 17 ae f8 a9 4d 27 de 28 32 27 7e 27 66 ae
       -0.008766 -0.09515 -0.04663 0.02852 0.03802 0.0281 0.02927 -0.1
000070 4a a9 34 ae c4 2d d9 24 88 26 ee 28 17 ad 16 1e
       -0.04132 -0.0969 0.0901 0.01894 0.02551 0.0385 -0.0795 0.005943
000080 b7 ad 53 ac 6e ab 3d ad ef 20 d8 a9 81 24 ac a9
       -0.0893 -0.06757 -0.05804 -0.08185 0.009636 -0.04565 0.0176 -0.0443
000090 0b aa e0 2c 19 ad 7f 2d f3 2c fd 21 3d ae c3 1d
       -0.0472 0.0762 -0.07965 0.0859 0.07733 0.011696 -0.0975 0.005627
0000a0 80 a6 c2 a8 1f 1d b2 28 28 a9 1c 2c 19 24 59 aa
       -0.02539 -0.03717 0.005 0.03668 -0.04028 0.0642 0.016 -0.0496
0000b0 1d a9 c5 20 53 ad 03 ae 05 ae f2 28 4a 2b 08 2d
       -0.03995 0.009315 -0.0832 -0.09393 -0.09406 0.03864 0.05695 0.0786
0000c0 c4 ac cf 2a e4 2c 08 ad 24 1c a1 a4 90 aa a4 28
       -0.07446 0.0532 0.0764 -0.0786 0.004044 -0.01808 -0.05127 0.03625
0000d0 06 ad 8d ad bb 29 31 25 68 a8 d8 a6 67 a1 9a ad
       -0.0785 -0.08673 0.04477 0.02028 -0.03442 -0.02673 -0.01055 -0.0875
0000e0 0a 24 e3 a9 46 a8 16 2e 6e 2e d0 a2 85 23 ae 1c
       0.01578 -0.046 -0.0334 0.0951 0.10046 -0.013306 0.01469 0.00457
0000f0 e9 2b 86 a9 c8 a7 d9 ad 39 29 c1 2d 6a 2c 47 ac
       0.0618 -0.04315 -0.0304 -0.0914 0.0408 0.0899 0.069 -0.06683
000100 c6 27 e1 2c b2 2c b9 20 e6 29 5e ac 59 2e 5f a5
       0.03036 0.07623 0.07336 0.009224 0.04608 -0.06824 0.0992 -0.02098
000110 6f 2c bb ad 1e ae a2 2c a3 2d 23 2c ba ab 5c 29
       0.0693 -0.08954 -0.0956 0.0724 0.0881 0.06464 -0.06036 0.04187
000120 9c a8 04 8d 46 ac 12 a9 87 28 13 a8 d3 1c 28 2c
       -0.036 -0.0003061 -0.0668 -0.0396 0.03537 -0.03183 0.00471 0.06494
000130 58 27 f1 a1 c0 98 aa 2d f1 a5 fd 25 ea 29 68 a9
       0.02869 -0.011604 -0.00232 0.0885 -0.02321 0.02339 0.0462 -0.04224
000140 47 ac 51 2a 53 9e 67 ae 8e 2c fc 9f 3f 1c 38 a4
       -0.06683 0.04935 -0.006176 -0.10004 0.07117 -0.007797 0.004147 -0.01648
000150 55 a8 79 21 48 2c 3d 21 39 2c d3 aa 1b ae 9d ad
       -0.03384 0.01069 0.0669 0.01023 0.066 -0.0533 -0.0954 -0.0877
000160 bf ac d4 ad 20 a7 c5 29 90 ac 1f a8 51 91 b6 2c
       -0.07416 -0.09106 -0.02783 0.04507 -0.0713 -0.0322 -0.000649 0.0736
000170 af 20 39 ac 90 2d 81 26 af 29 3f ad ce 2d 67 2e
       0.00915 -0.066 0.0869 0.0254 0.0444 -0.082 0.0907 0.10004
000180 58 2c fa ac 3d 2c a9 ad 53 ad 71 2b 86 1d 19 2a
       0.0679 -0.07776 0.0662 -0.08844 -0.0832 0.05814 0.005394 0.04764
000190 1e 2e 94 2d 6e 2c 7c 29 0e 27 65 26 e4 23 c1 25
       0.0956 0.08716 0.0692 0.04285 0.02756 0.02498 0.01541 0.02248
0001a0 12 2e 6b ac f7 26 de a4 9f aa b1 ad 18 ad f3 a5
       0.09485 -0.06903 0.0272 -0.01901 -0.05173 -0.0889 -0.0796 -0.02324
0001b0 dd aa 2c ae 0b ae aa 96 b0 a9 1a 22 bf 2c 8a ad
       -0.05362 -0.09644 -0.0944 -0.001627 -0.04443 0.01192 0.07416 -0.08655
0001c0 35 ae 1b a6 f5 ac 1e 28 12 ac 11 a8 0a 24 d6 a8
       -0.097 -0.02385 -0.07745 0.03217 -0.0636 -0.03177 0.01578 -0.03778
0001d0 e1 ad 0b a5 98 ac 28 ae 95 25 0a 9e 19 26 bb a3
       -0.09186 -0.0197 -0.0718 -0.0962 0.0218 -0.005898 0.02382 -0.0151
0001e0 0f 27 90 29 7f 20 42 1d b4 24 69 2b 91 25 9c 1e
       0.02757 0.04346 0.00878 0.005135 0.01837 0.0579 0.02174 0.006454
0001f0 0f ae 33 2c cf a9 c5 24 21 2e 94 ab 0e 25 4b 2e
       -0.09467 0.0656 -0.04538 0.01863 0.09576 -0.0592 0.01974 0.0983

model/conv2d_1/Conv2D f2 [64, 3, 3, 64]
000000 a9 a5 da 9d a3 a4 58 ac ea 9f 0f 27 51 ab c8 a8
       -0.02211 -0.005714 -0.01811 -0.0679 -0.00773 0.02757 -0.05716 -0.03735
000010 fa 9d b4 29 c2 29 4f 29 cf a2 04 20 96 9f 65 ab
       -0.005836 0.04456 0.04498 0.04147 -0.0133 0.00784 -0.00741 -0.05777
000020 a9 8e 2e 29 c0 a5 58 ac 14 29 53 a9 14 aa 74 2c
       -0.0004065 0.04047 -0.02246 -0.0679 0.03967 -0.0416 -0.0475 0.0696
000030 c6 a7 3d 24 22 28 35 26 43 aa 22 98 5e a8 8e a7
       -0.03036 0.01656 0.0323 0.02425 -0.04892 -0.002018 -0.03412 -0.02951
000040 5f 2c 7b 2a 0e 2b d7 95 26 2c 89 21 73 1e 49 a7
       0.0683 0.05063 0.0551 -0.001426 0.0648 0.01081 0.006298 -0.02846
000050 1a a5 5f 9c 29 a8 55 a3 23 20 18 2c 6f 24 ee a8
       -0.01993 -0.00427 -0.0325 -0.01432 0.00808 0.06396 0.01732 -0.0385
000060 a4 a0 df a9 73 a8 5d ab 77 a5 a9 ab cd 21 f1 a3
       -0.00906 -0.04587 -0.03476 -0.05753 -0.02135 -0.05984 0.01133 -0.01551
000070 ae ab 6c 9c 7b 28 96 2c 6b ab 65 a7 cb ab f3 28
       -0.06 -0.00432 0.035 0.07166 -0.05795 -0.02888 -0.06088 0.03867
000080 9d 2c b1 28 3e ab 17 2c 0a 19 df a0 58 a2 da a6
       0.0721 0.03665 -0.05658 0.0639 0.00246 -0.009514 -0.01239 -0.02676
000090 39 24 46 24 30 24 db a8 23 aa d4 ab 45 ac 77 2c
       0.0165 0.0167 0.01636 -0.03793 -0.04794 -0.06116 -0.0667 0.06976
0000a0 ff 9e 33 29 d8 2a a5 2a 50 a5 1c ab 09 27 4d a5
       -0.006832 0.04062 0.05347 0.0519 -0.02075 -0.05554 0.02748 -0.0207
0000b0 ef 26 f5 2b 60 ab 36 82 a0 2a 9c ab 2d a4 ad 26
       0.02708 0.06216 -0.05762 -3.374e-05 0.05176 -0.05945 -0.01631 0.02608
0000c0 76 9f c5 27 66 2c e6 2b 01 29 2b a7 1c a0 08 22
       -0.007286 0.03035 0.0687 0.0617 0.0391 -0.028 -0.008026 0.01178
0000d0 5e 2a 46 23 83 a9 57 ac 13 26 02 25 86 aa 2c a9
       0.04974 0.014206 -0.04306 -0.0678 0.02373 0.01956 -0.05096 -0.0404
0000e0 92 9b 62 92 ad 1c be a8 92 25 74 a8 2f a7 76 ac
       -0.003696 -0.000779 0.004566 -0.03705 0.02176 -0.0348 -0.02806 -0.0697
0000f0 c4 2a 2b 2a 84 2a 2d 26 1f a5 86 29 bc 99 65 a4
       0.05286 0.0482 0.0509 0.02412 -0.02 0.04315 -0.0028 -0.01717
000100 65 a6 59 2c 0d aa 47 a2 a8 27 d4 2b b0 27 46 ac
       -0.02498 0.06793 -0.04727 -0.01226 0.0299 0.06116 0.03003 -0.0668
000110 10 a8 67 ac 8f 29 0c a1 1c 19 4f a5 03 92 64 a9
       -0.03174 -0.0688 0.04343 -0.00986 0.002495 -0.02074 -0.000734 -0.0421
000120 87 25 28 28 92 ab fb 2a 23 2c 2b a9 ee 8e c4 9d
       0.02159 0.03247 -0.05914 0.05453 0.06464 -0.04037 -0.000423 -0.00563
000130 99 a3 46 2c f6 a7 d2 a7 d0 1b dc aa e4 ab ee 9d
       -0.01484 0.0668 -0.0311 -0.03055 0.003815 -0.0536 -0.06165 -0.00579
000140 3d 97 11 29 0a ac 47 ab b1 a9 f8 a6 62 19 36 26
       -0.001767 0.03958 -0.0631 -0.05685 -0.04446 -0.02722 0.002628 0.02426
000150 9a 2c 88 a8 64 ac 3d 24 7a 2b fd a6 54 ac a6 a8
       0.0719 -0.0354 -0.0686 0.01656 0.0584 -0.0273 -0.0676 -0.03632
000160 57 28 af aa 05 27 2f 2c 55 a7 df 2b b8 26 81 a8
       0.0339 -0.05222 0.02742 0.06537 -0.02864 0.0615 0.02625 -0.0352
000170 ac 27 3c 25 36 2c 97 a4 a9 2b 8b ac 5d a5 2f 2b
       0.02997 0.02045 0.0658 -0.01793 0.05984 -0.071 -0.02095 0.05612
000180 e8 27 e2 a3 f3 2a 71 ac a3 25 46 2c f5 29 77 29
       0.03088 -0.015396 0.0543 -0.0694 0.02202 0.0668 0.04654 0.0427
000190 05 2c 1f 26 9c 2a 8a 22 47 2c 4b a9 5f 26 da a2
       0.0628 0.02391 0.05164 0.01277 0.06683 -0.04135 0.02489 -0.01338
0001a0 23 29 98 ab f6 a8 4b 2b 10 20 e9 aa de 25 f4 a8
       0.04013 -0.05933 -0.03876 0.05698 0.007935 -0.054 0.02292 -0.0387
0001b0 57 25 15 9d 12 29 d8 24 49 29 4c 29 02 a2 8f 26
       0.02086 -0.004963 0.0396 0.01892 0.0413 0.04138 -0.011734 0.02562
0001c0 36 23 1f 27 df 9c 1a 2b 48 28 ce 9e 70 a8 44 27
       0.014084 0.02782 -0.004757 0.05548 0.03345 -0.006645 -0.03467 0.02838
0001d0 ce ab ee 21 8d a4 34 26 e1 1f 21 29 cb 2b eb 2b
       -0.06097 0.01158 -0.01778 0.02423 0.007694 0.04007 0.06088 0.06186
0001e0 f8 a8 ba aa ce 1c 82 ac 83 a2 0c a8 56 1c 3d 2c
       -0.03882 -0.05255 0.004692 -0.07043 -0.01272 -0.03162 0.004234 0.0662
0001f0 7a 26 c6 a8 33 ab bd ab 22 ac c8 1f b0 a7 cd aa
       0.0253 -0.0373 -0.05624 -0.06046 -0.0646 0.0076 -0.03003 -0.05313

model/conv2d_2/Conv2D f2 [64, 3, 3, 64]
000000 04 1b 2e a7 27 2a 4d 22 8a 26 78 2c b9 a5 34 2c
       0.003426 -0.02805 0.04807 0.01231 0.02554 0.0698 -0.02235 0.0657
000010 82 2a a0 26 ce 24 0b 29 bf 26 d5 ab 8a a6 da a6
       0.05084 0.02588 0.01877 0.0394 0.02635 -0.0612 -0.02554 -0.02676
000020 80 28 19 a3 45 22 bd 28 6c 29 c3 a5 9a aa d5 a8
       0.03516 -0.01386 0.012245 0.03702 0.04236 -0.0225 -0.05157 -0.03775
000030 34 23 95 2b bc 90 3f 2c f6 a8 2c 26 ad 2a f0 2b
       0.01407 0.05923 -0.000578 0.06635 -0.03876 0.02411 0.05215 0.062
000040 92 28 38 2a 5a 9d ea a9 55 2c c2 a2 ce a8 5d 8d
       0.0357 0.04858 -0.005226 -0.0462 0.0677 -0.0132 -0.03754 -0.0003273
000050 a7 a7 18 ac 4a 2c 6b a5 95 2b 0e a8 ab 24 8b 29
       -0.02989 -0.06396 0.067 -0.02116 0.05923 -0.03168 0.01823 0.0433
000060 93 2a 08 ac c0 a7 3f 22 7f 1d 43 28 d0 a6 e5 a8
       0.05136 -0.063 -0.03027 0.0122 0.005367 0.0333 -0.02661 -0.03824
000070 23 ab bb a8 8b ac 8a a7 c2 2b 72 2c 3b ac 2e a3
       -0.05576 -0.03696 -0.071 -0.02945 0.0606 0.06946 -0.0661 -0.01402
000080 d6 a9 2a 21 9b 98 98 a7 a5 a8 c5 1a 0f 26 4a 2a
       -0.0456 0.010086 -0.002249 -0.02966 -0.0363 0.003305 0.02367 0.04913
000090 3b a2 cd 23 aa 24 58 aa 23 ab 10 aa 9e 22 ea a7
       -0.01217 0.015236 0.01822 -0.04956 -0.05576 -0.04736 0.012924 -0.03091
0000a0 83 ac 42 27 7b 29 89 ab 0f ac 4c 9d 26 2a d4 92
       -0.0705 0.02835 0.04282 -0.05887 -0.0634 -0.005173 0.04803 -0.0008335
0000b0 31 9e fa ab a2 a9 23 a9 c7 a8 24 23 33 25 22 9e
       -0.006046 -0.06232 -0.044 -0.04013 -0.03732 0.01395 0.02031 -0.00599
0000c0 52 2c 5f 2c 9f 1e 46 2c 18 27 ec a7 fe 23 69 9b
       0.0675 0.0683 0.006466 0.0668 0.02771 -0.03094 0.01561 -0.003618
0000d0 72 a9 dd 29 ec a9 be 1f e4 aa c2 a7 7d 25 d7 2b
       -0.04254 0.0458 -0.04626 0.00756 -0.05383 -0.0303 0.02144 0.06125
0000e0 0c 25 bb a8 bf 25 7f 24 67 2b 19 29 75 a9 5a a0
       0.01971 -0.03696 0.02245 0.01756 0.05783 0.03983 -0.04263 -0.0085
0000f0 88 aa 5c 2c d3 9f 91 aa 54 29 46 2c 41 2c 56 27
       -0.05103 0.0681 -0.00764 -0.0513 0.04163 0.0668 0.06647 0.02866
000100 ba ab 42 2c 4b a5 45 a4 16 a4 50 ab ff 22 53 20
       -0.06036 0.0665 -0.02068 -0.01668 -0.01596 -0.05713 0.013664 0.008446
000110 e2 2a 11 2a 41 28 22 a5 84 ab 66 9d 92 a9 8f 29
       0.05377 0.0474 0.03323 -0.02005 -0.05872 -0.005272 -0.04352 0.04343
000120 73 ab 59 28 70 a3 78 ab 31 ac 8b 28 30 24 7b a5
       -0.0582 0.03397 -0.01453 -0.05835 -0.0655 0.0355 0.01636 -0.02141
000130 9b 26 f9 21 41 29 62 2a 5a 28 33 1c 06 23 68 ac
       0.0258 0.011665 0.04105 0.04987 0.034 0.0041 0.01372 -0.06885
000140 4c 29 14 28 e4 a6 18 2a 40 2c 1f 25 a1 2a 07 29
       0.04138 0.03186 -0.02692 0.0476 0.0664 0.02 0.0518 0.03928
000150 6e aa ca 26 40 a0 15 1d cb 9f ab 29 d5 24 90 22
       -0.05023 0.02652 -0.0083 0.004963 -0.00761 0.04428 0.01888 0.01282
000160 cd 14 9a 2c bf a9 9d a6 8d a5 0d 2a 87 20 24 29
       0.001172 0.0719 -0.0449 -0.02583 -0.02168 0.04727 0.00884 0.04016
000170 0e ab d9 27 ed 2a 17 98 76 a4 12 2c 8c 2a bc a3
       -0.0551 0.03065 0.0541 -0.001997 -0.01743 0.0636 0.05115 -0.01511
000180 0c 29 26 a3 9d ab 7a a9 5b ab 97 2c d3 2a e0 28
       0.03943 -0.01396 -0.05948 -0.0428 -0.05746 0.0717 0.0533 0.0381
000190 55 28 c8 ab 7f 24 57 ac 85 0a 02 a6 8d a4 2f 2a
       0.03384 -0.0608 0.01756 -0.0678 0.000199 -0.02347 -0.01778 0.0483
0001a0 9c 9c 5d a9 04 ac 76 2b 10 ac 66 a8 80 a6 31 a9
       -0.0045 -0.0419 -0.06274 0.0583 -0.0635 -0.03436 -0.02539 -0.04056
0001b0 10 a4 80 ac e2 1f 9e 25 5b 9d d3 aa 6d 9a ec 29
       -0.01587 -0.0703 0.007698 0.02194 -0.00523 -0.0533 -0.003138 0.04626
0001c0 07 9f 92 a9 95 a4 0e 28 1d 24 14 1e 3e 2c c1 22
       -0.006863 -0.04352 -0.0179 0.03168 0.01607 0.005936 0.0663 0.01319
0001d0 f7 9c 36 a8 04 a0 94 29 96 1e 8b 2a 9c 24 81 ac
       -0.00485 -0.0329 -0.00784 0.04358 0.00643 0.05112 0.018 -0.0704
0001e0 be a8 0c 2c bc a9 aa ab 17 ac 6e 12 cf a9 91 29
       -0.03705 0.06323 -0.0448 -0.05988 -0.0639 0.000785 -0.04538 0.0435
0001f0 fb a8 9d 26 04 a3 88 2c 79 2a f6 a9 07 29 17 29
       -0.0389 0.02583 -0.0137 0.0708 0.05057 -0.04657 0.03928 0.03976

model/conv2d_3/Conv2D f2 [64, 3, 3, 64]
000000 19 2c 0d ac bd a5 b8 29 45 ac 6d a8 43 24 52 a8
       0.064 -0.0633 -0.02242 0.04468 -0.0667 -0.03458 0.01665 -0.03375
000010 87 ac 66 a8 3e 2a 59 28 1c ab ae 8e 49 a8 3d 27
       -0.07074 -0.03436 0.04877 0.03397 -0.05554 -0.0004077 -0.03348 0.02827
000020 80 9d dc a8 c0 25 5e a9 e7 ab 81 28 a6 22 75 a8
       -0.00537 -0.03796 0.02246 -0.04193 -0.06174 0.0352 0.012985 -0.03482
000030 cd 2a 55 a2 8d ac 59 a3 b9 24 5d aa b3 aa 48 ac
       0.05313 -0.01237 -0.0711 -0.01435 0.01845 -0.0497 -0.05234 -0.0669
000040 5a 20 6d 22 9b ab 2d 2a 6e 2a e6 21 17 ac 3d 9d
       0.0085 0.01255 -0.05942 0.04825 0.05023 0.01152 -0.0639 -0.005116
000050 65 aa 23 a4 28 2a 78 ab c8 2b fc a7 9f ab 3c 28
       -0.04996 -0.01616 0.0481 -0.05835 0.0608 -0.03119 -0.05954 0.03308
000060 71 26 c6 a6 89 ac b9 a8 f4 ab 17 ac 90 2b a4 a5
       0.02516 -0.02646 -0.07086 -0.0369 -0.06213 -0.0639 0.05908 -0.02203
000070 56 a4 e2 27 5d ac 39 2c 0b 29 7f 2c 47 aa cc a5
       -0.01694 0.03079 -0.0682 0.066 0.0394 0.07025 -0.04904 -0.02264
000080 e8 99 52 2c 1f 29 07 aa 7f ac a0 20 da 2a 1c 2c
       -0.002884 0.0675 0.04 -0.0471 -0.07025 0.00903 0.05353 0.0642
000090 d8 1a 27 a9 90 a2 d0 a7 b6 25 83 24 29 29 b6 14
       0.003342 -0.04025 -0.01282 -0.03052 0.02231 0.01762 0.0403 0.00115
0000a0 fe 27 27 2b 3e 2c 46 a7 8e a2 5c aa f6 a4 a9 27
       0.03122 0.05588 0.0663 -0.02841 -0.0128 -0.04968 -0.01938 0.02992
0000b0 d7 a9 52 ac 3a ab 9f ab 22 ac 30 a9 14 2c cd a9
       -0.04562 -0.0675 -0.05646 -0.05954 -0.0646 -0.04053 0.0637 -0.04532
0000c0 33 ac d2 a5 73 1f b0 2a 93 2c 47 a6 aa 29 69 2c
       -0.0656 -0.02274 0.007275 0.05225 0.0715 -0.02452 0.04425 0.0689
0000d0 27 28 5c a8 c7 a9 77 ac ad 29 1d 1b d9 ab aa aa
       0.03244 -0.03406 -0.04514 -0.06976 0.04434 0.003473 -0.0613 -0.05206
0000e0 ca 29 42 a2 ab ab 97 ab 86 a5 43 9e 61 2c f4 28
       0.04523 -0.01222 -0.0599 -0.0593 -0.02158 -0.006115 0.0684 0.0387
0000f0 7b 2c b7 29 4c a5 99 24 56 a9 ce a8 20 a0 68 2a
       0.07 0.04465 -0.02069 0.01796 -0.0417 -0.03754 -0.00806 0.05005
000100 be a7 27 2c 6d 28 21 2c 90 1f 80 2c 0f 22 8a a5
       -0.03024 0.0649 0.03458 0.0645 0.007385 0.0703 0.01183 -0.02164
000110 0a 25 1e 2b c5 a2 0c 2c e1 23 f0 23 b7 ab a7 28
       0.01968 0.0556 -0.01322 0.06323 0.01539 0.0155 -0.06027 0.03635
000120 0b 2a e8 aa cc 29 54 ac 51 29 c0 a5 9a 2c 6d 24
       0.0472 -0.05396 0.0453 -0.0676 0.04153 -0.02246 0.0719 0.01729
000130 d6 a4 4a 28 39 aa 7c a7 17 2b 8f 29 7a 28 86 2a
       -0.01889 0.0335 -0.0486 -0.02924 0.0554 0.04343 0.03497 0.05096
000140 2d 27 17 aa 1f ac 40 24 66 0f 28 28 08 25 7e 96
       0.02803 -0.04758 -0.0644 0.0166 0.0004516 0.03247 0.01965 -0.001585
000150 79 16 8d 2a 26 ab b0 94 7a a8 1c a9 6c a8 7d 28
       0.00158 0.05118 -0.05585 -0.001144 -0.03497 -0.03992 -0.03455 0.03506
000160 7b ac 61 ac fb 2b 11 a9 65 ac 95 a9 d0 20 76 2c
       -0.07 -0.0684 0.06235 -0.03958 -0.06866 -0.0436 0.0094 0.0697
000170 c9 29 05 ac 07 2b 4d 25 cb 23 7a a9 10 a4 f0 22
       0.0452 -0.0628 0.0549 0.0207 0.01522 -0.0428 -0.01587 0.01355
000180 2c a5 b5 24 48 aa b0 a8 15 27 2b 2a 43 aa 95 28
       -0.0202 0.01839 -0.04907 -0.03662 0.02766 0.0482 -0.04892 0.0358
000190 7f 26 1e 2b b6 ab 7c ac c9 a5 ec 22 5a aa 64 ab
       0.02538 0.0556 -0.06024 -0.07007 -0.0226 0.01352 -0.04962 -0.05774
0001a0 0f 29 e6 a8 35 2c 95 a6 98 2a 1a 2b 49 a5 5b ab
       0.03952 -0.03827 0.06573 -0.02571 0.0515 0.05548 -0.02065 -0.05746
0001b0 7d a5 87 ac 3b ab d5 20 ef aa da 25 ad 29 fb 2a
       -0.02144 -0.07074 -0.0565 0.00944 -0.05417 0.02286 0.04434 0.05453
0001c0 3e a8 b6 29 c7 2b de a9 50 ac 8c aa 2e 28 2f a6
       -0.03314 0.04462 0.06076 -0.04584 -0.0674 -0.05115 0.03265 -0.02415
0001d0 17 2b 6a 14 22 28 1d 2a f9 21 d7 a2 8a 17 0f a9
       0.0554 0.001078 0.0323 0.04776 0.011665 -0.01336 0.001841 -0.03952
0001e0 92 a2 b1 a9 a3 a9 67 aa 53 a8 07 aa 4a a8 e7 93
       -0.01283 -0.04446 -0.04404 -0.05002 -0.03378 -0.0471 -0.0335 -0.0009646
0001f0 d3 25 aa 28 4b 29 5e 20 fb 9c d1 a8 36 a0 42 ab
       0.02275 0.03644 0.04135 0.00853 -0.004864 -0.03763 -0.008224 -0.0567

model/conv2d_4/Conv2D f2 [64, 3, 3, 64]
000000 0d a0 11 2a 2b 2c 4a aa 02 ac 36 ab 3e a7 ea 1d
       -0.00791 0.0474 0.0651 -0.04913 -0.0626 -0.05634 -0.02829 0.005775
000010 cd ab 95 1c 26 a4 79 99 12 28 09 28 3d aa 0f 27
       -0.06094 0.004475 -0.0162 -0.002672 0.0318 0.03152 -0.04874 0.02757
000020 01 a0 8d 2c 3a a8 ea a7 74 a2 be 9f f2 a1 e3 2b
       -0.00782 0.0711 -0.03302 -0.03091 -0.0126 -0.00756 -0.01161 0.0616
000030 93 aa 8b ac 50 20 13 ab 81 a6 53 a5 98 2a 7c 2a
       -0.05136 -0.071 0.00842 -0.05527 -0.0254 -0.0208 0.0515 0.05066
000040 ef a0 3f aa c6 2a 4d 28 33 23 fe 25 a9 a9 eb a4
       -0.009636 -0.0488 0.05292 0.0336 0.01406 0.0234 -0.04422 -0.01921
000050 9d ac 89 26 f8 2a 99 a8 73 aa 51 2c d1 a2 f0 a9
       -0.0721 0.02553 0.05444 -0.03592 -0.05038 0.06744 -0.01331 -0.0464
000060 1a a5 65 9a 7c 27 61 9c 44 2a a4 29 68 a9 a6 a8
       -0.01993 -0.003122 0.02924 -0.004276 0.04895 0.04407 -0.04224 -0.03632
000070 3b ab c9 a8 2b a8 52 ac 2e 24 f8 99 38 22 76 a0
       -0.0565 -0.03738 -0.03256 -0.0675 0.01633 -0.002914 0.012146 -0.00871
000080 6b 2b f1 2a af 21 9b 24 d2 2b 2d 29 5c a8 82 2a
       0.05795 0.05423 0.0111 0.01799 0.0611 0.04044 -0.03406 0.05084
000090 33 2c 18 ac 43 a8 99 a1 6e ab 92 a9 8e 2c 10 29
       0.0656 -0.06396 -0.0333 -0.01093 -0.05804 -0.04352 0.07117 0.03955
0000a0 87 a4 5e a5 f3 05 ad a0 fc a4 99 23 ba 23 91 2a
       -0.01768 -0.02097 9.08e-05 -0.00913 -0.01947 0.01484 0.01509 0.0513
0000b0 02 a9 55 2c 18 26 05 2a 6b 27 13 28 63 aa 52 a8
       -0.03912 0.0677 0.0238 0.04703 0.02898 0.03183 -0.0499 -0.03375
0000c0 fd aa 57 9d d8 2b 88 a1 ed 28 24 a9 2f ac 11 a9
       -0.0546 -0.005215 0.06128 -0.0108 0.03848 -0.04016 -0.06537 -0.03958
0000d0 d4 2a 30 ab d2 a4 45 24 0b 23 d2 1d c5 22 a5 17
       0.05334 -0.05615 -0.01883 0.01668 0.013756 0.005684 0.01322 0.001866
0000e0 15 28 c5 23 c9 24 ff a1 bc aa be a7 2c a6 8e 21
       0.0319 0.015175 0.01869 -0.01171 -0.0526 -0.03024 -0.02411 0.01085
0000f0 5e 2a 25 25 38 24 46 a6 d9 2b 11 aa 7e ac d5 12
       0.04974 0.0201 0.01648 -0.0245 0.0613 -0.0474 -0.0702 0.000834
000100 d1 a2 95 a4 01 20 fc 27 0a 28 22 a5 b9 21 c0 29
       -0.01331 -0.0179 0.00782 0.03119 0.03156 -0.02005 0.01118 0.04492
000110 8a a8 59 24 e4 22 81 2c 40 ac 5e ac 58 2b bc 29
       -0.03546 0.01698 0.01346 0.0704 -0.0664 -0.06824 0.05737 0.0448
000120 5e a8 e6 25 60 2c 9d 20 e2 93 d4 a8 73 a8 53 a8
       -0.03412 0.02304 0.06836 0.00901 -0.0009623 -0.03772 -0.03476 -0.03378
000130 ad a8 62 25 9e 1f 4c ab 14 ac 7b 28 01 26 14 a6
       -0.03653 0.02103 0.00744 -0.057 -0.0637 0.035 0.02345 -0.02374
000140 da a5 c4 28 0d 2c e1 ab 14 2c 87 20 74 28 7a a5
       -0.02286 0.03723 0.0633 -0.06155 0.0637 0.00884 0.0348 -0.0214
000150 f3 2a 1b a7 f7 a8 16 97 69 aa 5e 2c cc 1e 99 29
       0.0543 -0.02776 -0.0388 -0.00173 -0.05008 0.06824 0.006638 0.04373
000160 5c 2c 28 ab d6 2b 40 a8 19 ac 6a a4 31 2b 47 1e
       0.0681 -0.0559 0.06122 -0.0332 -0.064 -0.01724 0.05618 0.00613
000170 5d 2b 7a 27 8d 29 83 ac c9 a9 9f aa 4c ac c2 a4
       0.05753 0.0292 0.04337 -0.0705 -0.0452 -0.05173 -0.06714 -0.01859
000180 f4 2b 0d 2c 5c 2a 9a ac d6 2b fb ab 4f 23 40 25
       0.06213 0.0633 0.04968 -0.0719 0.06122 -0.06235 0.014275 0.02051
000190 4f 2c 6a ac 92 2b 6e ac 61 2c b1 29 34 28 31 a9
       0.0673 -0.069 0.05914 -0.0692 0.0684 0.04446 0.03284 -0.04056
0001a0 65 0e 96 a1 d9 a8 97 2b a0 29 8c ac 64 11 b9 a7
       0.0003903 -0.01091 -0.03787 0.0593 0.04395 -0.07104 0.000658 -0.03017
0001b0 9a a6 f6 2a 9d 28 a5 18 14 26 b1 2a 3d 24 79 a9
       -0.02579 0.05438 0.03604 0.002268 0.02374 0.05228 0.01656 -0.04276
0001c0 ac 28 5e 2c 73 2c 5e 2b 82 2c 19 1d 7b 28 af a8
       0.0365 0.06824 0.0695 0.05756 0.07043 0.00498 0.035 -0.0366
0001d0 66 a0 c0 a6 1c 29 44 2c 90 a7 1a 1c e3 a0 65 a8
       -0.00859 -0.02637 0.03992 0.06665 -0.02954 0.004005 -0.009544 -0.03433
0001e0 7f a5 8a a5 3a a6 5a 1a 69 2a 54 2c 43 2c 87 2c
       -0.02147 -0.02164 -0.02432 0.003101 0.05008 0.0676 0.0666 0.07074
0001f0 77 a9 8d ab f4 a9 ca 29 19 2a 0d 25 08 01 a6 2a
       -0.0427 -0.059 -0.0465 0.04523 0.04764 0.01973 1.574e-05 0.05194

model/conv2d_5/Conv2D f2 [64, 3, 3, 64]
000000 3e 26 1e aa d6 25 cf a9 24 aa d5 2b 34 28 58 2c
       0.02438 -0.0478 0.0228 -0.04538 -0.04797 0.0612 0.03284 0.0679
000010 a6 a9 b1 22 fa 2b 80 29 91 28 0a 15 9b a4 c8 1e
       -0.04413 0.01307 0.06232 0.04297 0.03568 0.00123 -0.01799 0.006622
000020 21 2c 1c aa b6 1a 99 2c ee 1f a1 9b 88 a2 f7 2b
       0.0645 -0.04773 0.003277 0.07184 0.007744 -0.003725 -0.01276 0.06223
000030 c9 26 3a 9f c2 28 dc 21 47 99 2b 1f 44 aa 4e 2c
       0.0265 -0.007057 0.03717 0.011444 -0.002577 0.007 -0.04895 0.06726
000040 c5 a8 8b a9 35 2b 70 9e 0a 26 48 ac 32 a2 ed a5
       -0.03726 -0.0433 0.0563 -0.006287 0.02359 -0.0669 -0.0121 -0.02315
000050 ad a6 f0 a5 10 ac 99 ac 00 9d 51 ab 69 a9 49 a6
       -0.02608 -0.0232 -0.0635 -0.07184 -0.004883 -0.05716 -0.04227 -0.02455
000060 79 1c 08 20 57 29 8c 2c 44 28 71 2a 72 1d a2 28
       0.004368 0.00787 0.04172 0.07104 0.03333 0.05032 0.005318 0.0362
000070 60 21 4b a0 d0 26 ce 28 20 1d 13 a4 6c 9d f0 28
       0.0105 -0.008385 0.02661 0.03754 0.005005 -0.01591 -0.005295 0.03857
000080 2a 23 63 28 9c 29 eb aa 3a a3 9a a8 09 ab e3 24
       0.01399 0.03427 0.04382 -0.05405 -0.014114 -0.03595 -0.05496 0.01909
000090 b3 2b 0e 28 20 29 4c 9e fd 24 eb 27 e7 a6 aa 2b
       0.06015 0.03168 0.04004 -0.00615 0.01949 0.03093 -0.02696 0.05988
0000a0 1a a9 35 ac 50 20 71 26 9b 26 11 ab aa aa 74 1c
       -0.03986 -0.06573 0.00842 0.02516 0.0258 -0.0552 -0.05206 0.00435
0000b0 a7 28 fb 28 55 29 06 2a f5 aa eb 25 cd a9 d3 a4
       0.03635 0.0389 0.04166 0.04706 -0.05435 0.02312 -0.04532 -0.01884
0000c0 bf 26 de 97 27 26 65 2c 2e 2a ec a2 21 92 c9 aa
       0.02635 -0.001921 0.02403 0.06866 0.04828 -0.01352 -0.000748 -0.053
0000d0 4b ab 7a 24 af a8 bf 2b d2 a8 0c 25 d0 a3 59 ac
       -0.05698 0.01749 -0.0366 0.06052 -0.03766 0.01971 -0.01526 -0.06793
0000e0 d0 26 36 9c fa a6 be 2b 50 27 8c 26 2b 2b 27 a5
       0.02661 -0.004112 -0.02725 0.0605 0.02856 0.02557 0.056 -0.02013
0000f0 ff 20 b4 a7 02 a5 fd a4 04 a9 89 ab 4c 2c d1 2b
       0.00976 -0.03009 -0.01956 -0.01949 -0.03918 -0.05887 0.06714 0.06107
000100 53 26 20 23 86 9e 30 25 ea aa a8 a2 59 ac 55 aa
       0.0247 0.013916 -0.00637 0.02026 -0.05402 -0.013 -0.06793 -0.04947
000110 c6 27 37 ab 7f 2c 45 29 4e a6 2d a7 4a ab 85 25
       0.03036 -0.05637 0.07025 0.04117 -0.02463 -0.02803 -0.05695 0.02156
000120 c8 23 59 aa 00 2b b0 22 01 1e 47 2b 64 aa 88 a4
       0.0152 -0.0496 0.0547 0.01306 0.005863 0.05685 -0.04993 -0.0177
000130 74 a8 e1 a7 07 a6 70 2b 87 2a 74 9f 69 13 7f 2a
       -0.0348 -0.03078 -0.02354 0.0581 0.051 -0.00728 0.0009046 0.05075
000140 17 a5 c8 a2 fb 2b 45 aa 40 a5 25 a5 d8 1a 0b 2c
       -0.01988 -0.013245 0.06235 -0.04898 -0.02051 -0.0201 0.003342 0.0632
000150 78 2c 42 27 8f ac ed a4 74 a5 59 26 11 aa 61 2c
       0.0698 0.02835 -0.0712 -0.01924 -0.0213 0.0248 -0.0474 0.0684
000160 cf a8 23 ac 24 ac f9 24 89 a3 53 2b 5b 2c 6e ab
       -0.03757 -0.06464 -0.0647 0.01942 -0.01472 0.05722 0.06805 -0.05804
000170 b1 26 1e a4 e2 2b 1c 25 95 2c 8a 25 64 20 6e 29
       0.02614 -0.01608 0.06158 0.01996 0.0716 0.02164 0.008575 0.04242
000180 64 a4 ed a4 ef a1 b6 a1 11 2c 45 a8 5a 26 0e 28
       -0.01715 -0.01924 -0.01159 -0.011154 0.06354 -0.03336 0.02481 0.03168
000190 51 24 a1 a6 d8 9d ee 97 cb a5 7e 12 89 28 f8 28
       0.01686 -0.0259 -0.005707 -0.001936 -0.02263 0.0007925 0.03543 0.03882
0001a0 a4 a4 15 a0 e7 2b 41 2a 17 ab 8e a1 1e a4 61 99
       -0.01813 -0.00797 0.06174 0.04886 -0.0554 -0.01085 -0.01608 -0.002626
0001b0 1b 17 bc 27 5a a8 99 2b 60 2a fc 28 c9 ab e2 26
       0.001735 0.03021 -0.034 0.05936 0.0498 0.03894 -0.06082 0.02689
0001c0 cd 28 bc 25 6f 26 f9 21 3e 24 64 a6 22 ac 54 2c
       0.0375 0.0224 0.02513 0.011665 0.01657 -0.02496 -0.0646 0.0676
0001d0 a0 29 c5 a8 31 ac 2d a9 fa 25 24 2c 81 a8 7e 2c
       0.04395 -0.03726 -0.0655 -0.04044 0.02335 0.0647 -0.0352 0.0702
0001e0 e9 ab 8b 9a 0d a9 8d 2c 14 a9 d3 2b 82 99 96 aa
       -0.0618 -0.003195 -0.03946 0.0711 -0.03967 0.06113 -0.00269 -0.05145
0001f0 d4 a7 ff a9 76 a3 c6 a5 96 a7 14 a8 5e 2b 9a 2c
       -0.03058 -0.04684 -0.01457 -0.02255 -0.02963 -0.03186 0.05756 0.0719

model/time_distributed/dense/MatMul1 f2 [64, 128]
000000 64 a8 69 ac 16 a8 3e 28 a6 a5 10 ac fb 30 55 ae
       -0.0343 -0.0689 -0.03192 0.03314 -0.02206 -0.0635 0.1556 -0.09894
000010 d2 af 27 23 7b 2c 05 b1 b5 2b d8 2f 96 af ce aa
       -0.1222 0.01397 0.07 -0.1569 0.0602 0.12256 -0.1185 -0.05316
000020 79 29 ba 2c d6 2b 9d a9 10 31 64 31 6b ac dd ac
       0.04276 0.07385 0.06122 -0.04385 0.1582 0.1685 -0.06903 -0.076
000030 ec 30 2e 31 0c ad bb a8 41 af ad aa fa af 48 b0
       0.1538 0.1619 -0.07886 -0.03696 -0.11334 -0.05215 -0.12463 -0.1338
000040 e3 a8 97 30 97 aa 52 b1 94 aa 0a b1 03 2f 46 29
       -0.03818 0.1434 -0.05148 -0.1663 -0.0514 -0.1575 0.10956 0.0412
000050 16 31 08 2d 1b aa 15 ad 7c 2d 92 2e cf 2e a1 2c
       0.1589 0.0786 -0.0477 -0.0794 0.0857 0.10266 0.1064 0.0723
000060 2d ae 7e 20 5c 31 77 af ae ae 53 31 b9 2e 28 2f
       -0.0965 0.00877 0.1675 -0.11664 -0.1044 0.1664 0.10504 0.1118
000070 d4 b0 a9 30 68 b1 79 2b 9a b1 da 2c ec 30 eb 30
       -0.1509 0.1456 -0.169 0.05838 -0.175 0.0758 0.1538 0.1537
000080 ff 30 51 2d ca a3 66 2d 0c a7 70 2c 6b b1 7f 29
       0.1561 0.08307 -0.01521 0.08435 -0.02753 0.06934 -0.1693 0.04294
000090 8b a4 e4 2d 6d 31 e5 2e 51 28 cd b0 1b 30 77 af
       -0.01775 0.09204 0.1696 0.1077 0.03372 -0.15 0.1283 -0.11664
0000a0 4e aa bb 2d 53 ad 41 30 92 15 cf 30 11 a7 8a af
       -0.04926 0.08954 -0.0832 0.1329 0.00136 0.1503 -0.0276 -0.1178
0000b0 a2 30 c5 23 ce b0 38 2c 16 b1 e5 a3 f2 15 7a 31
       0.1448 0.015175 -0.1501 0.0659 -0.1589 -0.01542 0.0014515 0.1711
0000c0 57 ac 54 2d d7 2d 0d 29 95 2d 85 31 42 31 31 2f
       -0.0678 0.08325 0.09125 0.03946 0.0872 0.1725 0.1643 0.11237
0000d0 26 ae fb ae b8 ad e1 2e 32 31 80 ae 82 1e e7 ab
       -0.09607 -0.1091 -0.08936 0.1075 0.1624 -0.10156 0.006355 -0.06174
0000e0 99 2f 90 27 b4 22 24 2b 34 ac 53 8f bc 19 04 2c
       0.1187 0.02954 0.01309 0.0558 -0.0657 -0.000447 0.0028 0.06274
0000f0 83 31 e6 30 fe ad 8e 31 3e 26 67 2e 03 ae 19 28
       0.1722 0.1531 -0.0936 0.1736 0.02438 0.10004 -0.09393 0.032
000100 93 28 da 2d fe ae 4b ae f1 2d f6 a7 3a a9 cc aa
       0.03574 0.09143 -0.10925 -0.0983 0.09283 -0.0311 -0.04083 -0.0531
000110 fa ac 1d 2e 68 af da 2e 2a b1 22 ad 0e 2f 06 b0
       -0.07776 0.0955 -0.1157 0.10706 -0.1614 -0.0802 0.1102 -0.1257
000120 31 b1 9d b1 6a 2d 59 ae b5 28 16 b0 2e ad d7 aa
       -0.1622 -0.1754 0.0846 -0.0992 0.03677 -0.1277 -0.08093 -0.05344
000130 92 ae 05 25 34 b1 9e ac c8 30 08 2f 03 25 85 a0
       -0.10266 0.0196 -0.1626 -0.07214 0.1494 0.10986 0.01958 -0.00883
000140 7c a0 bb ad cf 25 a8 ae c9 a8 f6 b0 4f af 22 b0
       -0.00876 -0.08954 0.02269 -0.104 -0.03738 -0.155 -0.1142 -0.1292
000150 98 2b f1 30 fe 30 dc ac e1 ac f1 a9 ee aa 4d ab
       0.05933 0.1544 0.156 -0.0759 -0.07623 -0.04642 -0.05414 -0.05704
000160 78 b1 5e ac 3f 24 11 2b 57 a0 8f 2d 39 2d 18 2a
       -0.1709 -0.06824 0.01659 0.0552 -0.00848 0.08685 0.0816 0.0476
000170 8a 30 7a ab ae 2c b9 1c 11 b0 59 2c 53 2f 9e a4
       0.1418 -0.0584 0.0731 0.004612 -0.1271 0.06793 0.11444 -0.01804
000180 f0 2c 04 b1 57 28 37 26 8c ad bb 2e 96 a3 fb b0
       0.07715 -0.1567 0.0339 0.02428 -0.0867 0.10516 -0.01482 -0.1556
000190 60 b1 51 ac 55 31 2e b0 7b 2d a4 b0 0c 2d 0b af
       -0.168 -0.06744 0.1666 -0.1306 0.08563 -0.145 0.07886 -0.11005
0001a0 51 a1 5d 30 d2 ab 3b af cf 2b 6a a4 e7 28 6a 31
       -0.01038 0.1364 -0.0611 -0.113 0.061 -0.01724 0.0383 0.1692
0001b0 61 2a 6d b0 f0 28 1a ae 4f 30 ba a9 4b ab 75 a4
       0.04984 -0.1383 0.03857 -0.09534 0.1346 -0.04474 -0.05698 -0.01741
0001c0 c3 29 38 2e 38 9c 0e 31 68 a5 23 2d d7 b0 07 ad
       0.045 0.09717 -0.00412 0.158 -0.02112 0.08026 -0.1512 -0.07855
0001d0 d2 ae 23 31 a0 ac 58 b1 53 b0 17 2c 51 26 0e b1
       -0.10657 0.1605 -0.07227 -0.167 -0.1351 0.0639 0.02467 -0.158
0001e0 ed ab 11 30 8e 2a e4 a5 66 ac 75 ad aa a8 5d ac
       -0.06192 0.1271 0.0512 -0.02301 -0.0687 -0.08527 -0.03644 -0.0682
0001f0 39 08 a6 2d 50 b1 e5 ad aa ae 50 aa d3 2f 7c ad
       0.0001289 0.08826 -0.166 -0.0921 -0.1041 -0.04932 0.12225 -0.0857

model/time_distributed_1/dense_1/MatMul f2 [1, 64]
000000 72 2f 31 17 97 2c b4 aa a5 30 27 b4 01 34 db 2d
       0.11633 0.001756 0.0717 -0.05237 0.1451 -0.2595 0.2502 0.0915
000010 1c b4 d7 31 d8 b0 26 33 04 30 6e 31 af 32 14 34
       -0.2568 0.1825 -0.1514 0.2234 0.1255 0.1697 0.2089 0.255
000020 53 2f 1e 32 6a ae 52 a4 c9 b4 a1 2e 92 b1 ed b1
       0.11444 0.1912 -0.1002 -0.01688 -0.299 0.1036 -0.1741 -0.1852
000030 b8 2b 5c b4 1f ad 31 2d 1b b3 b4 34 34 ae b7 34
       0.0603 -0.2725 -0.08 0.0811 -0.222 0.294 -0.0969 0.2947
000040 37 b1 7c 2d b0 a8 4e 33 a6 33 dc 34 16 b3 57 b1
       -0.163 0.0857 -0.03662 0.2283 0.239 0.3037 -0.2214 -0.1669
000050 5a 32 c7 9e 68 31 fb a8 bb b1 b3 31 49 34 58 2b
       0.1985 -0.00662 0.169 -0.0389 -0.1791 0.1781 0.2678 0.05737
000060 2b 24 b2 94 30 b0 9a b4 1a a9 f9 ae d3 2f 19 2b
       0.01628 -0.001146 -0.1309 -0.2876 -0.03986 -0.10895 0.12225 0.05545
000070 b1 2f 2e 2e 86 31 e9 33 63 b1 9a 32 c7 b2 05 b1
       0.1202 0.09656 0.1726 0.2472 -0.1683 0.2063 -0.2118 -0.1569

while/MatMul_1 f2 [192, 64]
000000 2d 1c 05 ac 47 30 22 28 95 a4 2e a9 4b 2e db a9
       0.004078 -0.0628 0.1337 0.0323 -0.0179 -0.04047 0.0983 -0.04575
000010 25 29 c0 a8 6e 23 05 ac 6e b0 92 ad 6b a4 29 2d
       0.0402 -0.0371 0.01451 -0.0628 -0.1384 -0.08704 -0.01726 0.0806
000020 30 a2 09 2a 26 9c 34 28 dd 29 a5 ac 9a 30 72 a4
       -0.012085 0.04715 -0.00405 0.03284 0.0458 -0.0726 0.1438 -0.01736
000030 51 ae 46 2a 18 2c 62 ad fe ad 3d 2b cd 26 46 af
       -0.0987 0.049 0.06396 -0.0841 -0.0936 0.05655 0.02657 -0.11365
000040 5a ac 9c ac f6 ab cf a9 3d 2d 6e 34 8b b1 4e ac
       -0.068 -0.072 -0.0622 -0.04538 0.08185 0.2769 -0.1732 -0.06726
000050 81 a5 81 af db 2a bc 2b 27 ad a7 24 cc ac 20 b0
       -0.0215 -0.11725 0.05356 0.06042 -0.0805 0.01817 -0.07495 -0.1289
000060 fe a5 08 ab 1f a6 2a 26 44 ac 5c a8 e7 22 9d 2e
       -0.0234 -0.05493 -0.02391 0.02408 -0.06665 -0.03406 0.01348 0.10333
000070 77 21 c6 a9 7a 24 e5 ac 4a a5 38 ac 24 ab b7 ae
       0.01067 -0.0451 0.01749 -0.0765 -0.02066 -0.0659 -0.0558 -0.1049
000080 4d a4 54 b1 54 1d 8a 98 fb a7 f1 a2 0a 31 cd aa
       -0.0168 -0.1665 0.005203 -0.002216 -0.03117 -0.01356 0.1575 -0.05313
000090 d5 18 75 ad 91 2c 9a 31 36 28 c7 2f 06 b1 be aa
       0.00236 -0.08527 0.07135 0.175 0.0329 0.1215 -0.157 -0.05267
0000a0 eb 2b 73 ac 09 2e 3c 26 f2 ad 75 29 2a 29 24 31
       0.06186 -0.0695 0.0943 0.02435 -0.0929 0.04263 0.04034 0.1606
0000b0 2f 2b e5 1a cb a6 d3 a8 63 ae 5a b0 18 b2 6b 19
       0.05612 0.003366 -0.02654 -0.0377 -0.0998 -0.136 -0.1904 0.002645
0000c0 0f 2f 16 30 08 af 0d a2 1a 2f 6a 20 02 22 1d 26
       0.1103 0.1277 -0.10986 -0.01182 0.11096 0.00862 0.011734 0.02388
0000d0 a1 a0 e8 ae 38 aa 88 a8 52 27 f5 a9 54 b2 0a 30
       -0.00904 -0.1079 -0.04858 -0.0354 0.0286 -0.04654 -0.1978 0.1262
0000e0 67 ac 25 27 79 2a 3a a1 f1 2b d2 2c 38 ac 73 27
       -0.0688 0.02791 0.05057 -0.01021 0.06204 0.0753 -0.0659 0.0291
0000f0 d4 ac 90 24 ed ab 69 ae 09 ac 3d ad 46 ad cd 2b
       -0.07544 0.01782 -0.06192 -0.10016 -0.06305 -0.08185 -0.0824 0.06094
000100 2c 26 47 2b 02 2e 7c ac 15 27 d6 25 7c 25 90 ac
       0.02411 0.05685 0.0939 -0.07007 0.02766 0.0228 0.02142 -0.0713
000110 1a 2d 9c 28 a1 23 e0 ad 0b 30 05 13 0b 92 f4 25
       0.0797 0.036 0.0149 -0.0918 0.1263 0.000857 -0.0007377 0.02325
000120 71 a1 25 aa ec 9d cc 2c 60 23 62 b0 60 30 ce 24
       -0.01063 -0.048 -0.005783 0.07495 0.014404 -0.137 0.1367 0.01877
000130 5a a8 58 ac 87 ae 64 ae 7e 2e 11 2d 2a a9 54 2a
       -0.034 -0.0679 -0.102 -0.09985 0.10144 0.07916 -0.04034 0.04944
000140 cd 2a e2 b0 c5 a7 9d 25 dc ab c6 ae a6 31 db 28
       0.05313 -0.1526 -0.03035 0.02193 -0.0614 -0.10583 0.1765 0.03793
000150 9f a5 95 ad 01 a8 11 a6 7e ac d7 1e 54 28 9f 26
       -0.02196 -0.0872 -0.03128 -0.0237 -0.0702 0.00668 0.0338 0.02586
000160 20 19 7e ae 69 30 a4 2d da aa 2b a6 1a a9 c1 25
       0.002502 -0.10144 0.1378 0.08813 -0.05353 -0.0241 -0.03986 0.02248
000170 2c b1 6b 25 31 a9 a6 28 85 ae 1f 28 3f ae c3 27
       -0.1616 0.02116 -0.04056 0.03632 -0.10187 0.0322 -0.0976 0.03032
000180 d4 ac 4b 2b 0a 26 51 30 b4 2c 3e a4 c8 25 80 2a
       -0.07544 0.05698 0.02359 0.1349 0.0735 -0.01657 0.02258 0.05078
000190 84 ab cb a2 c6 ac 6f b1 7f 9c de a5 36 a5 77 28
       -0.05872 -0.01327 -0.0746 -0.1698 -0.00439 -0.02292 -0.02036 0.03488
0001a0 29 29 ea 2e 31 25 b3 2a c8 20 05 25 7e 31 49 2b
       0.0403 0.10803 0.02028 0.05234 0.00934 0.0196 0.1716 0.05692
0001b0 a0 24 27 94 d4 b0 a4 28 54 ad 76 9b 5d 29 a3 9a
       0.01807 -0.001014 -0.1509 0.03625 -0.08325 -0.003643 0.0419 -0.00324
0001c0 d6 2f 09 ab d4 a6 4e 29 74 2b 15 2c 81 2c 0a a4
       0.12244 -0.05496 -0.02667 0.04144 0.05823 0.0638 0.0704 -0.01578
0001d0 9f ab 4a 23 1f 22 92 2c df 1d 1f 28 29 a4 a5 27
       -0.05954 0.01424 0.011955 0.0714 0.005733 0.0322 -0.01625 0.02986
0001e0 1e 29 a7 2c ed a5 0a ab 9d 8d f5 26 52 a8 d3 2b
       0.03998 0.0727 -0.02315 -0.055 -0.0003426 0.02718 -0.03375 0.06113
0001f0 4e 31 05 2f f2 99 98 ac 65 ae 01 9c e1 2a 84 29
       0.1658 0.1097 -0.002903 -0.0718 -0.0999 -0.00391 0.05374 0.0431

while/MatMul f2 [192, 64]
000000 b5 1f 3e 30 97 94 f1 af 9a 2c 7e ae 58 2b 48 97
       0.007526 0.1326 -0.001121 -0.1241 0.0719 -0.10144 0.05737 -0.001778
000010 2a 29 a4 29 3a ac ff 9e f3 2c 0a 30 1a b0 80 aa
       0.04034 0.04407 -0.06604 -0.006832 0.07733 0.1262 -0.1282 -0.05078
000020 1c ad e4 23 f1 ae e1 b0 a8 2f 79 ad 68 2d ff 1f
       -0.07983 0.01541 -0.10846 -0.1525 0.1196 -0.0855 0.0845 0.00781
000030 0b 26 12 2f ae ac e1 ae 9f 24 7f 2f 1b 28 da ab
       0.0236 0.1105 -0.0731 -0.1075 0.01805 0.1171 0.03207 -0.06134
000040 c0 2f c3 9a 82 30 89 2e a3 b0 02 a8 8a aa 23 b0
       0.1211 -0.003302 0.1409 0.1021 -0.1449 -0.0313 -0.0511 -0.1293
000050 34 1f e7 24 b9 a9 d0 a9 c9 af 1c 30 04 2e 74 a9
       0.007034 0.01915 -0.0447 -0.0454 -0.12164 0.1284 0.094 -0.0426
000060 cf 2e 05 a8 ab af 3a b0 e3 2a e0 af 31 2e dc af
       0.1064 -0.0314 -0.1198 -0.1321 0.0538 -0.12305 0.09674 -0.1228
000070 cc a5 ff a0 7f 30 2f 2e c5 21 7e b0 a0 2c 31 2a
       -0.02264 -0.00976 0.1405 0.0966 0.01127 -0.1404 0.07227 0.04837
000080 0f ad 82 ad 5a 2a a6 99 45 b0 d9 af 93 ae 90 a7
       -0.07904 -0.08606 0.04962 -0.002758 -0.1334 -0.1226 -0.1027 -0.02954
000090 87 a7 ef ac 58 af 93 b0 e1 af a0 28 c1 2e 57 ae
       -0.0294 -0.0771 -0.11475 -0.143 -0.1231 0.03613 0.1055 -0.09906
0000a0 6b af 32 30 92 a2 81 30 26 ad 94 ae 19 23 5d a5
       -0.1159 0.1311 -0.01283 0.1407 -0.08044 -0.1028 0.01386 -0.02095
0000b0 57 ae 9e b0 a2 a9 4d ae bd 2d d4 2c 68 19 62 b0
       -0.09906 -0.1443 -0.044 -0.09845 0.08966 0.07544 0.00264 -0.137
0000c0 f7 15 37 30 11 aa 12 30 c7 2f ff ac 5a a0 37 2d
       0.001456 0.1317 -0.0474 0.1272 0.1215 -0.07806 -0.0085 0.0815
0000d0 54 30 72 22 e1 ae 99 30 b4 ad 3b b0 10 2b cf b0
       0.1353 0.01259 -0.1075 0.1437 -0.0891 -0.1322 0.05518 -0.1503
0000e0 5a 2e c3 30 fc 2e 6b 30 f6 29 2c a9 8d af a3 2b
       0.09924 0.1488 0.10913 0.1381 0.04657 -0.0404 -0.118 0.05966
0000f0 dd ae 1a 30 d3 a1 96 2b 9b 2d 0c 21 38 30 1c b0
       -0.10724 0.1282 -0.011375 0.05927 0.0876 0.00986 0.1318 -0.1284
000100 3f 2a ad a0 ff 2a ef 2c 51 a6 a1 2f 07 23 8b ae
       0.0488 -0.00913 0.05466 0.0771 -0.02467 0.1192 0.013725 -0.10223
000110 2f ad 0f 2f fc a5 ba 2c d8 24 a4 2d a4 af a3 30
       -0.081 0.1103 -0.02338 0.07385 0.01892 0.08813 -0.1194 0.1449
000120 79 94 8e 18 bd 22 64 b0 94 2f e8 ac 5d 30 83 2f
       -0.001092 0.002224 0.01316 -0.1372 0.1184 -0.07666 0.1364 0.1174
000130 7d ab 87 a7 10 21 15 1f f0 ac 59 25 a4 ac 16 a8
       -0.0585 -0.0294 0.00989 0.006916 -0.07715 0.02089 -0.0725 -0.03192
000140 6b ae 93 ac 84 2d e3 26 3a 22 4d 2d 58 93 e8 2b
       -0.1003 -0.0715 0.0862 0.0269 0.01216 0.0828 -0.0008965 0.06177
000150 89 30 79 2e e4 9c bd 30 f3 ac d1 ae 16 30 c3 2a
       0.1417 0.10114 -0.004776 0.1481 -0.07733 -0.1065 0.1277 0.05283
000160 f4 9c 5a af 29 2c e2 ad c3 30 69 1e 99 30 8d b0
       -0.004837 -0.11487 0.065 -0.0919 0.1488 0.00626 0.1437 -0.1422
000170 12 ae 38 ac fb 2c 24 b0 92 2e 47 af a8 ac 88 ad
       -0.09485 -0.0659 0.0778 -0.1294 0.10266 -0.1137 -0.07275 -0.0864
000180 db 2f 7d 24 07 ab 52 16 a4 a8 0f 2b 2b ad 0f 24
       0.12274 0.01753 -0.0549 0.001543 -0.03625 0.05515 -0.08075 0.01585
000190 e1 2d de a2 94 a9 bd 2b 00 30 f3 29 64 28 4d 28
       0.09186 -0.01341 -0.04358 0.06046 0.125 0.04648 0.0343 0.0336
0001a0 d0 ae 4e a0 7d ae fc ac 38 2a d3 30 e6 1c 58 2e
       -0.10645 -0.00841 -0.1014 -0.0779 0.04858 0.1508 0.004784 0.0991
0001b0 2e 2d 9d ac f9 2c 52 2e 09 23 dc ac 96 aa 57 13
       0.08093 -0.0721 0.0777 0.09875 0.01374 -0.0759 -0.05145 0.000896
0001c0 5f ab 31 a5 b2 ae 88 af b5 28 23 30 c3 a8 b6 9d
       -0.0576 -0.02028 -0.1046 -0.1177 0.03677 0.1293 -0.0372 -0.005577
0001d0 71 2e 26 a6 3e b0 22 a3 e8 ad 74 28 d4 a6 07 30
       0.10065 -0.02402 -0.1326 -0.01393 -0.0923 0.0348 -0.02667 0.1259
0001e0 0b 2c 8e 30 e8 28 a0 ac 66 2d 4c 20 3e a7 7f b0
       0.0632 0.1423 0.03833 -0.07227 0.08435 0.00839 -0.02829 -0.1405
0001f0 3f b0 08 b0 12 2f 03 2d 41 b0 96 26 da 26 81 b0
       -0.1327 -0.126 0.1105 0.0783 -0.1329 0.02573 0.02676 -0.1407

while/MatMul_12 f2 [192, 64]
000000 eb 29 29 2c 79 94 60 a8 c5 b0 7c ad 81 ae 07 20
       0.04623 0.065 -0.001092 -0.03418 -0.149 -0.0857 -0.1016 0.007866
000010 a5 1d dd 25 6d 24 04 ac 6d 2e ba ad 7b 2b 60 2e
       0.005512 0.0229 0.01729 -0.06274 0.1004 -0.0895 0.05844 0.0996
000020 85 1c 73 ad de 1c c1 28 76 ae f2 2a 92 2c b4 95
       0.004414 -0.08514 0.004753 0.03714 -0.10095 0.05426 0.0714 -0.001392
000030 60 ac fd 21 4a ab a4 2b a4 a8 7e ae 3d a6 ad ae
       -0.06836 0.011696 -0.05695 0.0597 -0.03625 -0.10144 -0.02437 -0.1043
000040 b4 ac c6 aa d7 ac ff 2e 2d 29 05 ac 9a 2b 70 28
       -0.0735 -0.05292 -0.0756 0.1093 0.04044 -0.0628 0.0594 0.03467
000050 cb 29 2b 20 95 2c c2 a3 d0 2c eb ae 34 2b 25 a5
       0.04526 0.00814 0.0716 -0.01515 0.0752 -0.1081 0.05627 -0.0201
000060 44 21 a9 aa c3 b0 bb a8 31 ac b2 aa 94 2f 54 a4
       0.010284 -0.05203 -0.1488 -0.03696 -0.0655 -0.0523 0.1184 -0.0169
000070 05 31 53 29 a0 2b 57 af 73 28 26 96 cc aa 73 2e
       0.1569 0.0416 0.05957 -0.1147 0.03476 -0.001501 -0.0531 0.10077
000080 b5 2d c1 2f ba 29 1a a8 19 25 62 a9 44 aa 62 28
       0.0892 0.12115 0.04474 -0.03204 0.01991 -0.04205 -0.04895 0.03424
000090 da a8 1c a9 38 2e 4d 1c da 9f 44 a8 ba 28 ad 2a
       -0.0379 -0.03992 0.09717 0.0042 -0.007668 -0.03333 0.03693 0.05215
0000a0 55 2a a5 28 59 25 d5 24 8f 28 67 98 03 30 1c 2a
       0.04947 0.0363 0.02089 0.01888 0.0356 -0.00215 0.1254 0.04773
0000b0 cc a8 dc 2f 64 2b e3 26 4a a1 f0 a8 98 2e de 30
       -0.03748 0.1228 0.05774 0.0269 -0.01033 -0.03857 0.103 0.1521
0000c0 d3 24 dc 1d 42 aa 7c 2d 9d 2c 5a 2b 5c a9 b5 30
       0.01884 0.005722 -0.0489 0.0857 0.0721 0.05743 -0.04187 0.1471
0000d0 89 2d 62 a9 d2 af 3b 2e 7c aa d7 2d eb 2a b5 a8
       0.0865 -0.04205 -0.1222 0.09735 -0.05066 0.09125 0.05405 -0.03677
0000e0 c8 2a 15 af 61 30 f3 2d cb 2f c4 25 fb 2d 64 ad
       0.05298 -0.11066 0.1368 0.09296 0.12177 0.02252 0.09344 -0.0842
0000f0 ea 30 61 29 7e ae 9a af 11 27 f4 2e f9 28 ac 2e
       0.1536 0.04202 -0.10144 -0.1188 0.0276 0.10864 0.03885 0.10425
000100 27 22 e4 a4 3c b0 96 29 cd b0 59 20 03 ae 86 29
       0.01202 -0.0191 -0.1323 0.04364 -0.15 0.00849 -0.09393 0.04315
000110 03 9d 47 27 53 a9 11 2d 53 2c de b1 7b ac 48 2a
       -0.004894 0.02843 -0.0416 0.07916 0.06757 -0.1833 -0.07 0.04907
000120 7a 2d 7c a6 5a 2e 8e 28 28 29 aa 2e 4c ad a7 2c
       0.0856 -0.02533 0.09924 0.03558 0.04028 0.1041 -0.08276 0.0727
000130 0e 2c 7e a8 0b 27 f4 ab 2c 25 e1 a8 0a 2d 4d 2f
       0.06335 -0.0351 0.02751 -0.06213 0.0202 -0.03812 0.07874 0.1141
000140 89 2a 23 29 15 2c f6 a2 7a 32 9e 26 54 2a ef 29
       0.05106 0.04013 0.0638 -0.013596 0.2024 0.02585 0.04944 0.04636
000150 29 ad dc a9 b8 a6 51 2c 7f 25 0f aa d5 aa 40 a4
       -0.0806 -0.04578 -0.02625 0.06744 0.02147 -0.04733 -0.05338 -0.0166
000160 d8 a9 42 a3 3e ad b8 ae 96 ac b0 a9 b3 a7 db a9
       -0.04565 -0.014175 -0.0819 -0.105 -0.07166 -0.04443 -0.03008 -0.04575
000170 95 af 02 ae 15 20 9c 1e 90 ac e8 a6 47 a6 7c 2a
       -0.11847 -0.0939 0.00797 0.006454 -0.0713 -0.02698 -0.02452 0.05066
000180 c4 2c 1d ad 0c 28 f0 a4 81 90 93 a8 89 10 7a 2a
       0.07446 -0.0799 0.03162 -0.01929 -0.00055 -0.03574 0.0005536 0.0506
000190 c1 29 8b 27 78 a9 33 16 1e 2a 50 26 94 ae 93 ac
       0.04495 0.02946 -0.04272 0.0015135 0.0478 0.02466 -0.1028 -0.0715
0001a0 53 a0 50 27 d7 ab 54 26 48 ab e1 30 46 ad d5 ab
       -0.008446 0.02856 -0.06125 0.02472 -0.0569 0.1525 -0.0824 -0.0612
0001b0 72 25 8b 30 42 aa 01 99 8f a3 25 a5 42 b1 66 ab
       0.02127 0.142 -0.0489 -0.002443 -0.01476 -0.0201 -0.1643 -0.0578
0001c0 0a 2c 73 9d ef b0 70 27 55 aa f3 26 af 9d 93 9c
       0.0631 -0.00532 -0.1542 0.02905 -0.04947 0.02715 -0.00555 -0.004467
0001d0 89 2c 0c 20 59 2b 65 ae 3b b2 99 30 86 20 a3 ae
       0.07086 0.007904 0.0574 -0.0999 -0.1947 0.1437 0.008835 -0.1037
0001e0 ba a6 ad 10 a4 ab 51 a8 48 30 3f 25 3d 2e 36 2e
       -0.02628 0.000571 -0.0597 -0.03372 0.1338 0.0205 0.0975 0.09705
0001f0 6f a4 4f aa ce 23 16 24 97 a7 db 26 92 2e 1c 30
       -0.01732 -0.0493 0.01524 0.01596 -0.02965 0.02678 0.10266 0.1284

while/MatMul2 f2 [192, 64]
000000 df 30 47 b0 59 ad d0 2d a3 2d 6b ae e9 2c 14 2d
       0.1522 -0.1337 -0.08356 0.0908 0.0881 -0.1003 0.0767 0.07935
000010 90 ad 82 ad b4 ac 66 25 90 ae 15 2e b5 af 25 ad
       -0.0869 -0.08606 -0.0735 0.02109 -0.10254 0.09503 -0.1204 -0.0804
000020 9e 2d c0 2c f3 2d c4 28 9f ad b5 1c 89 a9 3a ab
       0.08777 0.0742 0.09296 0.03723 -0.0878 0.004597 -0.04324 -0.05646
000030 0b ac a8 b0 a6 aa a1 2d 8a aa c1 aa 82 2c 3e af
       -0.0632 -0.1455 -0.05194 0.08795 -0.0511 -0.05276 0.07043 -0.11316
000040 7b b0 34 2d 8e 2b b1 94 2b a8 87 b0 d8 ae 1d ab
       -0.14 0.0813 0.05902 -0.001145 -0.03256 -0.1415 -0.10693 -0.05557
000050 93 ad 1f 30 fb ae 08 a6 d9 2f 13 ab 03 a8 bb aa
       -0.0871 0.1288 -0.1091 -0.02356 0.1226 -0.05527 -0.03134 -0.05258
000060 73 2d 9f ae 78 ae 0f 30 7f ab fd 2c 15 29 21 a5
       0.08514 -0.10345 -0.1011 0.1268 -0.05856 0.07794 0.0397 -0.02003
000070 1d 30 da a7 49 29 99 2e 63 ac 34 2f 20 2c ec ad
       0.1285 -0.03067 0.0413 0.1031 -0.06854 0.11255 0.06445 -0.0925
000080 24 25 5f af e7 ae 90 2f ad 30 59 21 d3 30 ea ac
       0.02008 -0.1152 -0.10785 0.11816 0.1461 0.010445 0.1508 -0.0768
000090 fe 2d 7c ae 52 2d 78 af 68 ae d5 aa ad 2f da a6
       0.0936 -0.1013 0.0831 -0.1167 -0.1001 -0.05338 0.11993 -0.02676
0000a0 4d 2e 6c ad 0c b0 52 23 19 ac dc ad 00 2d 7e 28
       0.09845 -0.0847 -0.1265 0.0143 -0.064 -0.09155 0.0781 0.0351
0000b0 1e a1 d2 27 59 11 67 2c 3c b0 71 2c fb ac 3f 2c
       -0.009995 0.03055 0.000653 0.0688 -0.1323 0.0694 -0.0778 0.06635
0000c0 e5 ae d4 a6 d5 a9 c1 2d 8b af 2f 2c eb af ba a5
       -0.1077 -0.02667 -0.04556 0.0899 -0.11786 0.06537 -0.1237 -0.02237
0000d0 a1 2e c5 2a 83 2d 01 b0 c1 ae 2b a9 37 1f fc 2f
       0.1036 0.0529 0.0861 -0.1251 -0.1055 -0.04037 0.007046 0.12476
0000e0 01 2f 39 2a 6d 30 05 a5 ca 14 e0 2f c8 2f be 28
       0.10944 0.0486 0.1383 -0.0196 0.001169 0.12305 0.1216 0.03705
0000f0 8e ae 28 ad 3f 2e 6f 2c e9 2c 37 2a 7b ae e4 b0
       -0.1024 -0.08057 0.0976 0.0693 0.0767 0.04855 -0.10126 -0.1528
000100 8d b0 07 ae 10 a8 59 aa 09 aa ca 28 24 ad 28 ac
       -0.1422 -0.0942 -0.03174 -0.0496 -0.04715 0.0374 -0.0803 -0.06494
000110 ad b0 97 ac 17 30 cd 2f 6c 27 31 2c 91 ae d8 2a
       -0.1461 -0.0717 0.1278 0.1219 0.02899 0.0655 -0.1026 0.05347
000120 9b 28 dc af 90 a3 59 ae fe a2 23 a8 fd aa ce ad
       0.03598 -0.1228 -0.01477 -0.0992 -0.01366 -0.03232 -0.0546 -0.0907
000130 fd ac 75 af 38 b0 8a ac 17 28 b5 ac e8 29 62 af
       -0.07794 -0.1165 -0.1318 -0.0709 0.03195 -0.07355 0.04614 -0.11536
000140 a2 28 3f 29 9c 2e 60 2c 86 27 dc af 51 ac a6 2e
       0.0362 0.041 0.1033 0.06836 0.02939 -0.1228 -0.06744 0.1039
000150 52 2f f6 ab 2c 2e 80 29 92 25 4f b0 6b af 1d 2f
       0.1144 -0.0622 0.09644 0.04297 0.02176 -0.1346 -0.1159 0.11115
000160 86 ad ae 30 77 20 ae 2f 16 9b 00 a8 55 30 27 96
       -0.0863 0.1462 0.00872 0.12 -0.00346 -0.03125 0.1354 -0.001502
000170 26 30 c0 a8 1b 2d 65 30 1b 21 4c 2d 0b 30 86 ac
       0.1296 -0.0371 0.0798 0.1373 0.00997 0.08276 0.1263 -0.0707
000180 34 2c 5f a9 ff ae 42 af e3 2c a9 ae bd 29 59 ad
       0.0657 -0.04196 -0.1093 -0.1134 0.07635 -0.10406 0.04483 -0.08356
000190 d0 ae 8b b0 40 ae 42 29 bb ae 7d 9e af a8 44 2e
       -0.10645 -0.142 -0.09766 0.04108 -0.10516 -0.006336 -0.0366 0.0979
0001a0 7e 2e 42 2d 79 a9 5b 2f c1 ad 04 ab a6 2f 85 30
       0.10144 0.08215 -0.04276 0.1149 -0.0899 -0.0548 0.1195 0.1412
0001b0 53 a6 c5 2e 37 23 ef a6 bc ab 68 a9 3d b0 77 24
       -0.0247 0.1058 0.01409 -0.02708 -0.06042 -0.04224 -0.1324 0.01744
0001c0 d1 2c 78 2f 92 30 9f 2c 38 b0 51 aa 40 2c d9 2d
       0.07526 0.1167 0.1428 0.0722 -0.1318 -0.04935 0.0664 0.0914
0001d0 1c 30 cd 24 20 30 bb b0 06 b0 1d 30 9c 2d cb ab
       0.1284 0.01875 0.1289 -0.1478 -0.1257 0.1285 0.08765 -0.06088
0001e0 7c b0 91 2e bb 2e 7a 28 5c 28 d6 a8 3b b0 09 27
       -0.1401 0.1026 0.10516 0.03497 0.03406 -0.03778 -0.1322 0.02748
0001f0 a0 1b 90 9b 4b 2e 82 2f 67 b0 bd 2f 2f 2d 39 30
       0.003723 -0.003693 0.0983 0.1173 -0.1376 0.1209 0.081 0.132
