python_quantization/cnn_rnn/model/model_quantized.tflite (tflite, 379520 bytes, 16 tensors)

model/time_distributed_1/dense_1/MatMul i1 [1, 64] scale=0.0029915597 zero_point=0
000000 c1 b1 3f dc 4c a1 4b e4 cf ed 18 a7 46 51 ae f6
       -0.18846826 -0.23633322 0.18846826 -0.107696146 0.22735853 -0.28419816 0.22436698 -0.083763674 -0.14658642 -0.056839634 0.07179743 -0.26624882 0.20940918 0.24231634 -0.2453079 -0.029915597
000010 ed 12 b2 b5 1a 5a f0 c8 bd a6 7f 49 f2 a0 a3 1c
       -0.056839634 0.053848073 -0.23334165 -0.22436698 0.07778055 0.26924038 -0.047864955 -0.16752735 -0.2004345 -0.26924038 0.37992808 0.21838386 -0.041881837 -0.28718972 -0.27821505 0.083763674
000020 2c db 51 f1 1d a7 f8 62 cc e6 25 54 5b f6 da 38
       0.13162863 -0.11068771 0.24231634 -0.044873394 0.08675523 -0.26624882 -0.023932477 0.29317284 -0.1555611 -0.07778055 0.11068771 0.251291 0.27223194 -0.029915597 -0.11367927 0.16752735
000030 e5 ca 41 f6 b4 9a c4 2c 58 a2 de f8 e1 5f 1c db
       -0.08077211 -0.16154422 0.19445138 -0.029915597 -0.22735853 -0.3051391 -0.17949358 0.13162863 0.26325727 -0.2812066 -0.10171303 -0.023932477 -0.09273835 0.28419816 0.083763674 -0.11068771

model/time_distributed/dense/MatMul i1 [64, 128] scale=0.0021028353 zero_point=0
000000 ad 4c e0 12 0f cf f1 5d 44 e1 fe 32 40 45 45 ea
       -0.17453533 0.15981549 -0.06729073 0.037851036 0.03154253 -0.10303893 -0.03154253 0.19556369 0.14299281 -0.065187894 -0.0042056707 0.10514177 0.13458146 0.14509563 0.14509563 -0.046262376
000010 d0 31 eb bb ce d4 f3 07 cd f0 c0 e7 55 45 2d 36
       -0.1009361 0.10303893 -0.044159543 -0.14509563 -0.10514177 -0.09252475 -0.02733686 0.014719848 -0.1072446 -0.033645365 -0.13458146 -0.052570883 0.17874101 0.14509563 0.09462759 0.11355311
000020 fc f7 dc 27 20 44 c4 d9 e3 57 28 43 aa b2 16 61
       -0.008411341 -0.018925518 -0.07570207 0.082010575 0.06729073 0.14299281 -0.12617011 -0.082010575 -0.060982224 0.18294667 0.08411341 0.14088997 -0.18084385 -0.16402115 0.046262376 0.20397502
000030 30 0b 04 44 38 2c 06 e1 e2 00 d4 38 2f 5c 31 11
       0.1009361 0.023131188 0.008411341 0.14299281 0.11775878 0.09252475 0.0126170125 -0.065187894 -0.06308506 0.0 -0.09252475 0.11775878 0.09883326 0.19346085 0.10303893 0.035748202
000040 64 34 30 34 48 ea c5 10 d7 ef 62 3f 1c cb 32 66
       0.21028353 0.10934744 0.1009361 0.10934744 0.15140414 -0.046262376 -0.124067284 0.033645365 -0.08621625 -0.035748202 0.20607786 0.13247862 0.05887939 -0.11145027 0.10514177 0.2144892
000050 ec 16 ec fc ed 02 e5 e7 1d f4 e0 32 a9 cb 38 3f
       -0.042056706 0.046262376 -0.042056706 -0.008411341 -0.039953873 0.0042056707 -0.056776553 -0.052570883 0.060982224 -0.025234025 -0.06729073 0.10514177 -0.18294667 -0.11145027 0.11775878 0.13247862
000060 c4 ae ea b8 12 a8 57 fc 24 b9 c3 01 0d 3d ec dd
       -0.12617011 -0.1724325 -0.046262376 -0.15140414 0.037851036 -0.1850495 0.18294667 -0.008411341 0.07570207 -0.1493013 -0.12827295 0.0021028353 0.02733686 0.12827295 -0.042056706 -0.073599234
000070 ec 31 b5 e1 25 05 59 c5 f4 be ca de cd 25 23 05
       -0.042056706 0.10303893 -0.15771265 -0.065187894 0.07780491 0.010514176 0.18715234 -0.124067284 -0.025234025 -0.13878714 -0.11355311 -0.071496405 -0.1072446 0.07780491 0.073599234 0.010514176
000080 ae 3d e2 b8 37 b5 ef d8 23 f0 4f e4 d7 c5 a9 c8
       -0.1724325 0.12827295 -0.06308506 -0.15140414 0.115655944 -0.15771265 -0.035748202 -0.08411341 0.073599234 -0.033645365 0.16612399 -0.05887939 -0.08621625 -0.124067284 -0.18294667 -0.11775878
000090 ff c3 3b ec 52 63 c2 0e 2a 16 46 fd 4f 22 58 0b
       -0.0021028353 -0.12827295 0.124067284 -0.042056706 0.1724325 0.2081807 -0.13037579 0.029439695 0.088319086 0.046262376 0.14719847 -0.0063085062 0.16612399 0.071496405 0.1850495 0.023131188
0000a0 16 f0 19 30 dc 11 b4 a4 3a 41 1d 45 d5 2f 18 2b
       0.046262376 -0.033645365 0.052570883 0.1009361 -0.07570207 0.035748202 -0.15981549 -0.19346085 0.12196445 0.1366843 0.060982224 0.14509563 -0.09042192 0.09883326 0.05046805 0.09042192
0000b0 27 f1 ff 2a fd 34 1d f4 c4 de ef ff db ce 57 e4
       0.082010575 -0.03154253 -0.0021028353 0.088319086 -0.0063085062 0.10934744 0.060982224 -0.025234025 -0.12617011 -0.071496405 -0.035748202 -0.0021028353 -0.07780491 -0.10514177 0.18294667 -0.05887939
0000c0 d8 ec b8 63 47 55 c0 1a a5 1a f9 47 cc 16 b2 f6
       -0.08411341 -0.042056706 -0.15140414 0.2081807 0.1493013 0.17874101 -0.13458146 0.05467372 -0.19135801 0.05467372 -0.014719848 0.1493013 -0.10934744 0.046262376 -0.16402115 -0.021028353
0000d0 15 e9 f4 2e ce e6 b2 c3 ba 2d 38 fa 05 5c 01 27
       0.044159543 -0.048365213 -0.025234025 0.096730426 -0.10514177 -0.05467372 -0.16402115 -0.12827295 -0.14719847 0.09462759 0.11775878 -0.0126170125 0.010514176 0.19346085 0.0021028353 0.082010575
0000e0 4d b6 43 50 f2 ba 25 46 07 27 44 a4 a1 dc b3 33
       0.16191833 -0.15560982 0.14088997 0.16822682 -0.029439695 -0.14719847 0.07780491 0.14719847 0.014719848 0.082010575 0.14299281 -0.19346085 -0.19976936 -0.07570207 -0.16191833 0.1072446
0000f0 c3 2f df 4f d5 bb 26 32 4f 37 07 29 dc 01 1b d7
       -0.12827295 0.09883326 -0.06939357 0.16612399 -0.09042192 -0.14509563 0.079907745 0.10514177 0.16612399 0.115655944 0.014719848 0.08621625 -0.07570207 0.0021028353 0.056776553 -0.08621625

model/conv2d_5/Conv2D i1 [64, 3, 3, 64]
000000 e8 fc ee db fb d7 e6 f3 ed 02 f2 fd dc e2 09 ee
       -24 -4 -18 -37 -5 -41 -26 -13 -19 2 -14 -3 -36 -30 9 -18
000010 fb ff da f9 e4 dc d8 e4 e6 fa f1 f8 fb f6 e4 03
       -5 -1 -38 -7 -28 -36 -40 -28 -26 -6 -15 -8 -5 -10 -28 3
000020 f4 ce fc f6 fa f8 da f5 04 ee f5 fe ef f8 e7 e6
       -12 -50 -4 -10 -6 -8 -38 -11 4 -18 -11 -2 -17 -8 -25 -26
000030 fa ec ec ef e6 e7 f5 04 d2 e2 ee ec e5 f0 f8 ee
       -6 -20 -20 -17 -26 -25 -11 4 -46 -30 -18 -20 -27 -16 -8 -18
000040 04 f4 fa 0b f5 f2 f1 0e fd 20 ef f8 f7 ee 0a f8
       4 -12 -6 11 -11 -14 -15 14 -3 32 -17 -8 -9 -18 10 -8
000050 11 f9 26 fc ff fa ea f9 f8 f6 41 07 19 00 f1 02
       17 -7 38 -4 -1 -6 -22 -7 -8 -10 65 7 25 0 -15 2
000060 ec f6 fb 46 f1 0d 37 f7 10 fc f3 02 f9 f7 04 02
       -20 -10 -5 70 -15 13 55 -9 16 -4 -13 2 -7 -9 4 2
000070 09 f7 fa 01 fe fa f0 fb 1f 0f 12 f4 0a 07 f9 fe
       9 -9 -6 1 -2 -6 -16 -5 31 15 18 -12 10 7 -7 -2
000080 f7 f0 06 f9 f7 7f 21 05 05 08 ef eb 11 15 11 f6
       -9 -16 6 -7 -9 127 33 5 5 8 -17 -21 17 21 17 -10
000090 16 fc 22 e4 13 23 03 17 0b 03 17 14 07 fc 08 9a
       22 -4 34 -28 19 35 3 23 11 3 23 20 7 -4 8 -102
0000a0 fa 14 ec 04 f8 19 3b 12 13 06 47 0a 05 f5 fe fa
       -6 20 -20 4 -8 25 59 18 19 6 71 10 5 -11 -2 -6
0000b0 f3 f2 fd fe 1f f4 34 f7 52 14 0b fa fd 12 f8 fd
       -13 -14 -3 -2 31 -12 52 -9 82 20 11 -6 -3 18 -8 -3
0000c0 e6 fb ee d9 fa da e9 f4 ee 09 ef fc dd e1 05 ea
       -26 -5 -18 -39 -6 -38 -23 -12 -18 9 -17 -4 -35 -31 5 -22
0000d0 f7 00 da fb e2 dd d8 e4 e2 f4 f2 f6 fb ef e0 03
       -9 0 -38 -5 -30 -35 -40 -28 -30 -12 -14 -10 -5 -17 -32 3
0000e0 f2 ca fc f7 f7 fe da f3 07 f0 f3 fd ec f8 e5 e3
       -14 -54 -4 -9 -9 -2 -38 -13 7 -16 -13 -3 -20 -8 -27 -29
0000f0 f9 ea ea e8 e6 e4 f4 03 d7 e0 eb ec e3 ed f8 e7
       -7 -22 -22 -24 -26 -28 -12 3 -41 -32 -21 -20 -29 -19 -8 -25

model/conv2d_4/Conv2D i1 [64, 3, 3, 64]
000000 d2 e8 fe fe 08 ff f8 f0 f3 0c f9 1b dd 1f 04 11
       -46 -24 -2 -2 8 -1 -8 -16 -13 12 -7 27 -35 31 4 17
000010 df d8 f4 f3 ea 0a f2 13 12 f3 e4 e3 02 0f 02 f0
       -33 -40 -12 -13 -22 10 -14 19 18 -13 -28 -29 2 15 2 -16
000020 24 1a 0e fc ed ec 29 07 fd fb f1 0d dd fa 3a db
       36 26 14 -4 -19 -20 41 7 -3 -5 -15 13 -35 -6 58 -37
000030 d5 f3 ec 05 e5 00 e7 df 13 0f e0 fa f5 f5 e3 c7
       -43 -13 -20 5 -27 0 -25 -33 19 15 -32 -6 -11 -11 -29 -57
000040 e5 f4 02 0b 18 09 01 eb 12 fd da ee e3 06 f4 e6
       -27 -12 2 11 24 9 1 -21 18 -3 -38 -18 -29 6 -12 -26
000050 e1 d1 fd e6 eb fe d4 f4 f6 f6 06 eb d8 04 13 f9
       -31 -47 -3 -26 -21 -2 -44 -12 -10 -10 6 -21 -40 4 19 -7
000060 0b fc e9 fe 1c 04 03 ea e8 13 05 ff 03 06 0a ce
       11 -4 -23 -2 28 4 3 -22 -24 19 5 -1 3 6 10 -50
000070 f9 15 ec 10 e3 e5 e8 13 e9 ee e8 07 f9 d2 23 12
       -7 21 -20 16 -29 -27 -24 19 -23 -18 -24 7 -7 -46 35 18
000080 0e e9 fb 08 0d fa fe f1 0a 27 f7 25 ef 05 0a 0c
       14 -23 -5 8 13 -6 -2 -15 10 39 -9 37 -17 5 10 12
000090 f2 ed e2 17 f0 03 e5 18 03 f5 13 f4 fd 13 f5 f8
       -14 -19 -30 23 -16 3 -27 24 3 -11 19 -12 -3 19 -11 -8
0000a0 da 1c 01 fd c9 0f fe 3f f5 0c 09 24 e8 05 f0 e2
       -38 28 1 -3 -55 15 -2 63 -11 12 9 36 -24 5 -16 -30
0000b0 fc e7 ef 01 f6 fc e2 0e 16 12 ee 02 04 f5 cd f6
       -4 -25 -17 1 -10 -4 -30 14 22 18 -18 2 4 -11 -51 -10
0000c0 d5 ec 06 00 16 0a 0a f3 09 0d fd 1b dc 19 06 01
       -43 -20 6 0 22 10 10 -13 9 13 -3 27 -36 25 6 1
0000d0 e3 d6 07 0b e8 17 f3 09 12 01 e6 e9 14 14 08 f5
       -29 -42 7 11 -24 23 -13 9 18 1 -26 -23 20 20 8 -11
0000e0 36 23 02 15 f7 00 26 11 f8 04 04 ff df 04 37 df
       54 35 2 21 -9 0 38 17 -8 4 4 -1 -33 4 55 -33
0000f0 e7 fc ee 17 e7 f4 ea f1 07 04 e5 03 f2 f4 f5 cd
       -25 -4 -18 23 -25 -12 -22 -15 7 4 -27 3 -14 -12 -11 -51

model/conv2d_3/Conv2D i1 [64, 3, 3, 64]
000000 31 30 dd f0 01 f7 eb ea 20 0d 56 ec db da 20 42
       49 48 -35 -16 1 -9 -21 -22 32 13 86 -20 -37 -38 32 66
000010 eb e1 dd fe 07 f5 21 d9 e6 03 2a 2e fe e6 f0 fb
       -21 -31 -35 -2 7 -11 33 -39 -26 3 42 46 -2 -26 -16 -5
000020 04 fd 04 c6 d2 f8 31 e2 ec 1f d2 ea f5 fa f7 09
       4 -3 4 -58 -46 -8 49 -30 -20 31 -46 -22 -11 -6 -9 9
000030 e0 27 37 31 d7 1a 1e 17 fd e8 17 f8 ec eb e2 10
       -32 39 55 49 -41 26 30 23 -3 -24 23 -8 -20 -21 -30 16
000040 05 b9 ff e2 05 fd db ea cf e8 ed dd dd da 0f ca
       5 -71 -1 -30 5 -3 -37 -22 -49 -24 -19 -35 -35 -38 15 -54
000050 11 f5 cf f8 eb 04 d2 08 04 e7 f7 05 eb 1b ed 03
       17 -11 -49 -8 -21 4 -46 8 4 -25 -9 5 -21 27 -19 3
000060 11 fc fd 01 eb de 01 fc f8 fa c6 0a f4 d4 e0 dd
       17 -4 -3 1 -21 -34 1 -4 -8 -6 -58 10 -12 -44 -32 -35
000070 bc fc e1 fd f5 ec 2b 00 02 f3 f4 e4 fa ee f6 02
       -68 -4 -31 -3 -11 -20 43 0 2 -13 -12 -28 -6 -18 -10 2
000080 04 0e e8 d9 16 ee e9 e4 e8 10 0b 2c cf 1d f5 01
       4 14 -24 -39 22 -18 -23 -28 -24 16 11 44 -49 29 -11 1
000090 e6 08 1c dc 0a 09 ea 3d f9 10 fe f3 f1 e5 f7 f6
       -26 8 28 -36 10 9 -22 61 -7 16 -2 -13 -15 -27 -9 -10
0000a0 f6 f4 ed f6 d6 12 01 02 08 ed 1e 22 19 38 0a 27
       -10 -12 -19 -10 -42 18 1 2 8 -19 30 34 25 56 10 39
0000b0 06 f7 0f ea f9 25 21 fc ed 12 e8 11 f0 ec c9 ff
       6 -9 15 -22 -7 37 33 -4 -19 18 -24 17 -16 -20 -55 -1
0000c0 30 32 e1 f1 14 e0 f6 e9 1a 19 65 e2 d9 fa 38 45
       48 50 -31 -15 20 -32 -10 -23 26 25 101 -30 -39 -6 56 69
0000d0 f2 fd 03 01 0f fc 3b d9 e5 01 2f 37 00 e7 ff f8
       -14 -3 3 1 15 -4 59 -39 -27 1 47 55 0 -25 -1 -8
0000e0 00 0a 00 d1 c2 e9 30 e4 fb 1c ec d1 e6 f4 fe 09
       0 10 0 -47 -62 -23 48 -28 -5 28 -20 -47 -26 -12 -2 9
0000f0 d7 1c 2f 28 df 19 16 19 f9 fb 10 fa f8 ee e2 0a
       -41 28 47 40 -33 25 22 25 -7 -5 16 -6 -8 -18 -30 10

model/conv2d_2/Conv2D i1 [64, 3, 3, 64]
000000 07 fd 18 ee e1 ec e6 11 fe f8 fd ca 07 09 de f8
       7 -3 24 -18 -31 -20 -26 17 -2 -8 -3 -54 7 9 -34 -8
000010 09 d4 ee ef f4 e2 f1 02 ef fe 07 fa eb f7 f4 ed
       9 -44 -18 -17 -12 -30 -15 2 -17 -2 7 -6 -21 -9 -12 -19
000020 df 06 08 ed ee 02 fd d8 f3 e9 fb d1 e3 d7 c3 eb
       -33 6 8 -19 -18 2 -3 -40 -13 -23 -5 -47 -29 -41 -61 -21
000030 e9 f0 0f 31 f3 ef e6 fc f0 ff ec 99 fb 00 0b d3
       -23 -16 15 49 -13 -17 -26 -4 -16 -1 -20 -103 -5 0 11 -45
000040 04 ec 0d f8 d2 f9 f0 fa f1 ef c6 b6 f8 08 f1 f2
       4 -20 13 -8 -46 -7 -16 -6 -15 -17 -58 -74 -8 8 -15 -14
000050 06 ef f7 f0 18 c4 07 06 fb ff 10 e6 fd fb fc fe
       6 -17 -9 -16 24 -60 7 6 -5 -1 16 -26 -3 -5 -4 -2
000060 e9 df 1a 00 e0 ee f8 00 ef fc df d5 d8 dd 03 fb
       -23 -33 26 0 -32 -18 -8 0 -17 -4 -33 -43 -40 -35 3 -5
000070 fc f0 ce f5 f7 07 e7 08 01 0e ff 04 fb 09 0d f1
       -4 -16 -50 -11 -9 7 -25 8 1 14 -1 4 -5 9 13 -15
000080 03 f2 04 0e d2 f2 e0 fd fe e4 af de fe 01 ef 0e
       3 -14 4 14 -46 -14 -32 -3 -2 -28 -81 -34 -2 1 -17 14
000090 04 dc fa f5 2f 00 2b fc fe 03 03 dc ee fe 1d fe
       4 -36 -6 -11 47 0 43 -4 -2 3 3 -36 -18 -2 29 -2
0000a0 e2 b8 15 02 21 f6 f5 fd cf f1 dc 06 eb 06 2e f8
       -30 -72 21 2 33 -10 -11 -3 -49 -15 -36 6 -21 6 46 -8
0000b0 f7 ed c9 e5 f7 05 2f 03 07 01 fe fe fa 08 12 ed
       -9 -19 -55 -27 -9 5 47 3 7 1 -2 -2 -6 8 18 -19
0000c0 fe fe 01 eb e1 ea e8 10 03 ef f1 d4 07 09 dc ff
       -2 -2 1 -21 -31 -22 -24 16 3 -17 -15 -44 7 9 -36 -1
0000d0 08 e3 f7 f5 03 e5 ed fc ed fe 04 f9 eb f9 f3 f1
       8 -29 -9 -11 3 -27 -19 -4 -19 -2 4 -7 -21 -7 -13 -15
0000e0 da ef 03 f0 f0 05 05 d0 e4 ef fc d7 e4 d4 c8 ed
       -38 -17 3 -16 -16 5 5 -48 -28 -17 -4 -41 -28 -44 -56 -19
0000f0 e8 ed 09 23 eb ec e0 f7 ed 00 ee 84 f9 02 0b d5
       -24 -19 9 35 -21 -20 -32 -9 -19 0 -18 -124 -7 2 11 -43

model/conv2d_1/Conv2D i1 [64, 3, 3, 64]
000000 00 fb 6b 1e ec 08 cf ed f4 b0 41 0d fc 10 f8 01
       0 -5 107 30 -20 8 -49 -19 -12 -80 65 13 -4 16 -8 1
000010 07 30 f4 c9 ca f8 e8 fe e8 14 dc e4 df b2 fd 00
       7 48 -12 -55 -54 -8 -24 -2 -24 20 -36 -28 -33 -78 -3 0
000020 3c 13 05 24 18 10 fd 00 f9 db f0 fe 33 0f ea 11
       60 19 5 36 24 16 -3 0 -7 -37 -16 -2 51 15 -22 17
000030 fa f9 ef 1d 2e 2e 02 bf 1f 08 13 06 0d d7 14 d3
       -6 -7 -17 29 46 46 2 -65 31 8 19 6 13 -41 20 -45
000040 04 f8 03 1d ee fc dc e5 fa b0 28 0d f4 d8 f7 ee
       4 -8 3 29 -18 -4 -36 -27 -6 -80 40 13 -12 -40 -9 -18
000050 09 39 f3 c3 d8 fc eb e1 ed 11 e8 e1 e6 da 02 00
       9 57 -13 -61 -40 -4 -21 -31 -19 17 -24 -31 -26 -38 2 0
000060 4a 05 14 3c e3 07 11 f9 e7 d4 e7 fd 13 14 e8 43
       74 5 20 60 -29 7 17 -7 -25 -44 -25 -3 19 20 -24 67
000070 f2 d5 fc 2c 3a 26 00 e6 31 02 03 b6 f8 d0 18 fc
       -14 -43 -4 44 58 38 0 -26 49 2 3 -74 -8 -48 24 -4
000080 0c fe 7f 19 08 fe 04 03 ee 00 37 03 12 0f 04 ef
       12 -2 127 25 8 -2 4 3 -18 0 55 3 18 15 4 -17
000090 0e 30 f5 c9 bc 09 ec da d5 00 dc d3 ed 09 f4 00
       14 48 -11 -55 -68 9 -20 -38 -43 0 -36 -45 -19 9 -12 0
0000a0 37 e5 02 41 23 e1 04 f5 07 d9 0e 0b 35 e9 14 2e
       55 -27 2 65 35 -31 4 -11 7 -39 14 11 53 -23 20 46
0000b0 f6 c4 f6 fd 48 27 05 01 3c ff ff 0f e6 e6 17 c8
       -10 -60 -10 -3 72 39 5 1 60 -1 -1 15 -26 -26 23 -56
0000c0 0b 02 5e 0b de ff 20 12 ef ab 1d 0f 23 26 03 ff
       11 2 94 11 -34 -1 32 18 -17 -85 29 15 35 38 3 -1
0000d0 fb 0e f9 36 fe eb da 18 fd 07 fa e5 08 b6 f0 00
       -5 14 -7 54 -2 -21 -38 24 -3 7 -6 -27 8 -74 -16 0
0000e0 18 1c f9 f8 26 03 ed ff e7 e6 f9 e4 1f 12 d7 e5
       24 28 -7 -8 38 3 -19 -1 -25 -26 -7 -28 31 18 -41 -27
0000f0 e5 0c f4 05 0b fe ff c0 f2 07 15 45 10 2a 01 dd
       -27 12 -12 5 11 -2 -1 -64 -14 7 21 69 16 42 1 -35

model/conv2d/Conv2D i1 [64, 3, 3, 1]
000000 36 9a 0a 56 fc 09 2f 81 2e ec 19 4e c1 7f c8 04
       54 -102 10 86 -4 9 47 -127 46 -20 25 78 -63 127 -56 4
000010 90 2f 3c 81 fd ee b1 3e 68 b0 73 b3 47 81 44 fe
       -112 47 60 -127 -3 -18 -79 62 104 -80 115 -77 71 -127 68 -2
000020 11 89 40 6a c8 0a b9 7d 26 97 7f ce 0e de 0d 18
       17 -119 64 106 -56 10 -71 125 38 -105 127 -50 14 -34 13 24
000030 26 cc cb cc d7 7f 69 33 7f b2 b6 e9 b3 98 2c 29
       38 -52 -53 -52 -41 127 105 51 127 -78 -74 -23 -77 -104 44 41
000040 36 5b 90 81 45 07 eb d2 57 a5 02 1f 07 ff 92 7f
       54 91 -112 -127 69 7 -21 -46 87 -91 2 31 7 -1 -110 127
000050 f8 99 d6 6f 86 ae 7f 03 05 3c 1d a0 81 22 12 4c
       -8 -103 -42 111 -122 -82 127 3 5 60 29 -96 -127 34 18 76
000060 f1 f0 6f 14 0b 4a d5 b3 ca da 7f e4 7f df 52 50
       -15 -16 111 20 11 74 -43 -77 -54 -38 127 -28 127 -33 82 80
000070 c9 bd 36 b2 c9 c1 e1 7f 16 97 3b 75 8e 29 3d 5e
       -55 -67 54 -78 -55 -63 -31 127 22 -105 59 117 -114 41 61 94
000080 33 f9 1a 8e a5 8a 7f 0a 82 0a 30 24 78 06 a4 7f
       51 -7 26 -114 -91 -118 127 10 -126 10 48 36 120 6 -92 127
000090 f0 17 c3 3c 81 08 45 18 e8 b2 a2 cc b9 27 2f 7f
       -16 23 -61 60 -127 8 69 24 -24 -78 -94 -52 -71 39 47 127
0000a0 6b 14 48 45 c9 28 4b 81 ba 53 cf 7f 3e 2e fb ef
       107 20 72 69 -55 40 75 -127 -70 83 -49 127 62 46 -5 -17
0000b0 b2 10 82 f3 49 68 2c 3b 2d a3 95 81 0f 3a e0 0a
       -78 16 -126 -13 73 104 44 59 45 -93 -107 -127 15 58 -32 10
0000c0 f9 1b e3 e1 ab 7f c8 d4 e1 ec 1b 43 e0 14 7f f1
       -7 27 -29 -31 -85 127 -56 -44 -31 -20 27 67 -32 20 127 -15
0000d0 ce 41 d6 59 46 1b d9 81 17 7f 64 ad 1d ef c3 06
       -50 65 -42 89 70 27 -39 -127 23 127 100 -83 29 -17 -61 6
0000e0 9f 03 26 0b 81 51 b5 12 36 00 7f 44 0b 19 bd 1a
       -97 3 38 11 -127 81 -75 18 54 0 127 68 11 25 -67 26
0000f0 ce b7 95 81 37 62 b3 17 92 73 18 ba 7f 13 c8 67
       -50 -73 -107 -127 55 98 -77 23 -110 115 24 -70 127 19 -56 103

while/MatMul i1 [192, 64] scale=0.0022549082 zero_point=0
000000 b3 c4 05 cc 32 2d d1 03 2b d5 36 b9 c7 b1 ce ed
       -0.17362793 -0.1352945 0.011274541 -0.117255226 0.11274541 0.10147087 -0.10598069 0.006764725 0.09696105 -0.09696105 0.12176504 -0.16009848 -0.12852977 -0.17813775 -0.11274541 -0.042843256
000010 11 f9 d8 fe 1d cb d8 08 c8 df 0b b4 fa ea 27 f2
       0.03833344 -0.015784357 -0.09019633 -0.0045098164 0.06539234 -0.11951014 -0.09019633 0.018039266 -0.12627485 -0.07441197 0.02480399 -0.17137302 -0.01352945 -0.04960798 0.08794142 -0.031568713
000020 cb c1 fe e7 e6 c8 f6 0e 30 c1 bd e9 f3 db cf 07
       -0.11951014 -0.14205922 -0.0045098164 -0.056372706 -0.058627613 -0.12627485 -0.022549082 0.031568713 0.1082356 -0.14205922 -0.15107885 -0.051862888 -0.029313806 -0.0834316 -0.1104905 0.015784357
000030 db e0 fc e3 ce 16 2a f6 f4 3c bf c5 2f 29 c5 f2
       -0.0834316 -0.07215706 -0.009019633 -0.06539234 -0.11274541 0.04960798 0.09470615 -0.022549082 -0.0270589 0.1352945 -0.14656903 -0.13303958 0.10598069 0.09245124 -0.13303958 -0.031568713
000040 10 1c 08 05 3b 4e 00 01 4c 12 c1 37 f8 10 04 42
       0.03607853 0.06313743 0.018039266 0.011274541 0.13303958 0.17588285 0.0 0.0022549082 0.17137302 0.04058835 -0.14205922 0.12401995 -0.018039266 0.03607853 0.009019633 0.14882395
000050 39 df 07 1b 09 21 0f 2d d9 34 fd 29 e8 4d 10 49
       0.12852977 -0.07441197 0.015784357 0.06088252 0.020294175 0.07441197 0.033823624 0.10147087 -0.08794142 0.117255226 -0.006764725 0.09245124 -0.0541178 0.17362793 0.03607853 0.1646083
000060 cd c0 e3 21 68 e0 06 e9 00 e2 57 e7 e9 25 4f 13
       -0.115000315 -0.14431413 -0.06539234 0.07441197 0.23451045 -0.07215706 0.01352945 -0.051862888 0.0 -0.06764725 0.19617702 -0.056372706 -0.051862888 0.0834316 0.17813775 0.042843256
000070 4c 41 f2 ef 23 1d 4b f9 da 4a 11 08 cc 5c de 3f
       0.17137302 0.14656903 -0.031568713 -0.03833344 0.07892179 0.06539234 0.16911812 -0.015784357 -0.08568651 0.1668632 0.03833344 0.018039266 -0.117255226 0.20745155 -0.07666688 0.14205922
000080 f3 e9 04 0e 1f 13 27 05 eb 02 fb 41 44 1a 31 24
       -0.029313806 -0.051862888 0.009019633 0.031568713 0.06990215 0.042843256 0.08794142 0.011274541 -0.047353074 0.0045098164 -0.011274541 0.14656903 0.15333375 0.058627613 0.1104905 0.0811767
000090 10 1d 41 c9 d9 ea 36 da e1 c5 0f 24 b2 d4 fc ca
       0.03607853 0.06539234 0.14656903 -0.12401995 -0.08794142 -0.04960798 0.12176504 -0.08568651 -0.06990215 -0.13303958 0.033823624 0.0811767 -0.17588285 -0.09921596 -0.009019633 -0.12176504
0000a0 30 45 28 0a 1b 3c 15 27 1d db cb 2c e1 0f cb 14
       0.1082356 0.15558867 0.09019633 0.022549082 0.06088252 0.1352945 0.047353074 0.08794142 0.06539234 -0.0834316 -0.11951014 0.09921596 -0.06990215 0.033823624 -0.11951014 0.045098163
0000b0 ee 07 cc d5 c7 c0 31 41 37 d8 ee ea e0 f7 e2 be
       -0.04058835 0.015784357 -0.117255226 -0.09696105 -0.12852977 -0.14431413 0.1104905 0.14656903 0.12401995 -0.09019633 -0.04058835 -0.04960798 -0.07215706 -0.020294175 -0.06764725 -0.14882395
0000c0 fc f4 0e 0e b9 f9 04 e3 03 f5 20 e6 c6 0f 14 fb
       -0.009019633 -0.0270589 0.031568713 0.031568713 -0.16009848 -0.015784357 0.009019633 -0.06539234 0.006764725 -0.02480399 0.07215706 -0.058627613 -0.13078468 0.033823624 0.045098163 -0.011274541
0000d0 f3 c3 35 00 f2 b3 07 2c f2 31 da f6 ee c8 fb 22
       -0.029313806 -0.1375494 0.11951014 0.0 -0.031568713 -0.17362793 0.015784357 0.09921596 -0.031568713 0.1104905 -0.08568651 -0.022549082 -0.04058835 -0.12627485 -0.011274541 0.07666688
0000e0 2d ac dc 06 1d d0 34 07 21 32 d1 2c fc d2 09 c2
       0.10147087 -0.1894123 -0.0811767 0.01352945 0.06539234 -0.1082356 0.117255226 0.015784357 0.07441197 0.11274541 -0.10598069 0.09921596 -0.009019633 -0.103725776 0.020294175 -0.1398043
0000f0 24 b4 32 b5 c9 ed d6 ae 11 39 cc db 03 0f f4 c5
       0.0811767 -0.17137302 0.11274541 -0.16911812 -0.12401995 -0.042843256 -0.09470615 -0.18490247 0.03833344 0.12852977 -0.117255226 -0.0834316 0.006764725 0.033823624 -0.0270589 -0.13303958

while/MatMul_1 i1 [192, 64] scale=0.0026996632 zero_point=0
000000 ec 12 e7 18 ee 15 e5 02 22 db dd ff ed 15 0a 25
       -0.053993262 0.04859394 -0.067491576 0.06479192 -0.04859394 0.056692928 -0.07289091 0.0053993263 0.091788545 -0.099887535 -0.09448821 -0.0026996632 -0.0512936 0.056692928 0.026996631 0.099887535
000010 ef fc eb c1 d5 2c f8 39 ff f4 19 f8 1d f5 18 38
       -0.045894273 -0.010798653 -0.056692928 -0.17007878 -0.116085514 0.11878518 -0.021597305 0.1538808 -0.0026996632 -0.03239596 0.067491576 -0.021597305 0.07829023 -0.029696295 0.06479192 0.15118113
000020 0f eb e9 07 04 f8 11 12 fe 00 2d e4 18 0d d8 2a
       0.04049495 -0.056692928 -0.062092252 0.018897641 0.010798653 -0.021597305 0.045894273 0.04859394 -0.0053993263 0.0 0.121484846 -0.075590566 0.06479192 0.03509562 -0.107986525 0.113385856
000030 ea 0e 05 fa 0a 1c fa fc fe 14 05 11 08 f8 35 c0
       -0.05939259 0.037795283 0.013498316 -0.01619798 0.026996631 0.075590566 -0.01619798 -0.010798653 -0.0053993263 0.053993262 0.013498316 0.045894273 0.021597305 -0.021597305 0.14308214 -0.17277844
000040 22 cd fe da 40 ef dd f6 d8 bc 31 da 19 09 09 24
       0.091788545 -0.13768283 -0.0053993263 -0.1025872 0.17277844 -0.045894273 -0.09448821 -0.026996631 -0.107986525 -0.18357709 0.1322835 -0.1025872 0.067491576 0.02429697 0.02429697 0.09718788
000050 d6 c8 be 07 e9 b4 ff f0 fb f7 ee a9 35 14 df be
       -0.113385856 -0.15118113 -0.17817777 0.018897641 -0.062092252 -0.2051744 -0.0026996632 -0.04319461 -0.013498316 -0.02429697 -0.04859394 -0.2348707 0.14308214 0.053993262 -0.08908889 -0.17817777
000060 f0 45 27 3a 03 ea f1 0a 26 bb 07 14 03 1f eb f9
       -0.04319461 0.18627676 0.10528687 0.15658046 0.00809899 -0.05939259 -0.04049495 0.026996631 0.1025872 -0.18627676 0.018897641 0.053993262 0.00809899 0.083689556 -0.056692928 -0.018897641
000070 02 07 f4 cb 18 ce d7 25 f0 cc 2d 27 4e 4f 26 36
       0.0053993263 0.018897641 -0.03239596 -0.14308214 0.06479192 -0.13498315 -0.11068619 0.099887535 -0.04319461 -0.14038248 0.121484846 0.10528687 0.21057373 0.21327339 0.1025872 0.14578182
000080 02 db fb d0 e9 f4 ec f8 17 f5 0d fd 22 de e2 e8
       0.0053993263 -0.099887535 -0.013498316 -0.12958384 -0.062092252 -0.03239596 -0.053993262 -0.021597305 0.062092252 -0.029696295 0.03509562 -0.00809899 0.091788545 -0.091788545 -0.0809899 -0.06479192
000090 d9 0a d5 ff 2a 19 35 e9 cd 29 ec 03 0a fe 29 c7
       -0.10528687 0.026996631 -0.116085514 -0.0026996632 0.113385856 0.067491576 0.14308214 -0.062092252 -0.13768283 0.11068619 -0.053993262 0.00809899 0.026996631 -0.0053993263 0.11068619 -0.1538808
0000a0 f6 e6 05 e8 ed fd db 21 07 12 2c da 0c d8 17 fe
       -0.026996631 -0.07019124 0.013498316 -0.06479192 -0.0512936 -0.00809899 -0.099887535 0.08908889 0.018897641 0.04859394 0.11878518 -0.1025872 0.03239596 -0.107986525 0.062092252 -0.0053993263
0000b0 ec 22 ef fd 09 f8 18 20 c2 0d 07 dc e7 e8 00 dd
       -0.053993262 0.091788545 -0.045894273 -0.00809899 0.02429697 -0.021597305 0.06479192 0.08638922 -0.16737911 0.03509562 0.018897641 -0.09718788 -0.067491576 -0.06479192 0.0 -0.09448821
0000c0 ed 34 14 f7 f4 0f d7 05 cf f2 07 12 ef ed e4 ee
       -0.0512936 0.14038248 0.053993262 -0.02429697 -0.03239596 0.04049495 -0.11068619 0.013498316 -0.1322835 -0.037795283 0.018897641 0.04859394 -0.045894273 -0.0512936 -0.075590566 -0.04859394
0000d0 f8 0e e3 0d 0d 3a dc 0a cd 00 0a df d7 03 16 f5
       -0.021597305 0.037795283 -0.07829023 0.03509562 0.03509562 0.15658046 -0.09718788 0.026996631 -0.13768283 0.0 0.026996631 -0.08908889 -0.11068619 0.00809899 0.05939259 -0.029696295
0000e0 c7 03 19 ef 19 ff 23 04 07 0f f4 08 dd 0c 10 c9
       -0.1538808 0.00809899 0.067491576 -0.045894273 0.067491576 -0.0026996632 0.09448821 0.010798653 0.018897641 0.04049495 -0.03239596 0.021597305 -0.09448821 0.03239596 0.04319461 -0.14848147
0000f0 19 db 06 30 e1 0e 0d ff 23 dd e2 2d 20 ee 1e 00
       0.067491576 -0.099887535 0.01619798 0.12958384 -0.083689556 0.037795283 0.03509562 -0.0026996632 0.09448821 -0.09448821 -0.0809899 0.121484846 0.08638922 -0.04859394 0.0809899 0.0

while/MatMul1 i1 [192, 64] scale=0.002302738 zero_point=0
000000 29 e4 17 2c 0e 1f f1 0a 07 cf cb e5 fc 1a 1f b7
       0.09441225 -0.06447666 0.052962974 0.10132047 0.03223833 0.07138488 -0.03454107 0.023027379 0.016119165 -0.112834156 -0.12204511 -0.062173925 -0.009210952 0.059871186 0.07138488 -0.16809987
000010 c9 29 cd e8 1f 15 03 e3 e4 3b f6 f2 cc e4 c3 17
       -0.12665059 0.09441225 -0.117439635 -0.05526571 0.07138488 0.048357494 0.0069082137 -0.0667794 -0.06447666 0.13586153 -0.023027379 -0.03223833 -0.11974237 -0.06447666 -0.14046702 0.052962974
000020 0d f9 fa ff b6 10 3c 07 2b d2 14 e6 c9 f0 e3 eb
       0.029935593 -0.016119165 -0.013816427 -0.002302738 -0.1704026 0.036843807 0.13816428 0.016119165 0.09901773 -0.10592595 0.046054758 -0.059871186 -0.12665059 -0.036843807 -0.0667794 -0.048357494
000030 cf d0 d7 e6 dd f4 d4 dd bc c7 d4 13 1a c8 d7 00
       -0.112834156 -0.11053142 -0.09441225 -0.059871186 -0.08059583 -0.027632855 -0.10132047 -0.08059583 -0.15658617 -0.13125606 -0.10132047 0.043752022 0.059871186 -0.12895332 -0.09441225 0.0
000040 c1 05 0d d9 34 ed ea 32 ba 2c bb e9 e7 01 26 f2
       -0.14507249 0.0115136895 0.029935593 -0.08980678 0.11974237 -0.043752022 -0.050660234 0.11513689 -0.16119166 0.10132047 -0.15888892 -0.052962974 -0.057568446 0.002302738 0.087504044 -0.03223833
000050 c1 bd f1 cb ca 0a f4 32 1a 24 c9 e2 f6 d5 33 ef
       -0.14507249 -0.15428343 -0.03454107 -0.12204511 -0.12434785 0.023027379 -0.027632855 0.11513689 0.059871186 0.082898565 -0.12665059 -0.06908214 -0.023027379 -0.09901773 0.117439635 -0.039146543
000060 d0 fe de e2 fa d5 1b 02 f0 bf 35 cc 2a 1f f4 e3
       -0.11053142 -0.004605476 -0.078293085 -0.06908214 -0.013816427 -0.09901773 0.062173925 0.004605476 -0.036843807 -0.14967796 0.12204511 -0.11974237 0.09671499 0.07138488 -0.027632855 -0.0667794
000070 24 eb e6 e0 3b d0 de 2a cf be 1f b6 c7 0d bc 26
       0.082898565 -0.048357494 -0.059871186 -0.07368761 0.13586153 -0.11053142 -0.078293085 0.09671499 -0.112834156 -0.1519807 0.07138488 -0.1704026 -0.13125606 0.029935593 -0.15658617 0.087504044
000080 19 e3 c4 ac 4f fd e4 f2 4f 1b d0 08 01 0e e0 05
       0.057568446 -0.0667794 -0.13816428 -0.19342998 0.1819163 -0.0069082137 -0.06447666 -0.03223833 0.1819163 0.062173925 -0.11053142 0.018421903 0.002302738 0.03223833 -0.07368761 0.0115136895
000090 0b f7 17 de 1b eb 2b 34 34 1f 3e 32 bd e1 f9 1d
       0.025330117 -0.020724641 0.052962974 -0.078293085 0.062173925 -0.048357494 0.09901773 0.11974237 0.11974237 0.07138488 0.14276975 0.11513689 -0.15428343 -0.07138488 -0.016119165 0.0667794
0000a0 c9 11 20 45 e0 1e e4 22 36 d2 f5 dd fd 19 ca 42
       -0.12665059 0.039146543 0.07368761 0.15888892 -0.07368761 0.06908214 -0.06447666 0.078293085 0.12434785 -0.10592595 -0.025330117 -0.08059583 -0.0069082137 0.057568446 -0.12434785 0.1519807
0000b0 3f 31 1f 3b 02 25 30 3d 20 2d f7 3e fb 26 12 24
       0.14507249 0.112834156 0.07138488 0.13586153 0.004605476 0.0852013 0.11053142 0.14046702 0.07368761 0.103623204 -0.020724641 0.14276975 -0.0115136895 0.087504044 0.041449282 0.082898565
0000c0 ce 02 fd 44 26 33 ec eb 13 13 10 00 d9 3d 40 1b
       -0.11513689 0.004605476 -0.0069082137 0.15658617 0.087504044 0.117439635 -0.046054758 -0.048357494 0.043752022 0.043752022 0.036843807 0.0 -0.08980678 0.14046702 0.14737523 0.062173925
0000d0 52 be d1 23 ce 11 04 e7 0d 05 39 ed 24 e5 42 f6
       0.1888245 -0.1519807 -0.10822868 0.08059583 -0.11513689 0.039146543 0.009210952 -0.057568446 0.029935593 0.0115136895 0.13125606 -0.043752022 0.082898565 -0.062173925 0.1519807 -0.023027379
0000e0 1c 02 2d 57 f5 d3 ee 25 2e e5 3e f7 0d fa 2e d2
       0.06447666 0.004605476 0.103623204 0.2003382 -0.025330117 -0.103623204 -0.041449282 0.0852013 0.10592595 -0.062173925 0.14276975 -0.020724641 0.029935593 -0.013816427 0.10592595 -0.10592595
0000f0 13 22 24 eb 1a 04 fd c5 09 11 d4 ec 37 ef 17 37
       0.043752022 0.078293085 0.082898565 -0.048357494 0.059871186 0.009210952 -0.0069082137 -0.13586153 0.020724641 0.039146543 -0.10132047 -0.046054758 0.12665059 -0.039146543 0.052962974 0.12665059

while/MatMul_11 i1 [192, 64] scale=0.002865397 zero_point=0
000000 09 ef 22 f2 18 39 fc f8 f1 e3 15 e9 de 01 0f d7
       0.025788572 -0.048711747 0.097423494 -0.040115558 0.06876953 0.16332762 -0.011461588 -0.022923175 -0.042980954 -0.08309651 0.060173336 -0.065904126 -0.097423494 0.002865397 0.042980954 -0.11748128
000010 13 15 17 2f 02 cf 3d 0e ca 29 ea 12 14 f2 fe f6
       0.05444254 0.060173336 0.065904126 0.13467366 0.005730794 -0.14040445 0.1747892 0.040115558 -0.15473144 0.11748128 -0.06303873 0.051577143 0.057307936 -0.040115558 -0.005730794 -0.028653968
000020 f0 e2 11 42 1f e8 15 15 13 ea 06 0a ef 06 f2 12
       -0.04584635 -0.08596191 0.048711747 0.1891162 0.088827305 -0.06876953 0.060173336 0.060173336 0.05444254 -0.06303873 0.017192382 0.028653968 -0.048711747 0.017192382 -0.040115558 0.051577143
000030 01 03 f8 cf 25 1e e8 ea d5 fd 22 db 05 e1 02 3b
       0.002865397 0.008596191 -0.022923175 -0.14040445 0.10601968 0.08596191 -0.06876953 -0.06303873 -0.12321207 -0.008596191 0.097423494 -0.10601968 0.014326984 -0.088827305 0.005730794 0.16905841
000040 14 cf 12 22 f1 f0 ec ff 19 e6 43 fc fb 12 0c 12
       0.057307936 -0.14040445 0.051577143 0.097423494 -0.042980954 -0.04584635 -0.057307936 -0.002865397 0.071634926 -0.07450032 0.1919816 -0.011461588 -0.014326984 0.051577143 0.034384765 0.051577143
000050 00 3b c5 f3 f0 f8 f9 d2 11 fc e7 d1 11 ee d2 27
       0.0 0.16905841 -0.16905841 -0.03725016 -0.04584635 -0.022923175 -0.020057779 -0.13180825 0.048711747 -0.011461588 -0.071634926 -0.13467366 0.048711747 -0.051577143 -0.13180825 0.111750476
000060 04 1d 0d 24 fb fd e9 df 10 02 ec 10 03 1a eb 35
       0.011461588 0.08309651 0.03725016 0.10315429 -0.014326984 -0.008596191 -0.065904126 -0.0945581 0.04584635 0.005730794 -0.057307936 0.04584635 0.008596191 0.07450032 -0.060173336 0.15186603
000070 fb f0 f5 0e 19 e1 f5 0d ca 0c 01 14 08 32 e3 18
       -0.014326984 -0.04584635 -0.031519365 0.040115558 0.071634926 -0.088827305 -0.031519365 0.03725016 -0.15473144 0.034384765 0.002865397 0.057307936 0.022923175 0.14326985 -0.08309651 0.06876953
000080 05 16 2a d7 01 13 e1 0c f9 0a 24 da 2a 0b 09 30
       0.014326984 0.06303873 0.12034667 -0.11748128 0.002865397 0.05444254 -0.088827305 0.034384765 -0.020057779 0.028653968 0.10315429 -0.10888508 0.12034667 0.031519365 0.025788572 0.13753906
000090 e3 0a e1 fd 46 0c e4 30 e7 ee c8 f2 f1 05 ee e0
       -0.08309651 0.028653968 -0.088827305 -0.008596191 0.20057778 0.034384765 -0.080231115 0.13753906 -0.071634926 -0.051577143 -0.16046223 -0.040115558 -0.042980954 0.014326984 -0.051577143 -0.0916927
0000a0 fa 4d 27 11 17 e1 fe eb 3f d4 e9 0e db ee f3 30
       -0.017192382 0.22063556 0.111750476 0.048711747 0.065904126 -0.088827305 -0.005730794 -0.060173336 0.18052 -0.12607746 -0.065904126 0.040115558 -0.10601968 -0.051577143 -0.03725016 0.13753906
0000b0 13 fb d2 10 13 10 0c 11 29 01 f1 1b 14 10 fa da
       0.05444254 -0.014326984 -0.13180825 0.04584635 0.05444254 0.04584635 0.034384765 0.048711747 0.11748128 0.002865397 -0.042980954 0.07736572 0.057307936 0.04584635 -0.017192382 -0.10888508
0000c0 dd 03 0d 34 f1 02 c3 53 18 22 ef ec 2a 1f f2 08
       -0.10028889 0.008596191 0.03725016 0.14900064 -0.042980954 0.005730794 -0.1747892 0.23782794 0.06876953 0.097423494 -0.048711747 -0.057307936 0.12034667 0.088827305 -0.040115558 0.022923175
0000d0 0d df 01 c8 e3 13 14 26 09 04 f5 fe 07 cf f0 0b
       0.03725016 -0.0945581 0.002865397 -0.16046223 -0.08309651 0.05444254 0.057307936 0.10888508 0.025788572 0.011461588 -0.031519365 -0.005730794 0.020057779 -0.14040445 -0.04584635 0.031519365
0000e0 e8 3b 46 15 de 18 ea 1d fa f7 29 0d 09 ef fb fb
       -0.06876953 0.16905841 0.20057778 0.060173336 -0.097423494 0.06876953 -0.06303873 0.08309651 -0.017192382 -0.025788572 0.11748128 0.03725016 0.025788572 -0.048711747 -0.014326984 -0.014326984
0000f0 ee 22 08 ea f5 e0 fc cf fd e6 22 02 c7 ca ee fa
       -0.051577143 0.097423494 0.022923175 -0.06303873 -0.031519365 -0.0916927 -0.011461588 -0.14040445 -0.008596191 -0.07450032 0.097423494 0.005730794 -0.16332762 -0.15473144 -0.051577143 -0.017192382

while/MatMul2 i1 [192, 128] scale=0.0025015327 zero_point=0
000000 c5 10 d8 18 3e d9 02 2d 03 ed 21 17 c1 f1 21 39
       -0.14759043 0.040024523 -0.100061305 0.060036786 0.15509503 -0.09755977 0.0050030653 0.11256897 0.0075045982 -0.04752912 0.08255058 0.05753525 -0.15759656 -0.03752299 0.08255058 0.14258736
000010 ef e5 fc f5 1b f3 45 23 4f d1 0a f2 e7 16 0c ed
       -0.042526055 -0.06754138 -0.010006131 -0.027516859 0.06754138 -0.032519925 0.17260575 0.08755364 0.19762108 -0.11757203 0.025015326 -0.035021458 -0.06253832 0.055033717 0.030018393 -0.04752912
000020 08 04 b9 41 f8 2b 00 e6 31 05 13 0d f6 09 fd 20
       0.020012261 0.010006131 -0.17760882 0.16259962 -0.020012261 0.1075659 0.0 -0.06503985 0.122575104 0.012507663 0.04752912 0.032519925 -0.025015326 0.022513794 -0.0075045982 0.080049045
000030 27 33 08 d2 ce 11 ed d4 e1 05 26 d9 ec 0e 36 19
       0.09755977 0.12757817 0.020012261 -0.1150705 -0.12507664 0.042526055 -0.04752912 -0.110067435 -0.07754751 0.012507663 0.09505824 -0.09755977 -0.050030652 0.035021458 0.13508277 0.06253832
000040 3b f8 e5 02 ec df e4 f3 ef 10 10 d8 eb f1 ce dc
       0.14759043 -0.020012261 -0.06754138 0.0050030653 -0.050030652 -0.08255058 -0.070042916 -0.032519925 -0.042526055 0.040024523 0.040024523 -0.100061305 -0.052532185 -0.03752299 -0.12507664 -0.090055175
000050 f1 c2 27 fa 01 28 1c 21 0d e0 02 c5 29 06 0b 08
       -0.03752299 -0.15509503 0.09755977 -0.0150091965 0.0025015327 0.100061305 0.070042916 0.08255058 0.032519925 -0.080049045 0.0050030653 -0.14759043 0.10256284 0.0150091965 0.027516859 0.020012261
000060 d7 05 36 f4 d7 d0 2b 25 e8 16 0f ff e6 56 1a 56
       -0.10256284 0.012507663 0.13508277 -0.030018393 -0.10256284 -0.12007357 0.1075659 0.09255671 -0.060036786 0.055033717 0.03752299 -0.0025015327 -0.06503985 0.2151318 0.06503985 0.2151318
000070 c4 1c e6 e8 33 01 ed 15 fe d3 14 1b 2b 33 31 3f
       -0.15009196 0.070042916 -0.06503985 -0.060036786 0.12757817 0.0025015327 -0.04752912 0.052532185 -0.0050030653 -0.11256897 0.050030652 0.06754138 0.1075659 0.12757817 0.122575104 0.15759656
000080 d2 f3 2b 22 fd b3 d1 ff f8 07 e4 1a e9 ef 51 ee
       -0.1150705 -0.032519925 0.1075659 0.08505211 -0.0075045982 -0.19261801 -0.11757203 -0.0025015327 -0.020012261 0.017510729 -0.070042916 0.06503985 -0.05753525 -0.042526055 0.20262414 -0.045027588
000090 e2 0b 38 04 db 27 d5 12 0e fb e5 e7 c8 f0 e2 d1
       -0.07504598 0.027516859 0.14008583 0.010006131 -0.09255671 0.09755977 -0.1075659 0.045027588 0.035021458 -0.012507663 -0.06754138 -0.06253832 -0.14008583 -0.040024523 -0.07504598 -0.11757203
0000a0 2a 12 f2 cd ee c9 05 f5 ce ff 2a 2a 0c f8 30 ef
       0.10506437 0.045027588 -0.035021458 -0.12757817 -0.045027588 -0.1375843 0.012507663 -0.027516859 -0.12507664 -0.0025015327 0.10506437 0.10506437 0.030018393 -0.020012261 0.12007357 -0.042526055
0000b0 23 dc d3 26 30 38 fe 26 1c 06 e1 e7 ef e3 26 13
       0.08755364 -0.090055175 -0.11256897 0.09505824 0.12007357 0.14008583 -0.0050030653 0.09505824 0.070042916 0.0150091965 -0.07754751 -0.06253832 -0.042526055 -0.07254445 0.09505824 0.04752912
0000c0 c8 be e6 ee 30 f1 06 01 c9 fc 32 16 e3 0d f3 ff
       -0.14008583 -0.16510116 -0.06503985 -0.045027588 0.12007357 -0.03752299 0.0150091965 0.0025015327 -0.1375843 -0.010006131 0.12507664 0.055033717 -0.07254445 0.032519925 -0.032519925 -0.0025015327
0000d0 f6 f2 3e 09 12 20 f0 28 04 0b 04 e1 d5 1e f3 ed
       -0.025015326 -0.035021458 0.15509503 0.022513794 0.045027588 0.080049045 -0.040024523 0.100061305 0.010006131 0.027516859 0.010006131 -0.07754751 -0.1075659 0.07504598 -0.032519925 -0.04752912
0000e0 14 1b d9 2b d7 ea 09 d7 b8 14 f2 d0 0e e4 ec 2d
       0.050030652 0.06754138 -0.09755977 0.1075659 -0.10256284 -0.055033717 0.022513794 -0.10256284 -0.18011035 0.050030652 -0.035021458 -0.12007357 0.035021458 -0.070042916 -0.050030652 0.11256897
0000f0 da 1d ec 37 2f f4 26 15 c6 30 ea ce 1f cc c5 1e
       -0.09505824 0.07254445 -0.050030652 0.1375843 0.11757203 -0.030018393 0.09505824 0.052532185 -0.1450889 0.12007357 -0.055033717 -0.12507664 0.07754751 -0.1300797 -0.14759043 0.07504598

while/MatMul_12 i1 [192, 64] scale=0.0027478347 zero_point=0
000000 01 e1 f5 f2 10 c3 08 dc ec e3 f8 df f4 ef 3b e0
       0.0027478347 -0.085182875 -0.030226182 -0.038469687 0.043965355 -0.16761792 0.021982677 -0.098922044 -0.054956693 -0.07968721 -0.021982677 -0.09067854 -0.032974016 -0.04671319 0.16212225 -0.08793071
000010 35 e0 26 06 fd 12 d5 2f 17 07 13 16 f4 0d 02 0d
       0.14563523 -0.08793071 0.10441772 0.016487008 -0.008243504 0.049461022 -0.11815689 0.12914823 0.0632002 0.019234844 0.05220886 0.060452364 -0.032974016 0.03572185 0.0054956693 0.03572185
000020 cf 39 d8 fd f1 fd de e2 21 f0 f4 08 ec fe 1b 18
       -0.1346439 0.15662658 -0.10991339 -0.008243504 -0.04121752 -0.008243504 -0.09342638 -0.08243504 0.09067854 -0.043965355 -0.032974016 0.021982677 -0.054956693 -0.0054956693 0.07419153 0.06594803
000030 20 2b da fe 27 fa 11 e7 03 0d 0f c7 f2 fe e1 08
       0.08793071 0.11815689 -0.10441772 -0.0054956693 0.10716555 -0.016487008 0.04671319 -0.068695866 0.008243504 0.03572185 0.04121752 -0.15662658 -0.038469687 -0.0054956693 -0.085182875 0.021982677
000040 26 3b 10 f3 14 06 10 06 18 1b fd dd 12 16 1d ec
       0.10441772 0.16212225 0.043965355 -0.03572185 0.054956693 0.016487008 0.043965355 0.016487008 0.06594803 0.07419153 -0.008243504 -0.09617421 0.049461022 0.060452364 0.07968721 -0.054956693
000050 0f 14 e4 ea eb ed 29 1e d8 1b f8 13 1b 23 06 02
       0.04121752 0.054956693 -0.076939374 -0.060452364 -0.057704527 -0.05220886 0.11266122 0.08243504 -0.10991339 0.07419153 -0.021982677 0.05220886 0.07419153 0.09617421 0.016487008 0.0054956693
000060 ec 20 0c 08 22 f0 04 18 e5 fb 0d 08 2f b9 f0 1a
       -0.054956693 0.08793071 0.032974016 0.021982677 0.09342638 -0.043965355 0.010991339 0.06594803 -0.07419153 -0.013739173 0.03572185 0.021982677 0.12914823 -0.19509625 -0.043965355 0.0714437
000070 f5 d0 e5 e4 fc f7 f7 19 10 e5 13 0b 1b cc 0d fc
       -0.030226182 -0.13189606 -0.07419153 -0.076939374 -0.010991339 -0.024730511 -0.024730511 0.068695866 0.043965355 -0.07419153 0.05220886 0.030226182 0.07419153 -0.1428874 0.03572185 -0.010991339
000080 e0 1a 00 11 f7 f9 0b ce 19 19 cb 02 de 40 65 de
       -0.08793071 0.0714437 0.0 0.04671319 -0.024730511 -0.019234844 0.030226182 -0.13739173 0.068695866 0.068695866 -0.14563523 0.0054956693 -0.09342638 0.17586142 0.2775313 -0.09342638
000090 16 27 f0 e5 16 da 09 10 da e7 e6 17 01 f5 f4 fd
       0.060452364 0.10716555 -0.043965355 -0.07419153 0.060452364 -0.10441772 0.024730511 0.043965355 -0.10441772 -0.068695866 -0.0714437 0.0632002 0.0027478347 -0.030226182 -0.032974016 -0.008243504
0000a0 0d f5 2b 01 ea c3 1a d1 02 df 06 05 1d ee e3 ea
       0.03572185 -0.030226182 0.11815689 0.0027478347 -0.060452364 -0.16761792 0.0714437 -0.12914823 0.0054956693 -0.09067854 0.016487008 0.013739173 0.07968721 -0.049461022 -0.07968721 -0.060452364
0000b0 fd e2 e2 de f6 e6 f1 f1 24 22 f5 f5 f6 29 e8 fc
       -0.008243504 -0.08243504 -0.08243504 -0.09342638 -0.027478347 -0.0714437 -0.04121752 -0.04121752 0.098922044 0.09342638 -0.030226182 -0.030226182 -0.027478347 0.11266122 -0.06594803 -0.010991339
0000c0 3f 20 18 eb 1e ed ed 11 ef eb 15 11 24 de 31 19
       0.17311358 0.08793071 0.06594803 -0.057704527 0.08243504 -0.05220886 -0.05220886 0.04671319 -0.04671319 -0.057704527 0.057704527 0.04671319 0.098922044 -0.09342638 0.1346439 0.068695866
0000d0 07 e7 1a 36 1b f7 e6 26 ee 0f f0 1e 06 17 f5 21
       0.019234844 -0.068695866 0.0714437 0.14838307 0.07419153 -0.024730511 -0.0714437 0.10441772 -0.049461022 0.04121752 -0.043965355 0.08243504 0.016487008 0.0632002 -0.030226182 0.09067854
0000e0 f7 11 df fd fb f8 2e 3d 0a 1a c0 1d 05 e8 38 f8
       -0.024730511 0.04671319 -0.09067854 -0.008243504 -0.013739173 -0.021982677 0.1264004 0.16761792 0.027478347 0.0714437 -0.17586142 0.07968721 0.013739173 -0.06594803 0.15387875 -0.021982677
0000f0 11 e9 cf ef 23 09 13 e5 f1 1c fd f5 f7 d3 10 d9
       0.04671319 -0.0632002 -0.1346439 -0.04671319 0.09617421 0.024730511 0.05220886 -0.07419153 -0.04121752 0.076939374 -0.008243504 -0.030226182 -0.024730511 -0.12365256 0.043965355 -0.10716555

while/MatMul3 i1 [192, 128] scale=0.0022048263 zero_point=0
000000 13 f3 0b 0a 1b df dc 08 f9 11 31 0d ec ed 38 39
       0.0418917 -0.028662743 0.024253089 0.022048263 0.05953031 -0.07275927 -0.07937375 0.01763861 -0.015433785 0.03748205 0.10803649 0.028662743 -0.044096526 -0.0418917 0.12347028 0.1256751
000010 da c9 1d 21 ec d5 e8 2c cd d2 10 18 c8 d4 e9 17
       -0.0837834 -0.12126545 0.063939966 0.07275927 -0.044096526 -0.094807535 -0.052915834 0.097012356 -0.112446144 -0.10142201 0.03527722 0.052915834 -0.12347028 -0.097012356 -0.050711006 0.050711006
000020 09 c7 08 0f 0d cc 16 de 23 ca fe 3b 0f e5 12 20
       0.019843437 -0.1256751 0.01763861 0.033072393 0.028662743 -0.11465097 0.048506178 -0.0749641 0.07716892 -0.11906062 -0.0044096527 0.13008475 0.033072393 -0.05953031 0.039686874 0.07055444
000030 33 fa 3d 0c 13 f5 cd c5 26 d5 c4 0c 36 08 31 be
       0.112446144 -0.0132289585 0.13449441 0.026457917 0.0418917 -0.024253089 -0.112446144 -0.13008475 0.0837834 -0.094807535 -0.13228957 0.026457917 0.11906062 0.01763861 0.10803649 -0.14551854
000040 ba 26 06 0e 15 d3 cf d0 32 3d d3 05 e1 2a 21 4e
       -0.15433784 0.0837834 0.0132289585 0.03086757 0.046301354 -0.099217184 -0.10803649 -0.10583167 0.110241316 0.13449441 -0.099217184 0.011024131 -0.068349615 0.09260271 0.07275927 0.17197645
000050 ee 07 49 2b 00 dc c8 24 53 bc 2a 08 0f 31 e5 08
       -0.039686874 0.015433785 0.16095233 0.094807535 0.0 -0.07937375 -0.12347028 0.07937375 0.18300058 -0.1499282 0.09260271 0.01763861 0.033072393 0.10803649 -0.05953031 0.01763861
000060 31 e2 c4 05 eb 0f c7 5f eb 1d 45 ed 3c b5 3e 26
       0.10803649 -0.06614479 -0.13228957 0.011024131 -0.046301354 0.033072393 -0.1256751 0.2094585 -0.046301354 0.063939966 0.15213302 -0.0418917 0.13228957 -0.16536197 0.13669923 0.0837834
000070 fa 07 28 e5 de 29 0c d0 1f d9 d7 d2 0b bd cc 1d
       -0.0132289585 0.015433785 0.08819305 -0.05953031 -0.0749641 0.09039788 0.026457917 -0.10583167 0.068349615 -0.08598822 -0.09039788 -0.10142201 0.024253089 -0.14772336 -0.11465097 0.063939966
000080 f2 c9 3a c7 3f ca 41 0f f4 12 1d 17 0c ff e9 3d
       -0.03086757 -0.12126545 0.12787993 -0.1256751 0.13890406 -0.11906062 0.1433137 0.033072393 -0.026457917 0.039686874 0.063939966 0.050711006 0.026457917 -0.0022048263 -0.050711006 0.13449441
000090 2c c5 dd 12 d0 e5 f8 01 e0 2b 47 db 4c fb fc 09
       0.097012356 -0.13008475 -0.07716892 0.039686874 -0.10583167 -0.05953031 -0.01763861 0.0022048263 -0.07055444 0.094807535 0.15654267 -0.081578575 0.1675668 -0.011024131 -0.008819305 0.019843437
0000a0 25 0a e3 39 b0 d7 fc 11 f2 ed c0 14 0d 0a fe 2b
       0.081578575 0.022048263 -0.063939966 0.1256751 -0.1763861 -0.09039788 -0.008819305 0.03748205 -0.03086757 -0.0418917 -0.14110889 0.044096526 0.028662743 0.022048263 -0.0044096527 0.094807535
0000b0 06 2b e5 22 dd 39 e4 e1 bb 10 ed 06 11 1d ce 34
       0.0132289585 0.094807535 -0.05953031 0.0749641 -0.07716892 0.1256751 -0.06173514 -0.068349615 -0.15213302 0.03527722 -0.0418917 0.0132289585 0.03748205 0.063939966 -0.110241316 0.11465097
0000c0 33 bf f6 23 d3 41 08 12 f3 0d d8 f6 19 c8 1c 27
       0.112446144 -0.1433137 -0.022048263 0.07716892 -0.099217184 0.1433137 0.01763861 0.039686874 -0.028662743 0.028662743 -0.08819305 -0.022048263 0.055120658 -0.12347028 0.06173514 0.08598822
0000d0 22 c2 05 e7 e1 13 f6 f7 df e8 0d e3 1c ca 19 e9
       0.0749641 -0.13669923 0.011024131 -0.055120658 -0.068349615 0.0418917 -0.022048263 -0.019843437 -0.07275927 -0.052915834 0.028662743 -0.063939966 0.06173514 -0.11906062 0.055120658 -0.050711006
0000e0 fd c0 0e 18 39 16 cf 32 38 e9 19 2a 43 07 15 d2
       -0.0066144792 -0.14110889 0.03086757 0.052915834 0.1256751 0.048506178 -0.10803649 0.110241316 0.12347028 -0.050711006 0.055120658 0.09260271 0.14772336 0.015433785 0.046301354 -0.10142201
0000f0 02 b1 35 31 12 17 21 07 f9 04 c0 1c b8 0b 43 02
       0.0044096527 -0.17418128 0.11685579 0.10803649 0.039686874 0.050711006 0.07275927 0.015433785 -0.015433785 0.008819305 -0.14110889 0.06173514 -0.1587475 0.024253089 0.14772336 0.0044096527

while/MatMul_13 i1 [192, 64] scale=0.0024351038 zero_point=0
000000 e1 52 e8 06 df e2 1a 29 12 fe 1d 1e fe c8 d1 06
       -0.07548822 0.19967851 -0.05844249 0.014610622 -0.08035842 -0.073053114 0.063312694 0.099839255 0.043831866 -0.0048702075 0.07061801 0.073053114 -0.0048702075 -0.13636582 -0.11444987 0.014610622
000010 1f ff 1b d0 16 e9 17 fb 16 18 f8 10 ee 00 00 16
       0.07548822 -0.0024351038 0.065747805 -0.11688498 0.053572282 -0.056007385 0.056007385 -0.012175519 0.053572282 0.05844249 -0.01948083 0.03896166 -0.043831866 0.0 0.0 0.053572282
000020 f4 d9 de d4 c0 dc e1 1b 19 f2 00 01 e8 e8 cb fe
       -0.029221244 -0.09496905 -0.08279353 -0.107144564 -0.15584664 -0.08766373 -0.07548822 0.065747805 0.060877595 -0.034091454 0.0 0.0024351038 -0.05844249 -0.05844249 -0.12906049 -0.0048702075
000030 f7 ec 2c 15 12 1b 08 36 01 ca dd d8 12 08 09 da
       -0.021915933 -0.048702076 0.107144564 0.05113718 0.043831866 0.065747805 0.01948083 0.13149561 0.0024351038 -0.13149561 -0.08522863 -0.09740415 0.043831866 0.01948083 0.021915933 -0.092533946
000040 25 08 e0 d6 fa 34 23 e6 1a 11 0e 05 f2 fe 04 d8
       0.090098836 0.01948083 -0.07792332 -0.10227436 -0.014610622 0.12662539 0.08522863 -0.063312694 0.063312694 0.041396763 0.034091454 0.012175519 -0.034091454 -0.0048702075 0.009740415 -0.09740415
000050 e5 1f 14 ca 15 de ef fa fc 09 02 ee e7 cf f1 13
       -0.065747805 0.07548822 0.048702076 -0.13149561 0.05113718 -0.08279353 -0.041396763 -0.014610622 -0.009740415 0.021915933 0.0048702075 -0.043831866 -0.060877595 -0.11932009 -0.036526557 0.046266973
000060 da 01 1e 44 45 d5 17 23 04 de 07 12 2b eb 48 ea
       -0.092533946 0.0024351038 0.073053114 0.16558705 0.16802216 -0.10470946 0.056007385 0.08522863 0.009740415 -0.08279353 0.017045727 0.043831866 0.10470946 -0.05113718 0.17532746 -0.053572282
000070 fd fd e4 04 20 c1 e2 15 25 ed dd ea ff f3 0d 32
       -0.007305311 -0.007305311 -0.06818291 0.009740415 0.07792332 -0.15341154 -0.073053114 0.05113718 0.090098836 -0.046266973 -0.08522863 -0.053572282 -0.0024351038 -0.031656347 0.031656347 0.12175519
000080 11 0a fc ef 2e e0 d6 c6 36 f7 33 e1 ef fb 03 f1
       0.041396763 0.024351038 -0.009740415 -0.041396763 0.11201477 -0.07792332 -0.10227436 -0.14123602 0.13149561 -0.021915933 0.12419029 -0.07548822 -0.041396763 -0.012175519 0.007305311 -0.036526557
000090 f1 0b 12 24 cd f2 36 15 0c 0c 43 ff 11 13 f3 1d
       -0.036526557 0.026786141 0.043831866 0.08766373 -0.12419029 -0.034091454 0.13149561 0.05113718 0.029221244 0.029221244 0.16315195 -0.0024351038 0.041396763 0.046266973 -0.031656347 0.07061801
0000a0 ff cf 15 0a 2c 23 e3 29 fa 0b ff 22 f4 f7 e7 d6
       -0.0024351038 -0.11932009 0.05113718 0.024351038 0.107144564 0.08522863 -0.07061801 0.099839255 -0.014610622 0.026786141 -0.0024351038 0.08279353 -0.029221244 -0.021915933 -0.060877595 -0.10227436
0000b0 01 26 f1 e1 18 e8 d2 f1 11 2b f4 00 df 08 c9 31
       0.0024351038 0.092533946 -0.036526557 -0.07548822 0.05844249 -0.05844249 -0.11201477 -0.036526557 0.041396763 0.10470946 -0.029221244 0.0 -0.08035842 0.01948083 -0.13393071 0.11932009
0000c0 15 23 2e af 1a 15 dd fc f9 0d 26 f9 e4 ef f7 f1
       0.05113718 0.08522863 0.11201477 -0.1972434 0.063312694 0.05113718 -0.08522863 -0.009740415 -0.017045727 0.031656347 0.092533946 -0.017045727 -0.06818291 -0.041396763 -0.021915933 -0.036526557
0000d0 04 f4 1c 00 e3 67 1b d6 1b 0c fd fe fb e8 fe fa
       0.009740415 -0.029221244 0.06818291 0.0 -0.07061801 0.2508157 0.065747805 -0.10227436 0.065747805 0.029221244 -0.007305311 -0.0048702075 -0.012175519 -0.05844249 -0.0048702075 -0.014610622
0000e0 f6 f1 2d f4 e6 eb fb 37 0a 2b 0c 00 e8 f7 06 c2
       -0.024351038 -0.036526557 0.10957967 -0.029221244 -0.063312694 -0.05113718 -0.012175519 0.13393071 0.024351038 0.10470946 0.029221244 0.0 -0.05844249 -0.021915933 0.014610622 -0.15097643
0000f0 e4 fc ea fd 1c fe ff 28 00 fd de 36 1b d2 16 f6
       -0.06818291 -0.009740415 -0.053572282 -0.007305311 0.06818291 -0.0048702075 -0.0024351038 0.09740415 0.0 -0.007305311 -0.08279353 0.13149561 0.065747805 -0.11201477 0.053572282 -0.024351038
