python_quantization/cnn_rnn/tflite_models/microfaune_model_float16.tflite (tflite, 668820 bytes, 17 tensors)

model/batch_normalization_1/FusedBatchNormV3/ReadVariableOp f2 [64]
000000 00 00 00 00 00 00 00 00 00 00 00 00 00 00 00 00
       0.0 0.0 0.0 0.0 0.0 0.0 0.0 0.0
000010 00 00 00 00 00 00 00 00 00 00 00 00 00 00 00 00
       0.0 0.0 0.0 0.0 0.0 0.0 0.0 0.0
000020 00 00 00 00 00 00 00 00 00 00 00 00 00 00 00 00
       0.0 0.0 0.0 0.0 0.0 0.0 0.0 0.0
000030 00 00 00 00 00 00 00 00 00 00 00 00 00 00 00 00
       0.0 0.0 0.0 0.0 0.0 0.0 0.0 0.0
000040 00 00 00 00 00 00 00 00 00 00 00 00 00 00 00 00
       0.0 0.0 0.0 0.0 0.0 0.0 0.0 0.0
000050 00 00 00 00 00 00 00 00 00 00 00 00 00 00 00 00
       0.0 0.0 0.0 0.0 0.0 0.0 0.0 0.0
000060 00 00 00 00 00 00 00 00 00 00 00 00 00 00 00 00
       0.0 0.0 0.0 0.0 0.0 0.0 0.0 0.0
000070 00 00 00 00 00 00 00 00 00 00 00 00 00 00 00 00
       0.0 0.0 0.0 0.0 0.0 0.0 0.0 0.0

model/conv2d/Conv2D f2 [64, 3, 3, 1]
000000 2b ac 54 29 36 2e fe a4 50 a5 b1 aa b9 2c b7 2d
       -0.0651 0.04163 0.09705 -0.0195 -0.02075 -0.05228 0.0738 0.0893
000010 16 2d d2 ad b4 a7 7b 21 6c ad 07 29 bf 2b 15 ae
       0.07947 -0.09094 -0.03009 0.010704 -0.0847 0.03928 0.06052 -0.09503
000020 bb 2c b6 a9 5e ad ed 2d 7a a8 b6 23 ad ac e5 2d
       0.0739 -0.04462 -0.08386 0.0926 -0.03497 0.01506 -0.07306 0.0921
000030 81 a9 0c a0 4a ac bd 29 15 a3 9a 24 c9 24 1f a5
       -0.043 -0.007904 -0.067 0.04483 -0.01383 0.01797 0.01869 -0.02
000040 6d a5 c6 9f 47 28 7c a9 5e ad 2e a0 3e a9 fc 9d
       -0.0212 -0.00759 0.03342 -0.04285 -0.08386 -0.00816 -0.04095 -0.005844
000050 6d a5 b7 aa 57 2d 5a 2b 6d ad 2b ad ba a5 92 25
       -0.0212 -0.05246 0.08344 0.05743 -0.0848 -0.08075 -0.02237 0.02176
000060 26 2b 6e 2a a9 a6 4d ab 57 2e 04 ac 62 ae 59 2b
       0.05585 0.05023 -0.02602 -0.05704 0.09906 -0.06274 -0.09973 0.0574
000070 5d a9 cb 25 b2 22 ff ab 3d 2e 76 ae 68 ab 2e 2e
       -0.0419 0.02263 0.01308 -0.06247 0.0975 -0.10095 -0.05786 0.09656
000080 82 ad d0 2a e9 23 5d 28 34 20 cf a8 f6 a4 fd a7
       -0.08606 0.05322 0.01545 0.0341 0.00821 -0.03757 -0.01938 -0.0312
000090 8a 29 b0 29 f3 27 ef 26 b7 a5 90 26 ed a3 82 ad
       0.04327 0.04443 0.03105 0.02708 -0.02232 0.02563 -0.01548 -0.08606
0000a0 2b 2d 52 ad 0e 1e 4b 2d 3b 26 6d 28 52 2c e6 26
       0.08075 -0.0831 0.005913 0.0827 0.02434 0.03458 0.0675 0.02695
0000b0 55 a4 9d 9e 64 9f 9d 2c 8c 29 60 2b 0b 28 ff ad
       -0.01692 -0.00646 -0.007217 0.0721 0.04333 0.05762 0.0316 -0.0937
0000c0 e3 ac d0 1c 90 2c c1 aa 43 2e 86 a5 3b 2e 1e 25
       -0.07635 0.0047 0.0713 -0.05276 0.09784 -0.02158 0.09735 0.01999
0000d0 b9 a8 09 ae 87 2c fb 25 2f ab 44 2e 47 2e 48 2e
       -0.0369 -0.0943 0.07074 0.02336 -0.05612 0.0979 0.0981 0.09814
0000e0 4d ac ad 18 30 2b 9a ad 99 26 2d 1a ba 2a 68 ad
       -0.0672 0.002283 0.05615 -0.0875 0.02577 0.003016 0.05255 -0.0845
0000f0 83 2d 54 2c af 26 82 a5 01 29 29 2c ce 2d cb 2a
       0.0861 0.0676 0.02611 -0.02151 0.0391 0.065 0.0907 0.05307
000100 52 2b 22 a9 34 2e 5c 2d 9a a2 7d 2d d8 ab 53 a8
       0.0572 -0.0401 0.0969 0.08374 -0.01289 0.08575 -0.06128 -0.03378
000110 99 2b f0 ac 81 2d db 28 08 2e ab ac b7 ad 49 2e
       0.05936 -0.07715 0.086 0.03793 0.09424 -0.07294 -0.0893 0.0982
000120 c0 ac f1 ad 25 9f 67 a1 51 2c d0 28 35 a4 49 25
       -0.0742 -0.09283 -0.006977 -0.01055 0.06744 0.0376 -0.01643 0.02065
000130 00 ac bc 25 84 2c 68 aa c7 2d 9f 2a 22 20 be 2c
       -0.0625 0.0224 0.07056 -0.05005 0.0903 0.05173 0.00807 0.0741
000140 e0 2c 08 ad 58 2e 78 2c e9 a9 da ab 75 ae 68 2b
       0.0762 -0.0786 0.0991 0.0698 -0.04617 -0.06134 -0.1009 0.05786
000150 cf 29 c4 ad 27 ac 40 1e 58 20 15 22 77 2a 9e 1a
       0.04538 -0.0901 -0.0649 0.006104 0.008484 0.01188 0.0505 0.003231
000160 5d 2e d2 2c 51 ae 11 2c 94 a5 91 2d 7d a1 ff 2c
       0.0994 0.0753 -0.0987 0.06354 -0.02179 0.087 -0.01072 0.07806
000170 cd 2a cc 2d a2 2b df 2c 9d 2c 1e 26 c4 2d 02 ad
       0.05313 0.0906 0.05963 0.0761 0.0721 0.0239 0.0901 -0.07825
000180 3a 2d 65 2c 9c 2d 72 a9 95 ab 0b ab df ab 34 26
       0.08167 0.06866 0.08765 -0.04254 -0.05923 -0.05502 -0.0615 0.02423
000190 45 a5 91 ac 89 ac de a6 b0 a6 67 a8 ce 1c 20 28
       -0.02058 -0.07135 -0.07086 -0.02682 -0.02612 -0.0344 0.004692 0.03223
0001a0 01 ae 20 a3 bc a9 2d ad a7 ad ae a8 6c 23 8d 2c
       -0.0938 -0.013916 -0.0448 -0.0809 -0.0883 -0.03656 0.014496 0.0711
0001b0 a3 1a 3a a9 0a 2e 68 a8 8f 29 68 2d ed 9e 49 2d
       0.00324 -0.04083 0.09436 -0.03442 0.04343 0.0845 -0.006763 0.0826
0001c0 7f 2d 67 aa 3f 24 e5 ac 2e 2d d8 ab 16 ac 37 2b
       0.0859 -0.05002 0.01659 -0.0765 0.08093 -0.06128 -0.06384 0.05637
0001d0 aa 29 cb aa 25 ad e4 2d 2d 24 2b 2c 21 ae 77 2e
       0.04425 -0.05307 -0.0804 0.09204 0.01631 0.0651 -0.09576 0.101
0001e0 1d ae 03 29 55 2d f4 aa d6 23 5a aa 2d 2a 01 2d
       -0.0955 0.03915 0.0833 -0.05432 0.015305 -0.04962 0.04825 0.0782
0001f0 3c 2b 19 95 9b a8 2b a3 14 a6 92 1e 91 23 d9 93
       0.05652 -0.001245 -0.03598 -0.014 -0.02374 0.006416 0.01478 -0.000958

model/conv2d_1/Conv2D f2 [64, 3, 3, 64]
000000 b6 24 81 22 14 a8 37 29 32 9f 38 a7 f7 1c 1b 2c
       0.0184 0.0127 -0.03186 0.04074 -0.007027 -0.0282 0.00485 0.06415
000010 d2 a9 93 9f 8f 2a 32 ac 2a 25 b4 1f 28 a5 86 ab
       -0.04547 -0.007397 0.05124 -0.06555 0.02017 0.007523 -0.02014 -0.05878
000020 5b 22 52 2c 86 aa d0 25 e6 1d ea a8 e2 aa bf 23
       0.01241 0.0675 -0.05096 0.0227 0.00576 -0.0384 -0.05377 0.01513
000030 d2 21 31 a8 d5 a2 04 22 97 25 04 a4 31 ab 77 a4
       0.01137 -0.03275 -0.01334 0.01175 0.02184 -0.01569 -0.05618 -0.01744
000040 95 ab d0 26 10 ab c6 a9 4e a9 51 a9 f4 25 1c 9c
       -0.05923 0.02661 -0.05518 -0.0451 -0.04144 -0.04153 0.02325 -0.004013
000050 0a a9 5f a5 3d 9c b7 28 97 ac e1 28 74 ab ef a4
       -0.03937 -0.02098 -0.00414 0.03683 -0.0717 0.03812 -0.05823 -0.01927
000060 ad 25 ce 2a d4 9c 56 19 95 a9 30 99 78 25 7b 23
       0.02217 0.05316 -0.004715 0.002605 -0.0436 -0.002533 0.02136 0.01461
000070 a4 24 47 2c 2e 2c 48 a9 61 28 84 29 02 a4 b7 23
       0.01813 0.06683 0.0653 -0.04126 0.0342 0.0431 -0.01566 0.01507
000080 2b 26 07 28 7a 29 d6 a9 2c 1a 09 ac 95 ac a7 a4
       0.0241 0.03146 0.0428 -0.0456 0.003014 -0.06305 -0.0716 -0.01817
000090 2e 23 80 23 e8 29 52 2b 08 2c 4d 27 76 2c 3d a5
       0.01402 0.01465 0.04614 0.0572 0.063 0.02852 0.0697 -0.02046
0000a0 53 a4 79 27 a7 2a 0d ac a4 96 56 28 31 1d 50 2c
       -0.01689 0.02919 0.05197 -0.0633 -0.001621 0.03387 0.00507 0.0674
0000b0 76 a5 b3 2a 38 a8 f7 24 d7 27 b6 20 be 22 8d 2b
       -0.02133 0.05234 -0.03296 0.0194 0.03062 0.0092 0.01317 0.059
0000c0 03 ab f4 28 7b ac 31 25 8f 9a 4e 25 42 29 82 a8
       -0.05478 0.0387 -0.07 0.02028 -0.003202 0.02072 0.04108 -0.03522
0000d0 fc 1e 06 2c 4a a8 73 a6 39 27 d4 29 63 2b 66 a9
       0.00682 0.06287 -0.0335 -0.02519 0.02821 0.04553 0.0577 -0.04218
0000e0 d5 28 d4 2b e4 a5 5a ac 14 ac ba 96 12 2c f6 2b
       0.03775 0.06116 -0.02301 -0.068 -0.0637 -0.001642 0.0636 0.0622
0000f0 03 26 68 2a f6 28 6e a7 07 24 b3 a9 b7 a9 85 2a
       0.02348 0.05005 0.03876 -0.02902 0.01573 -0.04453 -0.04465 0.05093
000100 25 2c 37 a6 60 28 e2 1c dd 9c bb 27 3a a5 a2 ab
       0.06476 -0.02428 0.03418 0.00477 -0.00475 0.0302 -0.02042 -0.05963
000110 43 ac 27 a9 5a 25 93 24 02 24 57 2b ad 2a e5 2a
       -0.0666 -0.04025 0.0209 0.01787 0.01566 0.05734 0.05215 0.05386
000120 53 a8 46 ab 60 2a ea 27 6e 1c 9a a6 fb a8 59 27
       -0.03378 -0.05682 0.0498 0.03091 0.004326 -0.02579 -0.0389 0.0287
000130 57 96 45 2c d6 28 ed a7 be 2a 4c 23 e8 25 83 a9
       -0.001548 0.0667 0.03778 -0.03096 0.05267 0.01425 0.02307 -0.04306
000140 09 29 cf 27 44 2c 5a a8 d8 a8 ea aa 32 aa 1a ab
       0.03934 0.0305 0.06665 -0.034 -0.03784 -0.05402 -0.0484 -0.05548
000150 9a aa b6 a9 c9 a9 9d 2a a6 9f 5b 28 92 a9 da 20
       -0.05157 -0.04462 -0.0452 0.05167 -0.00747 0.03403 -0.04352 0.009476
000160 73 2a 1d 2c 69 28 81 1b a8 2b 54 a8 3c ab 47 aa
       0.05038 0.0643 0.03445 0.003664 0.0598 -0.0338 -0.05652 -0.04904
000170 99 25 22 a0 05 ac 3a 24 30 24 19 08 11 2c 3d 9b
       0.02187 -0.00807 -0.0628 0.01651 0.01636 0.000125 0.06354 -0.003534
000180 b9 24 3b 2a b0 a1 76 19 33 a6 0f 2b a6 a8 5c 9e
       0.01845 0.04868 -0.01111 0.002666 -0.02422 0.05515 -0.03632 -0.00621
000190 a0 ab 84 aa f4 a5 83 28 e8 a3 6e 22 c5 a4 86 29
       -0.05957 -0.0509 -0.02325 0.03525 -0.01544 0.01256 -0.01863 0.04315
0001a0 5a ab 90 28 e0 2a 7b 2a 3d 2b 68 ab 22 2b ee 1f
       -0.05743 0.03564 0.0537 0.05063 0.05655 -0.05786 0.05573 0.007744
0001b0 4d ac e3 a4 1f a5 2f ac 1f 26 82 a7 e7 a5 3f 29
       -0.0672 -0.01909 -0.02 -0.06537 0.02391 -0.02933 -0.02306 0.041
0001c0 40 a9 e3 24 16 2c 37 a7 f0 1e 13 ac 2a a5 2d 22
       -0.04102 0.01909 0.06384 -0.02818 0.006775 -0.06366 -0.02017 0.01206
0001d0 a9 aa 5a 26 86 ac 13 a8 cf a4 ba a2 04 a3 87 ac
       -0.05203 0.02481 -0.0707 -0.03183 -0.01878 -0.01314 -0.0137 -0.07074
0001e0 aa 22 98 28 0a a4 1e 2a 3e 1d 52 a1 ba 27 f3 2a
       0.013016 0.0359 -0.01578 0.0478 0.00512 -0.01039 0.03018 0.0543
0001f0 87 9a 79 2c 83 26 95 9e 5f 2a ce a9 1c ab 87 21
       -0.003187 0.0699 0.02544 -0.006428 0.04977 -0.04535 -0.05554 0.010796

model/conv2d_2/Conv2D f2 [64, 3, 3, 64]
000000 74 29 be 2a 1e 27 de a0 14 2b c2 aa 63 a3 c0 ab
       0.0426 0.05267 0.0278 -0.00951 0.0553 -0.0528 -0.01443 -0.06055
000010 1b 25 cb 2b 4f ac 57 ac 17 a5 c2 ab 3c a6 5c 20
       0.01994 0.06088 -0.0673 -0.0678 -0.01988 -0.0606 -0.02435 0.008514
000020 67 2a e5 22 3b a3 32 2a a0 aa 9e 27 cb a9 f9 2b
       0.05002 0.013466 -0.01412 0.0484 -0.05176 0.02975 -0.04526 0.0623
000030 97 a6 be ab 7c a0 20 ac b9 2a cd 2b cf a6 58 ac
       -0.02574 -0.0605 -0.00876 -0.06445 0.05252 0.06094 -0.0266 -0.0679
000040 be 29 b6 9e 5f 2b 81 2c 25 ac 5a 24 69 a4 67 ab
       0.04486 -0.006554 0.0576 0.0704 -0.06476 0.017 -0.01723 -0.05783
000050 12 a9 9c aa 2f a8 c5 2a 4d 25 50 28 9d a6 4f 2c
       -0.0396 -0.05164 -0.03268 0.0529 0.0207 0.0337 -0.02583 0.0673
000060 ea 9a 0f 2c 5a a6 4b ac a8 a9 7f ac 65 2c 9a 26
       -0.003376 0.0634 -0.02481 -0.0671 -0.0442 -0.07025 0.06866 0.02579
000070 c2 99 31 aa 24 2b 65 ac 08 a5 db 29 a9 ab 2a 99
       -0.002811 -0.04837 0.0558 -0.06866 -0.01965 0.04575 -0.05984 -0.002522
000080 39 9c 9e a7 87 24 9e 18 33 29 08 a5 c5 9f d8 27
       -0.004124 -0.02975 0.01768 0.002254 0.04062 -0.01965 -0.007587 0.03064
000090 40 17 7f 28 46 a1 59 ac ea 25 47 ac 84 24 7a ab
       0.00177 0.03513 -0.0103 -0.06793 0.0231 -0.06683 0.01764 -0.0584
0000a0 4b 1d e1 2a fa aa 48 aa 8a 2c 49 11 b1 a8 e8 a4
       0.00517 0.05374 -0.0545 -0.04907 0.0709 0.000645 -0.03665 -0.01917
0000b0 aa a5 c2 2b 19 ac 0c 2a 5b a4 d2 23 7c ac a7 aa
       -0.02213 0.0606 -0.064 0.04724 -0.01701 0.015274 -0.07007 -0.05197
0000c0 be 19 54 28 0a 29 57 a9 5e 2c 40 22 0f 27 3e ab
       0.002804 0.0338 0.03937 -0.04172 0.06824 0.01221 0.02757 -0.05658
0000d0 b0 2a 98 2c b4 98 73 ac 12 28 cb 28 a6 aa ca a9
       0.05225 0.0718 -0.002296 -0.0695 0.0318 0.03745 -0.05194 -0.04523
0000e0 c8 1c 95 27 65 a5 a8 1a 0e 26 ea 2b 84 a6 3f a8
       0.00467 0.02962 -0.02107 0.00325 0.02365 0.06183 -0.02545 -0.03317
0000f0 b4 a9 75 a4 92 2b 8c 1c 41 2c c8 a1 2f a6 ab a4
       -0.04456 -0.01741 0.05914 0.00444 0.06647 -0.01129 -0.02415 -0.01823
000100 23 a7 0a ac 02 a7 19 28 c8 29 a8 a5 a3 a9 77 a8
       -0.02788 -0.0631 -0.02737 0.032 0.04517 -0.0221 -0.04404 -0.03488
000110 69 a3 63 a7 27 27 6a 1f 79 28 5f 29 cd a5 54 aa
       -0.01447 -0.02885 0.02794 0.00724 0.03494 0.04196 -0.02266 -0.04944
000120 bf 28 de a8 6d a7 63 aa ab a9 86 2a e0 a8 5f 28
       0.03708 -0.03802 -0.029 -0.0499 -0.04428 0.05096 -0.0381 0.03415
000130 03 aa 5b 9e da 9f 0b 29 28 1e 61 a8 f8 a6 1e ab
       -0.04697 -0.006207 -0.007668 0.0394 0.006012 -0.0342 -0.02722 -0.0556
000140 03 aa 9f a9 8e a7 21 27 11 22 ff aa 7f ab 02 2c
       -0.04697 -0.0439 -0.02951 0.02785 0.01185 -0.05466 -0.05856 0.0626
000150 f3 27 1e 2a c2 25 3f a8 64 18 69 21 51 a6 2d 1b
       0.03105 0.0478 0.02249 -0.03317 0.002144 0.01057 -0.02467 0.003504
000160 2c 2a 6c 2a c5 29 86 28 a4 26 36 29 d8 29 81 9c
       0.04822 0.05017 0.04507 0.03534 0.02594 0.0407 0.04565 -0.0044
000170 dc 1f 5c a5 3a 2c 37 21 05 2c 1e a7 0f 24 a7 2a
       0.007675 -0.02094 0.06604 0.010185 0.0628 -0.0278 0.01585 0.05197
000180 8d a9 25 1d fa 29 6b 28 d2 2b da 28 b4 2a b7 29
       -0.04337 0.005024 0.0467 0.03452 0.0611 0.0379 0.05237 0.04465
000190 6e ab dc aa c3 aa b2 28 b0 28 e2 a9 54 ac 92 ac
       -0.05804 -0.0536 -0.05283 0.03668 0.03662 -0.04596 -0.0676 -0.0714
0001a0 8f aa d2 aa 24 28 01 2c 5f ac e5 25 e8 28 f5 9a
       -0.05124 -0.05328 0.03235 0.06256 -0.0683 0.02303 0.03833 -0.003397
0001b0 1b aa c0 a9 c1 91 93 28 50 aa 4c 1c 8b ac 24 2a
       -0.0477 -0.04492 -0.0007024 0.03574 -0.04932 0.004196 -0.071 0.04797
0001c0 69 20 9a 2c d1 2a e8 a0 4c a6 0b 1d 23 2b 68 1f
       0.00861 0.0719 0.05325 -0.00958 -0.0246 0.004925 0.05576 0.007233
0001d0 bc aa 4b 2c af 29 14 27 b5 2a bc 23 e0 20 0e 25
       -0.0526 0.0671 0.0444 0.02765 0.0524 0.01511 0.00952 0.01974
0001e0 0c a1 fd a5 6a a4 70 28 30 a9 69 1d 8d a8 7f a5
       -0.00986 -0.02339 -0.01724 0.03467 -0.04053 0.005283 -0.03555 -0.02147
0001f0 14 2c 86 aa d9 24 94 2c 1b 2a 7d a7 3c 1a 67 21
       0.0637 -0.05096 0.01894 0.07153 0.0477 -0.02925 0.003044 0.01055

model/conv2d_3/Conv2D f2 [64, 3, 3, 64]
000000 01 a9 95 a9 d5 28 e1 ab 5d aa dd 2b 15 a6 a8 29
       -0.0391 -0.0436 0.03775 -0.06155 -0.0497 0.06143 -0.02376 0.0442
000010 67 ab 22 80 19 2c 33 26 03 a4 22 24 b0 23 ea a7
       -0.05783 -2e-06 0.064 0.02422 -0.01567 0.01614 0.015015 -0.03091
000020 76 a9 c4 2a 28 2b fc 22 79 2c 15 2b 79 27 24 a7
       -0.04266 0.05286 0.0559 0.01364 0.0699 0.05533 0.02919 -0.0279
000030 75 a2 86 2c 96 12 3c 26 c5 16 13 2a 07 aa 13 a0
       -0.01261 0.0707 0.000804 0.02435 0.001653 0.04745 -0.0471 -0.00796
000040 a3 2b 5e 29 64 26 46 ab d9 a6 1a a8 4d ab a9 26
       0.05966 0.04193 0.02496 -0.05682 -0.02675 -0.03204 -0.05704 0.02602
000050 aa ab 44 a1 e7 98 6f a4 cc a6 fe 9c 68 29 0e 2b
       -0.05988 -0.010284 -0.002394 -0.01732 -0.02655 -0.004875 0.04224 0.0551
000060 91 29 30 2c 18 2b 4c 2c 63 28 bd a9 e3 9b da 95
       0.0435 0.0654 0.05542 0.06714 0.03427 -0.04483 -0.00385 -0.001429
000070 87 9a 55 a7 15 a4 3a a8 2e 9d 0c 28 c8 26 a8 a1
       -0.003187 -0.02864 -0.01595 -0.03302 -0.00506 0.03162 0.02649 -0.01105
000080 ea 20 0f ac 4b 20 4d a7 8f 28 07 2a f7 9a 35 aa
       0.0096 -0.0634 0.008385 -0.02852 0.0356 0.0471 -0.0034 -0.0485
000090 b6 27 f2 a7 45 1f ec 24 54 2a 28 a5 88 29 17 27
       0.03012 -0.03104 0.0071 0.01923 0.04944 -0.02014 0.0432 0.0277
0000a0 df ab 52 28 d2 23 3a 21 c7 15 23 28 77 a9 e8 29
       -0.0615 0.03375 0.015274 0.01021 0.0014105 0.03232 -0.0427 0.04614
0000b0 db 2a 62 a3 70 27 1e 9c 85 24 6f 2c 73 99 bd 1a
       0.05356 -0.01442 0.02905 -0.00402 0.01765 0.0693 -0.00266 0.00329
0000c0 5b a2 8d a9 42 ac e3 28 47 26 c7 28 36 a4 7a a4
       -0.01241 -0.04337 -0.0665 0.03818 0.02452 0.03732 -0.01645 -0.01749
0000d0 8f 2c b0 a7 89 1c 1e 21 fe 9d dc a0 48 2a b0 a8
       0.0712 -0.03003 0.00443 0.009995 -0.00585 -0.00949 0.04907 -0.03662
0000e0 44 aa c7 a7 26 9f 3c 28 82 1f b9 1a 38 28 7f 2a
       -0.04895 -0.03038 -0.00698 0.03308 0.00733 0.003283 0.03296 0.05075
0000f0 b0 26 ca a8 54 2b 89 28 4c a9 97 29 4e ac 1f 2b
       0.02612 -0.0374 0.05725 0.03543 -0.04138 0.04367 -0.06726 0.05563
000100 e1 22 68 a7 cf a8 c0 ab 4e ac 49 a2 6d a8 ac ab
       0.013435 -0.02893 -0.03757 -0.06055 -0.06726 -0.012276 -0.03458 -0.05994
000110 82 20 22 ac ba 28 00 a9 67 ac 35 a4 75 ac ee 97
       0.008804 -0.0646 0.03693 -0.03906 -0.0688 -0.01643 -0.06964 -0.001936
000120 40 2c 71 a1 89 a9 73 a9 54 a5 92 a9 93 a9 01 28
       0.0664 -0.01063 -0.04324 -0.04257 -0.02081 -0.04352 -0.04355 0.03128
000130 06 ac 3e 24 ce 21 14 ab 5f 25 09 a6 d6 1d aa 1d
       -0.06287 0.01657 0.01134 -0.0553 0.02098 -0.02357 0.0057 0.00553
000140 01 2a 80 28 b6 1e d8 2a 37 a9 84 ac df 24 59 28
       0.0469 0.03516 0.006554 0.05347 -0.04074 -0.07056 0.01903 0.03397
000150 46 a9 2e 29 76 90 74 2b dc 2a 56 29 d5 28 b7 2b
       -0.0412 0.04047 -0.0005445 0.05823 0.0536 0.0417 0.03775 0.06027
000160 61 28 33 aa 78 ab 24 ab b7 a8 8e aa c0 29 53 ac
       0.0342 -0.04843 -0.05835 -0.0558 -0.03683 -0.0512 0.04492 -0.06757
000170 62 29 4a 27 12 2b 1c 28 30 a7 b5 a8 b1 22 00 27
       0.04205 0.02847 0.05524 0.0321 -0.02808 -0.03677 0.01307 0.02734
000180 8b 2a 47 a0 42 ab 79 82 e8 a3 5f ab 76 a8 84 2c
       0.05112 -0.008354 -0.0567 -3.77e-05 -0.01544 -0.0576 -0.03485 0.07056
000190 d2 29 60 a7 ba a4 41 aa 24 ab 23 28 8d 29 f1 9a
       0.04547 -0.02881 -0.01846 -0.04886 -0.0558 0.03232 0.04337 -0.00339
0001a0 8c aa e7 95 3c 91 41 29 00 a1 a8 2a d3 2b 99 2c
       -0.05115 -0.001441 -0.000639 0.04105 -0.009766 0.052 0.06113 0.07184
0001b0 6f 27 57 aa a8 28 f2 90 7d a0 36 a7 ed aa 63 a1
       0.02904 -0.04953 0.03638 -0.0006037 -0.008766 -0.02817 -0.0541 -0.01052
0001c0 30 2c 71 ab f1 a8 ea a9 89 a7 0e ab a2 26 73 2b
       0.0654 -0.05814 -0.0386 -0.0462 -0.02943 -0.0551 0.02591 0.0582
0001d0 2e a8 3b a9 35 2c 86 25 da 1c 43 1f f4 aa 38 2a
       -0.03265 -0.04086 0.06573 0.02158 0.004738 0.00709 -0.05432 0.04858
0001e0 e7 29 03 2c 25 a4 a0 a8 58 2c 6d 27 0c 2b 60 ab
       0.0461 0.0627 -0.01619 -0.03613 0.0679 0.029 0.05505 -0.05762
0001f0 a9 29 10 ac de 27 1a 9e a1 a8 15 25 8a a3 d0 a9
       0.04422 -0.0635 0.03073 -0.00596 -0.03616 0.01985 -0.014725 -0.0454

model/conv2d_4/Conv2D f2 [64, 3, 3, 64]
000000 1f 18 08 a9 f5 2b 82 27 d7 a8 44 a8 30 9c 15 27
       0.002012 -0.0393 0.06216 0.02933 -0.0378 -0.03333 -0.00409 0.02766
000010 2f ab a6 a9 53 92 5a aa bd 9a 2e 2c c6 2b 00 a1
       -0.05612 -0.04413 -0.000772 -0.04962 -0.00329 0.0653 0.06073 -0.009766
000020 0b 1f ea 29 94 2c 2b a1 df a6 03 a9 89 1c 86 2c
       0.006878 0.0462 0.07153 -0.01009 -0.02684 -0.03915 0.00443 0.0707
000030 2f a9 3b 29 17 a6 b6 a9 9c 98 7b ac b8 aa ba ab
       -0.0405 0.04086 -0.02379 -0.04462 -0.00225 -0.07 -0.0525 -0.06036
000040 a3 28 f8 27 16 29 16 26 ac 25 40 a4 ff 24 9d 23
       0.03622 0.03113 0.03973 0.02377 0.02216 -0.0166 0.01952 0.01487
000050 e8 26 ca 24 bb a4 88 a7 6c a4 3c a6 25 a6 ac a1
       0.02698 0.0187 -0.01848 -0.02942 -0.01727 -0.02435 -0.024 -0.01108
000060 9e 2a ae 9c 8d 2a 44 aa a8 20 ae 2a d0 29 ad 06
       0.0517 -0.00457 0.05118 -0.04895 0.009094 0.0522 0.0454 0.00010186
000070 4d a0 9f ab bc a9 13 a8 af 27 b4 ab 1b 26 1d 2c
       -0.0084 -0.05954 -0.0448 -0.03183 0.03001 -0.06018 0.02385 0.0643
000080 16 a8 5b 24 37 ab 20 27 1f a7 49 2a bc 2b c5 25
       -0.03192 0.01701 -0.05637 0.02783 -0.02782 0.0491 0.06042 0.02254
000090 96 ac 6e 26 92 2c 53 19 d2 a1 22 28 ce a2 85 a9
       -0.07166 0.02512 0.0714 0.0026 -0.01137 0.0323 -0.01329 -0.04312
0000a0 b2 a8 4b 28 1b 2a 50 a7 bb 26 ad a8 4d 9c e3 a4
       -0.03668 0.03354 0.0477 -0.02856 0.02629 -0.03653 -0.0042 -0.01909
0000b0 80 a5 3a 24 3c 22 c1 24 9a 2c 86 2b 70 23 a0 a8
       -0.02148 0.01651 0.01218 0.01857 0.0719 0.05878 0.01453 -0.03613
0000c0 39 26 2c a1 cf a3 f5 a6 7a ac d1 a6 9e ac b8 a5
       0.0243 -0.0101 -0.01525 -0.02718 -0.06995 -0.02663 -0.07214 -0.02234
0000d0 57 28 01 ac 4f 28 0e ac f5 25 60 24 99 2a a6 28
       0.0339 -0.06256 0.03366 -0.06335 0.02327 0.01709 0.05154 0.03632
0000e0 ea 24 25 2a a0 27 73 20 d9 98 5a ac 75 2a 8a 22
       0.0192 0.048 0.02979 0.00869 -0.002367 -0.068 0.05045 0.01277
0000f0 89 9c bf 9d 57 2c 85 2c 98 29 30 2c 1c 27 e3 aa
       -0.00443 -0.00561 0.0678 0.0706 0.0437 0.0654 0.02777 -0.0538
000100 be 2a f8 26 58 2c ee 27 7d 26 d3 a7 d8 a6 99 1a
       0.05267 0.02722 0.0679 0.03098 0.02534 -0.03056 -0.02673 0.003222
000110 18 25 d1 a8 2a a3 a8 25 b9 1d 79 29 22 ac 9c 2c
       0.0199 -0.03763 -0.01399 0.0221 0.00559 0.04276 -0.0646 0.072
000120 40 2c 8f ab e7 29 6c a8 0f 9c 38 ac 84 a0 e3 aa
       0.0664 -0.05905 0.0461 -0.03455 -0.003963 -0.0659 -0.00882 -0.0538
000130 34 a9 96 21 29 26 fd 20 af 29 6b ac 71 28 98 9c
       -0.04065 0.01091 0.02406 0.00974 0.0444 -0.06903 0.0347 -0.004486
000140 b6 a1 09 29 84 2b 33 2a 14 2c 68 27 fd a5 5e 2c
       -0.011154 0.03934 0.05872 0.04843 0.0637 0.02893 -0.02339 0.06824
000150 64 2a e2 a2 c7 22 61 24 b1 aa 2c 23 88 a5 c3 aa
       0.04993 -0.01344 0.01324 0.0171 -0.05228 0.01401 -0.0216 -0.05283
000160 26 28 5d 26 8d a5 ff ab 7f 2b f1 a4 46 a0 d5 a8
       0.0324 0.02486 -0.02168 -0.06247 0.05856 -0.0193 -0.00835 -0.03775
000170 23 2c e0 24 4a 2b 28 a5 9c 27 43 ab 47 ac 42 a8
       0.06464 0.01904 0.05695 -0.02014 0.02972 -0.05673 -0.06683 -0.03326
000180 23 27 35 28 c3 aa 0a a8 44 2a 78 aa df ab a5 29
       0.02788 0.03287 -0.05283 -0.03156 0.04895 -0.05054 -0.0615 0.0441
000190 9e a4 4d a0 50 aa 22 2c 83 29 f1 2a f3 a8 fb 1e
       -0.01804 -0.0084 -0.04932 0.0646 0.04306 0.05423 -0.03867 0.006817
0001a0 8e 1c 52 28 06 1d 37 2b c2 2b ec 28 32 9d bd aa
       0.004448 0.03375 0.004906 0.05637 0.0606 0.03845 -0.005074 -0.05264
0001b0 aa a9 16 2c 15 a6 33 2a 12 ab b8 a8 31 a0 f8 21
       -0.04425 0.06384 -0.02376 0.04843 -0.05524 -0.03687 -0.00819 0.01166
0001c0 a7 a7 32 aa cf 28 43 24 d6 a4 90 ac 93 26 47 2a
       -0.02989 -0.0484 0.03757 0.01665 -0.01889 -0.0713 0.02568 0.04904
0001d0 4c 2c 1a 26 1e ac f8 a1 16 ab 3b ac 98 a5 fe 28
       0.06714 0.02383 -0.06433 -0.01166 -0.05536 -0.0661 -0.02185 0.039
0001e0 cc a9 38 2c b1 a5 f8 23 01 21 55 26 ad a0 80 29
       -0.0453 0.0659 -0.02223 0.015564 0.00977 0.02473 -0.00913 0.04297
0001f0 10 20 55 a7 0b 1e f5 a7 e7 1b df 9c f4 a8 51 ac
       0.007935 -0.02864 0.0059 -0.03108 0.003859 -0.004757 -0.0387 -0.06744

model/conv2d_5/Conv2D f2 [64, 3, 3, 64]
000000 01 a1 43 ab 25 1a 1a 2c 9b 22 9f 2b 81 a8 ae 21
       -0.00977 -0.05673 0.003 0.0641 0.0129 0.05954 -0.0352 0.01109
000010 1c a7 68 ab d0 28 6d a5 f7 1e 5c 28 fd a6 42 a0
       -0.02777 -0.05786 0.0376 -0.0212 0.0068 0.03406 -0.0273 -0.008316
000020 ad a5 20 ab 5f a3 35 2c 52 a9 33 26 0a 2a 89 ac
       -0.02217 -0.05566 -0.0144 0.06573 -0.04156 0.02422 0.04718 -0.07086
000030 f9 28 f9 29 a3 19 dc ab 87 28 c5 22 24 23 5a ab
       0.03885 0.04666 0.002752 -0.0614 0.03537 0.01322 0.01395 -0.05743
000040 aa a9 7a 2c fd ab 74 2b a9 99 96 a3 f0 29 75 26
       -0.04425 0.06995 -0.0624 0.05823 -0.002764 -0.01482 0.0464 0.02522
000050 bc ab 22 2b ae 29 2c a0 77 ac 93 2a 5c 28 ab 29
       -0.06042 0.05573 0.04437 -0.00815 -0.06976 0.05136 0.03406 0.04428
000060 48 28 1a 1d 3e 23 16 ac f7 16 12 ab 56 a9 51 2c
       0.03345 0.004982 0.014145 -0.06384 0.0017 -0.05524 -0.0417 0.06744
000070 d5 a8 cf a5 ae 23 ae 24 0a 2c c3 2a 31 23 f3 2a
       -0.03775 -0.02269 0.015 0.01828 0.0631 0.05283 0.014046 0.0543
000080 7b 2b 8f 29 ef 29 f9 ab 84 a6 ed ab 3a 26 bb 97
       0.05844 0.04343 0.04636 -0.0623 -0.02545 -0.06192 0.02432 -0.001887
000090 d7 1a dc 25 41 2c 7d 22 90 27 cf ab c5 ab 34 23
       0.00334 0.02289 0.06647 0.01267 0.02954 -0.061 -0.0607 0.01407
0000a0 9e 2b 1d 2a 86 a8 25 ac ae 29 85 2b f2 21 79 20
       0.0595 0.04776 -0.03534 -0.06476 0.04437 0.05875 0.01161 0.008736
0000b0 b1 a4 14 29 22 ab 8a a9 bc 29 71 26 35 1a ee 28
       -0.01833 0.03967 -0.05573 -0.04327 0.0448 0.02516 0.00303 0.0385
0000c0 f6 2b b8 99 aa a2 00 16 0b a4 91 a6 98 aa 37 29
       0.0622 -0.002792 -0.013016 0.001465 -0.0158 -0.02565 -0.0515 0.04074
0000d0 48 2a 88 ac e2 27 3b a1 b6 2a 10 2c b7 a9 c9 1e
       0.04907 -0.0708 0.03079 -0.010216 0.05243 0.0635 -0.04465 0.006626
0000e0 49 a8 b0 a8 b8 22 ba a4 9a 1d 79 2c 14 29 ed 28
       -0.03348 -0.03662 0.01312 -0.01846 0.00547 0.0699 0.03967 0.03848
0000f0 ce 26 bc a2 31 a9 6c a6 41 28 57 a7 8e a7 60 28
       0.02658 -0.01315 -0.04056 -0.02509 0.03323 -0.02867 -0.02951 0.03418
000100 eb 9c f6 24 7c a4 06 2c cd a6 46 aa ae a8 36 9a
       -0.004803 0.01938 -0.01752 0.06287 -0.02657 -0.049 -0.03656 -0.003033
000110 1c 96 04 a8 b6 28 a9 2a be 27 f1 a9 6f 29 b9 14
       -0.001492 -0.03137 0.0368 0.05203 0.03024 -0.04642 0.04245 0.001153
000120 86 26 ad 24 56 a9 30 24 e0 2a a0 a7 89 2c 18 2c
       0.02548 0.01826 -0.0417 0.01636 0.0537 -0.02979 0.07086 0.06396
000130 6e 18 b9 22 93 a0 a4 27 87 24 3b 2c 10 ab fa 22
       0.002163 0.01313 -0.008934 0.02985 0.01768 0.0661 -0.05518 0.013626
000140 81 ac 6a ac 96 2b 0a 2b 13 19 41 2c 3f a6 71 24
       -0.0704 -0.069 0.05927 0.055 0.002478 0.06647 -0.0244 0.01735
000150 0a a9 59 ac 42 27 04 ac 73 28 a1 2a ba 2b f8 29
       -0.03937 -0.06793 0.02835 -0.06274 0.03476 0.0518 0.06036 0.04663
000160 e2 aa 15 24 17 27 bd 27 57 a3 4b 29 47 2c 76 ab
       -0.05377 0.01595 0.0277 0.03023 -0.014336 0.04135 0.06683 -0.0583
000170 c7 a8 25 a7 58 22 04 a3 06 ac 61 15 20 a4 34 2b
       -0.03732 -0.02791 0.01239 -0.0137 -0.06287 0.001313 -0.01611 0.05627
000180 b7 9d e9 a5 d6 aa 3e ac 20 a7 3d ac 4e a1 5b 28
       -0.00558 -0.02309 -0.0534 -0.0663 -0.02783 -0.0662 -0.01036 0.03403
000190 a7 25 01 28 10 aa 15 ac 89 2a 10 aa 24 2c 05 27
       0.02208 0.03128 -0.04736 -0.0638 0.05106 -0.04736 0.0647 0.02742
0001a0 c9 a9 79 29 ba 26 3a 2c c2 aa 47 a7 e3 ab 1f a9
       -0.0452 0.04276 0.02628 0.06604 -0.0528 -0.02843 -0.0616 -0.04
0001b0 3e 27 50 2c 0c 2c 5e a6 88 29 b7 20 bf a8 91 2b
       0.02829 0.0674 0.06323 -0.02487 0.0432 0.00921 -0.03708 0.0591
0001c0 06 aa 27 ac 6f ac 97 a8 89 2b de 22 71 2a 39 9c
       -0.04706 -0.0649 -0.0693 -0.03586 0.05887 0.01341 0.05032 -0.004124
0001d0 59 29 29 2c f8 28 00 aa 12 ac 57 24 ab 25 b1 24
       0.04178 0.065 0.03882 -0.04688 -0.0636 0.01695 0.02214 0.01833
0001e0 c8 aa 40 ac 15 ac 68 a6 37 a8 78 ac 7f a6 0d a7
       -0.05298 -0.0664 -0.0638 -0.02502 -0.03293 -0.0698 -0.02538 -0.02754
0001f0 2e 28 ea ab 2e 21 55 28 28 a8 58 2a e4 a8 71 2c
       0.03265 -0.06183 0.01012 0.03384 -0.03247 0.04956 -0.0382 0.0694

model/time_distributed/dense/MatMul1 f2 [64, 128]
000000 8b 1e e8 a5 86 b0 48 b0 f4 ae 00 31 3d 9a 13 af
       0.00639 -0.02307 -0.1414 -0.1338 -0.10864 0.1562 -0.003046 -0.11053
000010 ef 2f 4a af 06 ac 1c b1 95 30 dc b0 2e 2c da 30
       0.12396 -0.1139 -0.06287 -0.1597 0.1432 -0.1519 0.0653 0.1516
000020 2c 28 35 31 c8 ab c5 2d ed b0 af 30 71 aa 41 30
       0.0326 0.1627 -0.0608 0.09015 -0.1539 0.1464 -0.05032 0.1329
000030 72 ae b3 aa 30 ae f5 30 54 28 f7 2d 8d 21 c8 b0
       -0.1007 -0.05234 -0.0967 0.1549 0.0338 0.0932 0.01084 -0.1494
000040 2c ac 76 b0 dc 18 93 ad aa a8 f0 2c 0a b0 54 30
       -0.0652 -0.1394 0.002373 -0.0871 -0.03644 0.07715 -0.1262 0.1353
000050 1a 31 29 31 64 2e 33 a7 e2 af d9 b0 1d b1 bb a0
       0.1594 0.1613 0.09985 -0.02812 -0.12317 -0.1515 -0.1598 -0.00924
000060 2d ac e9 aa 03 30 de b0 23 af 87 28 dc 27 96 ac
       -0.06525 -0.054 0.1254 -0.1521 -0.1115 0.03537 0.0307 -0.07166
000070 e3 27 2b b1 28 b0 8b a9 95 a9 52 2e 3d a9 b2 ab
       0.0308 -0.1615 -0.1299 -0.0433 -0.0436 0.09875 -0.04092 -0.06012
000080 2d a2 6c b0 90 af 29 31 b4 ae ae ae 3c ad 84 a7
       -0.01206 -0.1382 -0.11816 0.1613 -0.10474 -0.1044 -0.0818 -0.02936
000090 bd b0 d3 a4 35 a8 42 aa 5a 9c 03 ad 15 ab bf 25
       -0.1481 -0.01884 -0.03287 -0.0489 -0.00425 -0.0783 -0.05533 0.02245
0000a0 52 ab 4f ac 35 b1 08 2e 31 ad f3 9e 24 ac 91 29
       -0.0572 -0.0673 -0.1627 0.09424 -0.0811 -0.006786 -0.0647 0.0435
0000b0 ae aa 96 31 3a a8 33 23 93 31 44 2d 47 31 53 b0
       -0.0522 0.1746 -0.03302 0.01406 0.1742 0.0823 0.1649 -0.1351
0000c0 83 30 ee 8c d5 30 37 2e 25 30 96 2f e1 2d 45 31
       0.141 -0.000301 0.151 0.0971 0.1295 0.1185 0.09186 0.1647
0000d0 3c 2f 06 b0 7a 31 00 2b 58 2b 3b ad a3 2f fe 2d
       0.11304 -0.1257 0.1711 0.0547 0.05737 -0.0817 0.1193 0.0936
0000e0 91 b0 25 2f 0a 2f 8e 29 9c b0 aa 30 b9 26 54 a1
       -0.1427 0.11163 0.11 0.0434 -0.144 0.1458 0.02626 -0.01041
0000f0 26 2a 0c 2d 6b b1 85 ac bd ac 8f ad f9 ad 5d ab
       0.04803 0.07886 -0.1693 -0.0706 -0.07404 -0.08685 -0.0933 -0.05753
000100 50 30 9a b0 84 2d 18 2e 05 2c 10 ae e2 a7 55 ab
       0.1348 -0.1438 0.0862 0.0952 0.0628 -0.0947 -0.03079 -0.05728
000110 96 b0 4f a5 94 ac 0c 30 00 b1 51 30 6c aa 1f a8
       -0.1433 -0.02074 -0.07153 0.1265 -0.1562 0.1349 -0.05017 -0.0322
000120 04 b1 2e af ba 2f f9 a6 09 2e cf 30 24 ac e4 2c
       -0.1567 -0.1122 0.1207 -0.02724 0.0943 0.1503 -0.0647 0.0764
000130 20 23 ec 19 1c 30 69 28 12 2c a5 b0 55 a9 cb 2d
       0.013916 0.002892 0.1284 0.03445 0.0636 -0.1451 -0.04166 0.0905
000140 11 a3 2f b1 f7 a9 d8 2f 4d ad f3 30 94 31 41 27
       -0.0138 -0.162 -0.0466 0.12256 -0.0828 0.1547 0.1743 0.02834
000150 39 31 8c ac c0 2c 8a ae 1b b0 69 ac 9a 31 9d b0
       0.1632 -0.07104 0.0742 -0.1022 -0.1283 -0.0689 0.175 -0.1442
000160 61 ac b2 2d 1d b1 2f 2b b6 2c 51 af 05 a5 e9 2f
       -0.0684 0.089 -0.1598 0.05612 0.0736 -0.1143 -0.0196 0.1236
000170 26 21 b4 27 a1 a8 73 a4 ba af a5 31 24 aa 05 2c
       0.010056 0.03009 -0.03616 -0.01738 -0.1207 0.1764 -0.04797 0.0628
000180 a1 b1 91 ac 6a 2d 36 aa 48 2a 6a ad c4 2c b9 b0
       -0.1759 -0.07135 0.0846 -0.04852 0.04907 -0.0846 0.07446 -0.1476
000190 06 af bb ad 79 2d 3f ae c8 2a e1 9c 10 30 0d 29
       -0.10974 -0.08954 0.0855 -0.0976 0.05298 -0.004765 0.127 0.03946
0001a0 ba aa 0d 30 b6 af bc af 7b 29 82 24 f3 2e 82 ad
       -0.05255 0.1266 -0.1205 -0.12085 0.04282 0.01761 0.1086 -0.08606
0001b0 13 2e 10 31 21 2f 43 2d 51 a5 4f a2 a5 30 f4 b0
       0.0949 0.1582 0.1114 0.0822 -0.02077 -0.01232 0.1451 -0.1548
0001c0 81 a9 90 2e 13 2e d7 2f e9 a8 a8 ac 6f 18 79 ae
       -0.043 0.10254 0.0949 0.1225 -0.03836 -0.07275 0.002165 -0.10114
0001d0 69 25 67 2c 64 28 cc 2f b8 27 4e 20 cf ac 98 a7
       0.02113 0.0688 0.0343 0.1218 0.03015 0.00841 -0.07513 -0.02966
0001e0 72 2e e9 30 f6 b0 75 ac e6 ad cb 2e fc 2c da 2e
       0.1007 0.1534 -0.155 -0.06964 -0.09216 0.10614 0.0779 0.10706
0001f0 bd 2a 5c 2f 02 31 09 a6 0f af 5b 9d 88 2b b5 30
       0.05264 0.115 0.1565 -0.02357 -0.1103 -0.00523 0.05884 0.1471

model/time_distributed_1/dense_1/MatMul f2 [1, 64]
000000 44 31 a6 b0 52 15 a6 33 ae b0 41 b0 c1 33 c2 b0
       0.1646 -0.1453 0.001299 0.239 -0.1462 -0.1329 0.2423 -0.1487
000010 70 21 ec b0 59 33 05 b1 c2 b4 b3 b1 e5 ad b1 28
       0.01062 -0.1538 0.2296 -0.1569 -0.2974 -0.1781 -0.0921 0.03665
000020 39 a4 7c 2f e6 2f f3 32 30 25 72 31 9c 1b 80 ad
       -0.0165 0.11694 0.1234 0.2172 0.02026 0.1702 0.003716 -0.08594
000030 a5 9b 6d af 14 32 e3 30 8e 2e 8c a9 7a b4 9d b3
       -0.003733 -0.116 0.19 0.1527 0.1024 -0.04333 -0.2798 -0.2379
000040 70 24 a5 32 fb 2a 4f 33 07 b4 9d 30 d2 2a b9 ad
       0.01733 0.2076 0.05453 0.2284 -0.2517 0.1442 0.05328 -0.0894
000050 6b b1 d1 12 f0 27 19 b1 dd 32 b4 31 c3 b1 b9 b3
       -0.1693 0.000832 0.031 -0.1593 0.2145 0.1782 -0.18 -0.2413
000060 5e 33 b2 28 a7 33 3f ad 56 af 9a 30 9d 27 d0 2b
       0.2302 0.03668 0.2391 -0.082 -0.1146 0.1438 0.02974 0.06104
000070 e5 2d a3 31 05 31 5c 28 e7 32 e2 b3 90 b3 d1 b2
       0.0921 0.1761 0.1569 0.03406 0.2157 -0.2463 -0.2363 -0.213

while/MatMul_1 f2 [192, 64]
000000 42 21 7d 27 59 ad 79 2c 76 30 d2 2b d4 9c 2f 2f
       0.01027 0.02925 -0.08356 0.0699 0.1394 0.0611 -0.004715 0.11224
000010 07 28 79 24 be 2f 6e ab 8e 26 9e 1c e1 ac e8 a8
       0.03146 0.01747 0.121 -0.05804 0.0256 0.00451 -0.07623 -0.03833
000020 9e 27 33 2c c9 2e 8b 2d 1b a9 c5 a3 f8 a9 43 29
       0.02975 0.0656 0.106 0.0866 -0.0399 -0.015175 -0.04663 0.0411
000030 78 2a a2 2b 4f a1 1a ad 42 23 c7 ab 1d a1 9f a5
       0.05054 0.05963 -0.01037 -0.0797 0.014175 -0.06076 -0.00999 -0.02196
000040 b6 ac 02 ab 9b 25 f3 a5 f7 1a cf b0 74 ad 06 ab
       -0.0736 -0.05475 0.0219 -0.02324 0.0034 -0.1503 -0.0852 -0.05487
000050 db af d5 a9 74 a7 9c ae 75 2b 6d 26 be 9d f5 2a
       -0.12274 -0.04556 -0.02911 -0.1033 0.05826 0.0251 -0.005608 0.05435
000060 29 31 32 2d 63 9a 33 2f c5 28 26 ac 4b 2d 4e ab
       0.1613 0.0812 -0.003119 0.1125 0.03726 -0.0648 0.0827 -0.05707
000070 fa 23 84 1c 72 a1 f5 ae 7a 2b 40 a8 24 ae a0 ae
       0.01558 0.00441 -0.010635 -0.1087 0.0584 -0.0332 -0.09595 -0.1035
000080 6b 30 cf a8 9a 2c b8 24 27 31 e4 1e 6d 2e 2e 2d
       0.1381 -0.03757 0.0719 0.01843 0.161 0.00673 0.1004 0.08093
000090 28 a4 8c 26 e8 a4 ba 2e c1 2c 06 aa 05 30 5b 27
       -0.01624 0.02557 -0.01917 0.1051 0.0743 -0.04706 0.1256 0.02873
0000a0 69 b0 60 a0 83 25 ad ad 0c 20 e3 a5 67 2c 0c 2f
       -0.1378 -0.008545 0.02153 -0.0887 0.007904 -0.023 0.0688 0.1101
0000b0 18 24 2d ab aa 2d ce ac 3c ab 88 2b 15 ac 4c a3
       0.01599 -0.05606 0.0885 -0.0751 -0.05652 0.05884 -0.0638 -0.01425
0000c0 8b a2 8a 2d b6 2d d6 2f 80 ad 82 ae de a4 0a 29
       -0.01278 0.08655 0.08923 0.12244 -0.08594 -0.1017 -0.01901 0.03937
0000d0 44 9b 32 ae 25 2b 61 2c 21 ae 50 aa 75 2a 35 b0
       -0.003548 -0.0968 0.05582 0.0684 -0.09576 -0.04932 0.05045 -0.1315
0000e0 5c a9 6c 00 c0 ab c8 29 09 b0 2c 26 b7 aa 18 a8
       -0.04187 6.44e-06 -0.06055 0.04517 -0.1261 0.02411 -0.05246 -0.03198
0000f0 29 af fc b0 8f 30 c0 29 2a 2c 93 25 6a ae f5 a0
       -0.1119 -0.1558 0.1425 0.04492 0.06506 0.02177 -0.1002 -0.00968
000100 54 26 04 2b b6 24 9f 2b 97 ac 7f a4 33 b0 eb 2d
       0.02472 0.0548 0.0184 0.05954 -0.0717 -0.01756 -0.1312 0.09247
000110 d8 a5 2b 2a 20 ad a8 b0 0e 26 98 2e e1 29 74 2e
       -0.02283 0.0482 -0.0801 -0.1455 0.02365 0.103 0.04593 0.1008
000120 11 9d 9f 2d ad ac 40 81 c9 27 45 a3 34 2b 19 27
       -0.004948 0.0878 -0.07306 -1.91e-05 0.03041 -0.0142 0.05627 0.02773
000130 8f af c6 2b 56 2e 49 25 08 ac ec 2e be ac 4f 2a
       -0.1181 0.06073 0.099 0.02065 -0.063 0.10815 -0.0741 0.0493
000140 fc 16 9a 2c 12 2d ba ac ab 22 ab af cd 27 43 2f
       0.001705 0.0719 0.0792 -0.07385 0.01302 -0.1198 0.03047 0.11346
000150 84 ac ac 24 10 ad d2 a2 3d a8 31 ab 13 2e cd 27
       -0.07056 0.01825 -0.0791 -0.01332 -0.0331 -0.05618 0.0949 0.03047
000160 3e 20 45 1b 7e 2f 0a aa 38 2d 8c 26 6e 2a eb a5
       0.008286 0.00355 0.11707 -0.04718 0.08154 0.02557 0.05023 -0.02312
000170 b6 20 3a ab 6d 2c 3b 2d 39 ae 7c 8b 66 21 e7 2f
       0.0092 -0.05646 0.06915 0.0817 -0.0972 -0.0002284 0.010544 0.1235
000180 44 ac af 2a 4c 9d d3 2c db 2f 5b 2c b9 b0 74 2d
       -0.06665 0.05222 -0.005173 0.0754 0.12274 0.06805 -0.1476 0.0852
000190 e4 8e 2b 2c 1e 28 c8 29 36 a5 7d 26 ae 29 29 9c
       -0.0004206 0.0651 0.03217 0.04517 -0.02036 0.02534 0.04437 -0.004063
0001a0 b7 8e 84 b1 58 20 8e 1e 9e 1d 2d a0 43 30 db 28
       -0.0004098 -0.1724 0.008484 0.0064 0.005486 -0.008156 0.1332 0.03793
0001b0 6f 1f 38 2e d1 2e b5 aa a1 ad e4 aa bf b0 d5 9e
       0.00726 0.09717 0.1065 -0.0524 -0.08795 -0.05383 -0.1483 -0.00667
0001c0 c3 2d 3d a8 a7 a8 39 2b fd a6 03 a5 97 2a 82 29
       0.09 -0.0331 -0.03635 0.05643 -0.0273 -0.01958 0.05148 0.04303
0001d0 75 30 ce 29 7f 28 4e 29 37 a7 24 af c4 2a 38 a9
       0.1393 0.04535 0.03513 0.04144 -0.02818 -0.1116 0.05286 -0.04077
0001e0 fd 24 33 af dc aa 61 2e b0 ac 10 2c 1b 28 2e 24
       0.01949 -0.1125 -0.0536 0.0997 -0.07324 0.0635 0.03207 0.01633
0001f0 1d 20 d5 2d b3 a0 03 32 5b 24 b9 32 d4 1d 88 2a
       0.00803 0.0911 -0.00918 0.1879 0.01701 0.2101 0.00569 0.05103

while/MatMul f2 [192, 64]
000000 06 2f db 9d 6e a7 2a ab 30 30 c3 af 78 ac c7 2f
       0.10974 -0.00572 -0.02902 -0.05597 0.1309 -0.1213 -0.0698 0.1215
000010 0f ad 53 9d a0 2e 24 28 2c 30 5b 30 27 30 43 ac
       -0.07904 -0.0052 0.1035 0.03235 0.1304 0.1361 0.1298 -0.0666
000020 7b af 3f 29 ec ad cf b0 3d af a0 29 28 29 13 2d
       -0.1169 0.041 -0.0925 -0.1503 -0.1131 0.04395 0.04028 0.0793
000030 07 9d 4d a2 d4 27 92 ab 30 2f 54 b0 dc 29 d5 2f
       -0.00491 -0.01231 0.03058 -0.05914 0.1123 -0.1353 0.04578 0.1224
000040 30 b0 31 aa e5 2e 2f b0 c2 ad b9 b0 70 27 7b 2f
       -0.1309 -0.04837 0.1077 -0.1307 -0.08997 -0.1476 0.02905 0.1169
000050 e4 2f ec 2d 5b 29 55 30 c8 2e 87 2a 78 ae dc 2f
       0.1233 0.0925 0.04184 0.1354 0.10596 0.051 -0.1011 0.1228
000060 ce 2c 28 27 5a 2c b1 27 1e 2f 65 2d ba 2a 22 a9
       0.0751 0.02795 0.068 0.03004 0.1112 0.0843 0.05255 -0.0401
000070 6e 20 a6 ad 98 26 31 ac 80 2f 9b af 78 b0 7d ae
       0.00865 -0.08826 0.02576 -0.0655 0.1172 -0.11884 -0.1396 -0.1014
000080 b4 2d d6 22 47 ae 9e 2a a8 2e e0 28 de ac 81 30
       0.0891 0.01335 -0.0981 0.0517 0.104 0.0381 -0.07605 0.1407
000090 c2 ae e4 2d 9d 2c b1 30 21 9d 1a b0 5d 24 32 ad
       -0.1056 0.09204 0.0721 0.1466 -0.00501 -0.1282 0.01704 -0.0812
0000a0 57 aa 79 2c b7 b0 57 2b 4f 2c 20 ad f7 28 bd ac
       -0.04953 0.0699 -0.1473 0.05734 0.0673 -0.0801 0.0388 -0.07404
0000b0 15 2e 81 ae 99 2f d4 ad 95 af 5f af 48 30 63 2c
       0.09503 -0.1016 0.1187 -0.09106 -0.11847 -0.1152 0.1338 0.06854
0000c0 4b 2c db a9 b4 ac 9e 2c 28 af 0f b0 95 2f a1 ad
       0.0671 -0.04575 -0.0735 0.07214 -0.1118 -0.1268 0.11847 -0.08795
0000d0 2a ac 43 ae 65 a5 67 a5 92 a8 1d 22 f2 2c 38 9d
       -0.06506 -0.09784 -0.02107 -0.0211 -0.0357 0.01194 0.0773 -0.005096
0000e0 0e ac f6 22 68 2d d5 2c ed 2f 83 2f c7 2d 44 30
       -0.06335 0.013596 0.0845 0.0755 0.12384 0.1174 0.0903 0.1333
0000f0 52 24 92 27 12 b0 a9 a4 9f b0 31 b0 0a 21 11 ae
       0.01688 0.02957 -0.1272 -0.0182 -0.1444 -0.131 0.00984 -0.0948
000100 ba 30 1c 2b cc ad 10 30 71 2e 88 2c 7c 2e 64 2f
       0.1477 0.05554 -0.0906 0.127 0.10065 0.0708 0.1013 0.1155
000110 ce 2c 95 a4 18 2a 74 30 90 24 35 ae d6 2f c8 a1
       0.0751 -0.0179 0.0476 0.1392 0.01782 -0.097 0.12244 -0.01129
000120 85 27 24 a9 28 2f 99 a4 fd a9 90 ac 2b ae e2 30
       0.02937 -0.04016 0.1118 -0.01796 -0.04678 -0.0713 -0.0964 0.1526
000130 e4 ac 76 ac af 30 df a7 01 2d 33 2c bf ad 9c 27
       -0.0764 -0.0697 0.1464 -0.03075 0.0782 0.0656 -0.0898 0.02972
000140 6b b0 31 2f e2 2e 2b 21 ed 9a 2f ac f5 af ea 2e
       -0.1381 0.11237 0.10754 0.01009 -0.003382 -0.06537 -0.1243 0.10803
000150 a4 2f 18 30 d4 30 39 2d a5 30 62 22 b9 2d 92 ac
       0.1194 0.1279 0.1509 0.0816 0.1451 0.01247 0.0894 -0.0714
000160 4c ab 9a a8 37 b0 f4 2d 05 30 92 ad 26 a8 b7 b0
       -0.057 -0.03595 -0.1317 0.093 0.1256 -0.08704 -0.0324 -0.1473
000170 a2 30 e7 ae ba ae 7a 2d 4c 9f 36 30 0c af 3a 30
       0.1448 -0.10785 -0.1051 0.0856 -0.007126 0.1316 -0.1101 0.1321
000180 1a b0 d4 ac ad ab dd b0 fc 2c 29 af 76 30 55 ac
       -0.1282 -0.07544 -0.05997 -0.152 0.0779 -0.1119 0.1394 -0.0677
000190 fd 2f ae 2c 3e ae da 2a 63 b0 bc b0 2b a7 e0 b0
       0.1248 0.0731 -0.09753 0.05353 -0.1371 -0.148 -0.028 -0.1523
0001a0 78 af 94 ae 6e b0 eb ae c5 ab 94 b0 bf af 11 ab
       -0.1167 -0.1028 -0.1384 -0.1081 -0.0607 -0.1431 -0.12103 -0.0552
0001b0 16 aa 25 af 35 2f 4b 2c cb 9c fc 2e d5 a5 4a 22
       -0.04755 -0.11163 0.1126 0.0671 -0.00468 0.10913 -0.02278 0.01228
0001c0 41 30 10 2c 46 2e 16 a8 5d 2f 9a 2e b9 2c f7 0c
       0.1329 0.0635 0.098 -0.03192 0.11505 0.10315 0.0738 0.000303
0001d0 8a 30 1f 27 45 28 a6 ad ef 2f 4b ac bd b0 11 b0
       0.1418 0.02782 0.03336 -0.08826 0.12396 -0.0671 -0.1481 -0.1271
0001e0 28 ac d6 aa 1f a0 c4 b0 2e 2e 30 30 fa aa d0 af
       -0.06494 -0.0534 -0.00805 -0.1489 0.09656 0.1309 -0.0545 -0.1221
0001f0 2a b0 a0 ad 4c 30 15 2d 5e 30 78 b0 36 1c 20 28
       -0.1301 -0.0879 0.1343 0.0794 0.1365 -0.1396 0.004112 0.03223

while/MatMul_12 f2 [192, 64]
000000 cc 29 53 b0 a1 28 bc a8 ed 32 32 a8 5a ac 9e ad
       0.0453 -0.1351 0.03616 -0.037 0.2164 -0.03278 -0.068 -0.08777
000010 bc ac 4c ab 35 a7 f4 2c d8 20 23 a2 90 ab 41 ad
       -0.074 -0.057 -0.02815 0.0774 0.00946 -0.011986 -0.05908 -0.0821
000020 c0 a7 1e 29 7d 28 64 a7 1c a9 43 ae 8f 26 3c 30
       -0.03027 0.03998 0.03506 -0.02887 -0.03992 -0.09784 0.02562 0.1323
000030 60 ae 8f 1e 81 ab 8f a4 80 aa 1c 30 2a a7 95 a8
       -0.0996 0.006405 -0.05862 -0.0178 -0.05078 0.1284 -0.02798 -0.0358
000040 87 19 4d 2d 80 2c f4 a4 12 2c 0f 28 ce 9f 14 ac
       0.002699 0.0828 0.0703 -0.01935 0.0636 0.0317 -0.00762 -0.0637
000050 d6 af 5e ac f2 ae 15 2a 88 2c 27 a9 65 ae 09 b0
       -0.12244 -0.06824 -0.1085 0.04752 0.0708 -0.04025 -0.0999 -0.1261
000060 c8 95 8e ae 3e 1e 73 a9 15 2f 9b ab 74 2b 21 2c
       -0.001411 -0.1024 0.006096 -0.04257 0.11066 -0.05942 0.05823 0.0645
000070 6e ad 07 2c ef a2 00 ac e1 a5 cd a2 d9 2f 3a 25
       -0.08484 0.0629 -0.01354 -0.0625 -0.02296 -0.01328 0.1226 0.02042
000080 7b 26 65 b0 eb af c4 2c a3 ad 68 2a d1 2f 05 25
       0.02531 -0.1373 -0.1237 0.07446 -0.0881 0.05005 0.12213 0.0196
000090 57 ac d6 1b c0 a5 7f b0 f5 a9 2d a3 93 93 ee a3
       -0.0678 0.003826 -0.02246 -0.1405 -0.04654 -0.014015 -0.0009246 -0.01549
0000a0 bd 2e f1 a4 6c 29 51 af 49 aa 60 a1 09 2c 9b aa
       0.1053 -0.0193 0.04236 -0.1143 -0.0491 -0.0105 0.06305 -0.0516
0000b0 5e a3 d7 27 8a ac 27 2a 80 a6 47 a8 33 2d fa 2f
       -0.01439 0.03062 -0.0709 0.04807 -0.02539 -0.03342 0.08124 0.12463
0000c0 83 ac 9c 2c 06 2c 0b a1 29 a6 ad a8 16 aa 6b 2b
       -0.0705 0.072 0.06287 -0.00985 -0.02406 -0.03653 -0.04755 0.05795
0000d0 e7 21 c9 26 49 ac b7 a2 b2 2d 84 af 4a a2 d4 2e
       0.01153 0.0265 -0.06696 -0.013115 0.089 -0.11743 -0.01228 0.1067
0000e0 ee 2d af ae 68 a0 e2 28 64 2d a4 ac c1 25 65 2e
       0.09265 -0.10443 -0.008606 0.03815 0.0842 -0.0725 0.02248 0.0999
0000f0 3a a6 3f 2f 42 a4 4a a8 8e a9 26 31 da 1d 5b 8c
       -0.02432 0.1132 -0.01663 -0.0335 -0.0434 0.1609 0.005714 -0.0002658
000100 ee a4 17 ab 1d 30 91 af 1e a8 cd aa 5a a5 d7 a8
       -0.01926 -0.0554 0.1285 -0.1182 -0.03217 -0.05313 -0.0209 -0.0378
000110 ce 20 1c 29 90 2d 1e 2d 57 08 ad ac c9 ad ef 8a
       0.009384 0.03992 0.0869 0.07996 0.0001324 -0.07306 -0.0904 -0.0002116
000120 f7 2c 78 1a 8d 2f 35 a6 6a a1 0c b0 1f ae 46 29
       0.0776 0.003159 0.118 -0.02425 -0.010574 -0.1265 -0.09564 0.0412
000130 88 28 71 ad 4c 2a e0 20 3d a6 f0 24 18 9f a1 ad
       0.0354 -0.085 0.0492 0.00952 -0.02437 0.01929 -0.006927 -0.08795
000140 60 2d 61 28 5c 2b 39 24 5a ad a2 1d 49 ab c4 a6
       0.084 0.0342 0.0575 0.0165 -0.0836 0.0055 -0.05692 -0.02643
000150 b9 24 59 a0 07 27 cd aa 90 b1 cb ab 35 ac 72 2e
       0.01845 -0.00849 0.02745 -0.05313 -0.1738 -0.06088 -0.06573 0.1007
000160 65 a9 33 a8 93 aa 62 af d0 a8 00 b0 23 ac 03 2b
       -0.04214 -0.0328 -0.05136 -0.11536 -0.0376 -0.125 -0.06464 0.05478
000170 c9 30 3e 27 07 2d 47 a8 f4 2b 69 20 c6 29 ca 9e
       0.1495 0.02829 0.07855 -0.03342 0.06213 0.00861 0.0451 -0.00663
000180 d5 1a 54 28 84 ab 32 28 2c ac fc 2f 8c aa 16 a9
       0.003336 0.0338 -0.05872 0.03278 -0.0652 0.12476 -0.05115 -0.03973
000190 76 2c 7d a9 83 a7 13 b1 ba 96 d9 30 cc 2b 64 20
       0.0697 -0.04288 -0.02934 -0.1586 -0.001642 0.1515 0.0609 0.008575
0001a0 d0 a9 5f a0 dc 24 5b a8 5a ac b5 af 8e 2d 3d 31
       -0.0454 -0.00854 0.01898 -0.03403 -0.068 -0.1204 0.0868 0.1637
0001b0 aa 2a 1b a9 9c 24 ac 2d 59 20 d3 a5 89 a8 d4 29
       0.05206 -0.0399 0.018 0.0886 0.00849 -0.02275 -0.03543 0.04553
0001c0 b4 a6 b5 27 7a 2c 4e ad ad 21 64 23 1f 2c de a9
       -0.02618 0.0301 0.06995 -0.0829 0.011086 0.014435 0.0644 -0.04584
0001d0 fe a7 af ad 65 ac c7 b1 32 2c 04 31 3e ae 8f ac
       -0.03122 -0.0888 -0.06866 -0.1805 0.06555 0.1567 -0.09753 -0.0712
0001e0 24 1f 0b 26 fd ad 5e ac 24 2c 2a 22 a1 0b 3f a1
       0.006973 0.0236 -0.09357 -0.06824 0.0647 0.01204 0.0002328 -0.01025
0001f0 1a 21 51 25 61 a8 9d 22 56 a8 aa 29 48 aa ce a8
       0.009964 0.02077 -0.0342 0.01292 -0.03387 0.04425 -0.04907 -0.03754

while/MatMul2 f2 [192, 64]
000000 90 30 a6 a8 72 a4 3a aa bc af 1c af 15 26 39 27
       0.1426 -0.03632 -0.01736 -0.04865 -0.12085 -0.1111 0.02376 0.02821
000010 b6 ae 68 2d d1 27 05 30 0a a0 48 ac 7e aa 9a 28
       -0.10486 0.0845 0.03053 0.1256 -0.00789 -0.0669 -0.05072 0.03595
000020 43 2f d3 a0 c7 15 6c af 5c ac bd 28 95 28 8c af
       0.11346 -0.00942 0.0014105 -0.11597 -0.0681 0.03702 0.0358 -0.1179
000030 79 a2 38 ad d0 30 a3 2d e0 ae 96 24 0f ae d9 26
       -0.01264 -0.08154 0.1504 0.0881 -0.1074 0.01791 -0.09467 0.02675
000040 66 2f d2 a8 9f ad 0d 2a 02 2e b3 b0 0a a6 cd 2e
       0.1156 -0.03766 -0.0878 0.04727 0.0939 -0.1469 -0.02359 0.10626
000050 e4 24 66 2f 6a ad b5 29 85 ad 55 28 03 30 a0 25
       0.0191 0.1156 -0.0846 0.0446 -0.08624 0.03384 0.1254 0.02197
000060 8f 30 e1 30 8a a9 16 a5 59 a5 3a aa 2f 2e 84 30
       0.1425 0.1525 -0.04327 -0.01987 -0.02089 -0.04865 0.0966 0.1411
000070 ca af d5 ad bd 2f 2b 2d cd 2c 52 b0 df ae 1f 2b
       -0.1217 -0.0911 0.1209 0.08075 0.075 -0.135 -0.10736 0.05563
000080 1d ad 07 2c e9 2e f5 af 47 ad 48 a4 ca ac 0f a4
       -0.0799 0.0629 0.108 -0.1243 -0.08246 -0.01672 -0.0748 -0.01585
000090 16 28 71 29 cb 9c fe 2f 8b 28 af 29 df 2d b4 b0
       0.03192 0.0425 -0.00468 0.1249 0.0355 0.0444 0.09174 -0.147
0000a0 5a 2a 7c a9 11 28 51 ad 53 2c e8 2e 1f 30 0a ac
       0.04962 -0.04285 0.03177 -0.08307 0.06757 0.1079 0.1288 -0.0631
0000b0 14 2a d1 30 fd a4 c9 28 71 af 8d aa cd 2d 89 20
       0.0475 0.1505 -0.01949 0.03738 -0.1163 -0.05118 0.09064 0.00886
0000c0 26 ab 51 ae b3 ad dc 30 16 aa d6 ac bd b0 aa 2c
       -0.05585 -0.0987 -0.08905 0.1519 -0.04755 -0.07556 -0.1481 0.0729
0000d0 3a 26 50 ab 68 a6 83 29 b5 af 02 9e 6b ae cd ac
       0.02432 -0.05713 -0.02502 0.04306 -0.1204 -0.005867 -0.1003 -0.075
0000e0 00 a8 e4 b0 b9 21 82 25 60 25 ef 2c 43 ae 8a 2d
       -0.03125 -0.1528 0.01118 0.02151 0.021 0.0771 -0.09784 0.08655
0000f0 24 af 9b 2c 71 2e 76 ae 21 aa f8 28 82 2d c6 2e
       -0.1116 0.07196 0.10065 -0.10095 -0.04788 0.03882 0.08606 0.10583
000100 b2 30 a0 99 5d a5 12 20 71 2a 38 af c0 ad 65 b0
       0.1467 -0.002747 -0.02095 0.00795 0.05032 -0.1128 -0.08984 -0.1373
000110 41 ab 34 ad d3 2c 63 26 39 af ae ae 02 2b 48 2e
       -0.05667 -0.0813 0.0754 0.02495 -0.11285 -0.1044 0.05475 0.09814
000120 98 30 cc af 73 b0 a6 1e 37 ac 08 9f 0b 2a 7e 2d
       0.1436 -0.1218 -0.139 0.006493 -0.06586 -0.006866 0.0472 0.0858
000130 d7 21 05 af eb 26 a1 9c 56 a8 29 ae c9 30 00 1c
       0.011406 -0.1097 0.02702 -0.00452 -0.03387 -0.09625 0.1495 0.003906
000140 48 30 63 b0 54 ad bb 2c 52 ac fa ae 03 30 0f 20
       0.1338 -0.1371 -0.08325 0.0739 -0.0675 -0.109 0.1254 0.00793
000150 d8 ae 51 30 b5 ae bb b0 5c af ef 27 7c 25 c0 30
       -0.10693 0.1349 -0.1048 -0.1478 -0.115 0.03099 0.02142 0.1484
000160 d7 2b 7a aa a2 a1 6e ae 72 2e 23 28 16 2d 04 2d
       0.06125 -0.0506 -0.011 -0.10046 0.1007 0.03232 0.07947 0.07837
000170 c4 2d 51 b0 0e 2f b4 29 97 2e 2f 2c 4f af 3e 24
       0.0901 -0.1349 0.1102 0.04456 0.10297 0.06537 -0.1142 0.01657
000180 a9 aa 4d ac 2b 30 3d ae c1 ad a5 2c 2e 2e d7 28
       -0.05203 -0.0672 0.1302 -0.0975 -0.0899 0.0726 0.09656 0.0378
000190 6e ae e3 2e 49 30 7b 2f 4c ac 05 b0 7b 30 a2 23
       -0.10046 0.1076 0.1339 0.1169 -0.06714 -0.1256 0.14 0.01491
0001a0 f6 ad 23 30 2f 17 26 ad 6b ae 0b 2a 69 88 90 2d
       -0.09314 0.1293 0.001754 -0.08044 -0.1003 0.0472 -0.0001346 0.0869
0001b0 33 ad ce 2c 94 ac 95 2d f7 af 7c 2e 8d ad c1 ae
       -0.08124 0.0751 -0.07153 0.0872 -0.12445 0.1013 -0.08673 -0.1055
0001c0 c2 ae 49 28 c1 2a 64 2c 5d 30 37 b0 2f ac d1 b0
       -0.1056 0.03348 0.05276 0.0686 0.1364 -0.1317 -0.06537 -0.1505
0001d0 94 b0 28 2f d4 a8 f0 2e b8 ac 41 ad b6 27 a5 ae
       -0.1431 0.1118 -0.03772 0.1084 -0.0737 -0.0821 0.03012 -0.1038
0001e0 65 a0 e7 29 d3 30 82 ac d2 28 9c 24 6d 2c ab b0
       -0.00858 0.0461 0.1508 -0.07043 0.03766 0.018 0.06915 -0.1459
0001f0 04 2f b2 a8 2c 2e da 2c 1b 30 aa 30 23 af f8 a5
       0.1096 -0.03668 0.09644 0.0758 0.1283 0.1458 -0.1115 -0.02332
