python_quantization/cnn_rnn/tflite_models/microfaune_model_dynamic.tflite (tflite, 356504 bytes, 17 tensors)

model/time_distributed_1/dense_1/MatMul f4 [1, 64]
0	0xbe944dad	-0.28965512
1	0x3caa4350	0.02078405
2	0xbdf43826	-0.11924772
3	0xbe9580cb	-0.29199824
4	0xbbfea100	-0.0077706575
5	0xbe8ee2cc	-0.27907407
6	0xbda414c4	-0.08011773
7	0xbdf2ba96	-0.11851995
8	0xbdd8acb6	-0.10579817
9	0xbdd54c86	-0.10414986
10	0x3d260e60	0.040541053
11	0x3e405ad4	0.18784648
12	0xbde0894c	-0.10963687
13	0x3df54d44	0.11977628
14	0xbc3f67c0	-0.011682451
15	0xbe207410	-0.15669274
16	0x3e35632c	0.17713612
17	0x3e8ce0f6	0.27515382
18	0x3e742cfc	0.23845285
19	0x3e5a23d4	0.2130273
20	0x3e004b62	0.12528756
21	0xbe902e9e	-0.28160566
22	0x3e4806b8	0.19533813
23	0xbe85f219	-0.26161268
24	0x3cd297d0	0.025707155
25	0xbe4bbf6c	-0.1989724
26	0xbdc9c044	-0.09851125
27	0xbd94f01e	-0.07272361
28	0x3cfed670	0.031108111
29	0xbe4fc186	-0.20288667
30	0xbdd469cc	-0.10371742
31	0x3dc936e4	0.09824923
32	0x3e150cde	0.1455569
33	0xbe1e8c33	-0.1548317
34	0x3e8a103a	0.26965505
35	0x3e7ae008	0.24499524
36	0xbd774a48	-0.060373574
37	0xbdee97ea	-0.11650069
38	0x3df2b008	0.118499815
39	0xbc8fc320	-0.017549098
40	0x3e77be20	0.2419362
41	0xbe15ed11	-0.14641215
42	0xbdd977bc	-0.10618541
43	0x3d4fadf0	0.05070299
44	0x3de3daf8	0.11125749
45	0xbe15d736	-0.14632878
46	0xbd82e354	-0.06391016
47	0xbe64d25d	-0.22345872
48	0x3d6bfac8	0.05761221
49	0x3dde5acc	0.10857162
50	0x3d5fe790	0.054664195
51	0x3d2c6528	0.042088658
52	0x3df8b5c4	0.12144044
53	0x3e97ebf2	0.296722
54	0xbe82db3e	-0.25557894
55	0xbe6634f6	-0.2248114
56	0xbc4b7960	-0.012419075
57	0x3d6cf3d8	0.057849735
58	0x3d74dde0	0.05978191
59	0xbe358e95	-0.17730172
60	0x3e45df90	0.19323564
61	0xbe51e9c2	-0.20499328
62	0x3e2dd57c	0.16975969
63	0x3e742538	0.23842323

model/batch_normalization_1/FusedBatchNormV3/ReadVariableOp f4 [64]
0	0x00000000	0.0
1	0x00000000	0.0
2	0x00000000	0.0
3	0x00000000	0.0
4	0x00000000	0.0
5	0x00000000	0.0
6	0x00000000	0.0
7	0x00000000	0.0
8	0x00000000	0.0
9	0x00000000	0.0
10	0x00000000	0.0
11	0x00000000	0.0
12	0x00000000	0.0
13	0x00000000	0.0
14	0x00000000	0.0
15	0x00000000	0.0
16	0x00000000	0.0
17	0x00000000	0.0
18	0x00000000	0.0
19	0x00000000	0.0
20	0x00000000	0.0
21	0x00000000	0.0
22	0x00000000	0.0
23	0x00000000	0.0
24	0x00000000	0.0
25	0x00000000	0.0
26	0x00000000	0.0
27	0x00000000	0.0
28	0x00000000	0.0
29	0x00000000	0.0
30	0x00000000	0.0
31	0x00000000	0.0
32	0x00000000	0.0
33	0x00000000	0.0
34	0x00000000	0.0
35	0x00000000	0.0
36	0x00000000	0.0
37	0x00000000	0.0
38	0x00000000	0.0
39	0x00000000	0.0
40	0x00000000	0.0
41	0x00000000	0.0
42	0x00000000	0.0
43	0x00000000	0.0
44	0x00000000	0.0
45	0x00000000	0.0
46	0x00000000	0.0
47	0x00000000	0.0
48	0x00000000	0.0
49	0x00000000	0.0
50	0x00000000	0.0
51	0x00000000	0.0
52	0x00000000	0.0
53	0x00000000	0.0
54	0x00000000	0.0
55	0x00000000	0.0
56	0x00000000	0.0
57	0x00000000	0.0
58	0x00000000	0.0
59	0x00000000	0.0
60	0x00000000	0.0
61	0x00000000	0.0
62	0x00000000	0.0
63	0x00000000	0.0

model/conv2d/Conv2D f4 [64, 3, 3, 1]
0	0xbcee3600	-0.029078484
1	0x3c8b89b8	0.017033443
2	0xbcce136c	-0.025155745
3	0x3db31d42	0.08745815
4	0xbc152382	-0.009102704
5	0x3d978a4f	0.07399427
6	0x3d8ba3e1	0.06818367
7	0x3db017cd	0.0859829
8	0xbd9bfa7b	-0.07616135
9	0xbda8ebe6	-0.08248119
10	0x3aedf44c	0.0018154471
11	0x3dab6f1f	0.08370804
12	0x3d312dd3	0.043256592
13	0x3cf659f9	0.0300722
14	0x3c9ffbfb	0.019529333
15	0x3db84195	0.08996884
16	0x3dafe0c2	0.08587791
17	0xbc4bcf2b	-0.012439529
18	0xbce248f2	-0.027622674
19	0xbd786962	-0.060647376
20	0x3d5330c5	0.051560182
21	0x3daabdd8	0.08336991
22	0xbd88a22e	-0.06671558
23	0x3d2a637e	0.04159879
24	0x3d21a0b5	0.039459903
25	0x3da1d658	0.07902211
26	0x3d0794da	0.03310094
27	0xb956109b	-0.00020414816
28	0xbd1d9222	-0.03846944
29	0xbd968e7b	-0.07351395
30	0xbbdc1146	-0.0067159263
31	0xbda2a90e	-0.07942401
32	0x3d7871fc	0.06065558
33	0x3dc0a874	0.0940713
34	0xb980e881	-0.0002458729
35	0xbd6429d0	-0.055703938
36	0x3d6ec6a5	0.05829491
37	0x3c09ccbd	0.00841063
38	0x3ceb5252	0.028725777
39	0x3d79b277	0.060961213
40	0xbdbc8309	-0.092046805
41	0x3d1366ff	0.035986897
42	0xbd023c21	-0.031795625
43	0x3d946dcf	0.07247507
44	0xbc31d2de	-0.010853497
45	0x3dabf614	0.08396545
46	0x3d26a109	0.04068092
47	0xbc95ce08	-0.01828672
48	0x3d8468a8	0.06465274
49	0xbd441c93	-0.047878813
50	0xbce835b0	-0.028345913
51	0x3dbb4aaa	0.091451004
52	0xbd8add2a	-0.06780465
53	0xbc8cfaad	-0.017209375
54	0x3cb52bb8	0.022115573
55	0xbd315905	-0.043297786
56	0xbda2f11d	-0.07956145
57	0x3c9f03ba	0.019410957
58	0x3dcaeed7	0.09908836
59	0xbd14b6a0	-0.036306977
60	0x3dc823a5	0.09772424
61	0xbd0d8b45	-0.034556646
62	0xbdb99dd1	-0.09063304
63	0xbd2f961e	-0.042867772
64	0xbce8ea5d	-0.028432066
65	0x3a32db1c	0.0006822811
66	0xbbf76337	-0.007549669
67	0xbd37ca5b	-0.044870716
68	0xbd69562b	-0.05696694
69	0x3cbec62e	0.023287859
70	0xbdc8a100	-0.09796333
71	0x3dcba780	0.099440575
72	0x3dbb585c	0.091477126
73	0xbc948d01	-0.018133642
74	0xbcc78393	-0.024354732
75	0x39b650ab	0.00034773847
76	0xbcd7d759	-0.026347803
77	0xbcf8a54a	-0.030352253
78	0xbda42e79	-0.080166765
79	0x3da0b822	0.078476205
80	0xbd8aa55e	-0.067698225
81	0xbd671d65	-0.056424517
82	0xbd24e408	-0.04025653
83	0xbda36e8e	-0.07980071
84	0x3dc94daf	0.0982927
85	0x3d3bb07f	0.045822617
86	0xbd9d0399	-0.07666702
87	0x3d2ea41a	0.04263697
88	0x3dae7b6e	0.08519636
89	0x3d6e4cb1	0.058178607
90	0x3cb19112	0.02167562
91	0xbd41fef4	-0.047362283
92	0x3ca14309	0.019685285
93	0xb94d33bd	-0.00019569597
94	0x3d905c46	0.0704885
95	0x3d769af9	0.060206387
96	0xbb9d46ff	-0.004799723
97	0xbcbd129e	-0.023080166
98	0xba9229cb	-0.0011151371
99	0xbcb3a0bf	-0.021927236
100	0x3c1db949	0.009626695
101	0xbd1a1d29	-0.037625466
102	0x3da03343	0.078222774
103	0x3d7a5edd	0.061125625
104	0xbd8508be	-0.06495808
105	0xbc19c832	-0.009386109
106	0x3d3e2b0e	0.04642778
107	0xbd744009	-0.05963138
108	0xbdc820d0	-0.097718835
109	0xbdc5a3b3	-0.09650364
110	0x3d792a15	0.06083115
111	0xbd14bc25	-0.03631224
112	0x3c994e5d	0.018714124
113	0x3d2721a8	0.04080358
114	0xbd0ee726	-0.03488841
115	0xbd252785	-0.040320892
116	0x3caad4e3	0.020853465
117	0xbd3127b9	-0.043250773
118	0x3d1a8f8c	0.037734553
119	0x3c8215d2	0.015879545
120	0x3d9b47c9	0.07582051
121	0xbc859a5b	-0.016308954
122	0x3c5cac3a	0.013468796
123	0xbd92a322	-0.07160021
124	0x3d0946b2	0.033514686
125	0x3d83be5a	0.06432791
126	0x3c6923b2	0.014229702
127	0xbcabca68	-0.020970538
128	0xbc63d008	-0.013904579
129	0x3cbd01c4	0.023072131
130	0x3c202ad9	0.009775841
131	0xbced9b3b	-0.029004684
132	0xbdad7535	-0.08469621
133	0xbd60f028	-0.05491653
134	0x3d85d38c	0.0653449
135	0xbd765ec4	-0.06014897
136	0x3d9ebdf5	0.07751075
137	0xbca744e8	-0.0204186
138	0x3dcc61c2	0.09979583
139	0xbbc4cde0	-0.0060059875
140	0x3ba9d913	0.005183348
141	0xbc8bb2eb	-0.017053088
142	0xbd5b43f5	-0.053531606
143	0x3bad8a1a	0.005296004
144	0xbdc46bfc	-0.09590909
145	0xbd89b051	-0.06723083
146	0x3c0ef025	0.008724247
147	0x3d5099d6	0.05092796
148	0xbd0047fd	-0.031318653
149	0xbdbad78c	-0.091231436
150	0x3d101da6	0.035184525
151	0x3d431529	0.0476276
152	0x3d18e3ef	0.03732675
153	0x3d975923	0.07390048
154	0xbd2d4b06	-0.042307876
155	0xbca7a478	-0.020464167
156	0xbdc11b3d	-0.094290234
157	0x3d893eb2	0.06701411
158	0x3bf86e35	0.007581497
159	0xbd1883fd	-0.03723525
160	0xbce6c6ff	-0.02817106
161	0x3d9db152	0.07699837
162	0x3d97abf9	0.07405848
163	0xbcf0c0ec	-0.029388867
164	0xbc0cf126	-0.008602416
165	0xbd905f2f	-0.07049405
166	0xbd82dec6	-0.06390147
167	0x3d3b4f8b	0.045730155
168	0xbd0d918c	-0.034562632
169	0xbc9796e6	-0.018504571
170	0xbdb33f59	-0.08752317
171	0xbdaec686	-0.08533959
172	0xbd3b7d86	-0.045774005
173	0xbc183d04	-0.009291891
174	0x3d9e93a5	0.07743005
175	0x3cc295c9	0.023753064
176	0x3d0001b2	0.031251617
177	0x3d4525cd	0.048131753
178	0xbc69e9d0	-0.014276937
179	0x3c515356	0.0127762165
180	0x3c9f32b0	0.01943335
181	0x3aad770d	0.0013234332
182	0xbbf94e18	-0.0076081865
183	0xbd546431	-0.051853362
184	0x3c860a29	0.016362267
185	0x3d056735	0.03256913
186	0x3d8b1411	0.06790937
187	0x3d6a8bd8	0.05726227
188	0x3cd7851b	0.026308587
189	0xbd692085	-0.05691578
190	0x3d93ccf4	0.07216826
191	0x3ccd213f	0.025040267
192	0xbda70931	-0.0815605
193	0x3d7bebbe	0.06150412
194	0x3db7e5c5	0.08979372
195	0x3d6f65e5	0.058446784
196	0x3cf1bb08	0.029508129
197	0xbcb83904	-0.022488125
198	0xbcac8748	-0.0210606
199	0x3c601d99	0.013678932
200	0x3cc25349	0.023721354
201	0xbd8762f2	-0.06610669
202	0xbcd40951	-0.025883349
203	0xbc064231	-0.008194492
204	0xbdcbd343	-0.09952404
205	0xbd538a75	-0.051645715
206	0x3ba300b4	0.004974449
207	0x3ccf2dfc	0.025290482
208	0xbd609908	-0.054833442
209	0x3c7f6069	0.015586951
210	0xbd347e75	-0.04406591
211	0x3cb8d6f8	0.022563443
212	0x3da7abd1	0.08187068
213	0xbbb8cb1a	-0.005639446
214	0xbdbe30ce	-0.092866525
215	0x3dcf0db0	0.101100326
216	0x3d51b789	0.051200423
217	0x3d6be26c	0.05758898
218	0xbc54ab90	-0.012980357
219	0xbd1c69ed	-0.038186956
220	0xbd9df1ea	-0.07712157
221	0xbcd873ad	-0.026422346
222	0x3d585efb	0.052824955
223	0xbda3e0e9	-0.080018826
224	0xbc2f5d8f	-0.010703458
225	0x3c0741f9	0.008255475
226	0xbd8d46fb	-0.06898304
227	0x3dc69b41	0.09697581
228	0x3c701b5e	0.014654962
229	0x3db16cb1	0.08663309
230	0x3da58d86	0.08083634
231	0xbd9e7e39	-0.07738919
232	0xbd7d47d9	-0.061836097
233	0xbdbe96fa	-0.0930614
234	0xbb6417af	-0.0034804156
235	0x3b8b23e1	0.0042462205
236	0x3b683a88	0.0035435278
237	0xbd22138c	-0.039569423
238	0x3db7ab33	0.089682005
239	0xbd088d20	-0.033337712
240	0x3d421ee8	0.047392756
241	0x3dbb3575	0.091410555
242	0xbd84e0d0	-0.06488192
243	0x3db5ebec	0.08882889
244	0xbccec70d	-0.0252414
245	0x3db4ab1f	0.08821701
246	0xbd21b25f	-0.03947675
247	0x3c02b516	0.007977745
248	0x3db67ec9	0.08910901
249	0xbd4cc8c8	-0.049996167
250	0x3dba6c02	0.09102632
251	0x3d1567d9	0.03647599
252	0xbdc3b57a	-0.09556098
253	0x3da55f72	0.080748454
254	0xbd430799	-0.047614668
255	0xbd49fcf4	-0.0493135

model/conv2d_1/Conv2D i1 [64, 3, 3, 64]
0	0x2c	44
1	0xc8	-56
2	0xf2	-14
3	0x02	2
4	0x1e	30
5	0xbe	-66
6	0x85	-123
7	0x40	64
8	0x59	89
9	0x7a	122
10	0x94	-108
11	0xab	-85
12	0x39	57
13	0x5a	90
14	0xf9	-7
15	0x46	70
16	0x5c	92
17	0xd7	-41
18	0xa4	-92
19	0x40	64
20	0xb8	-72
21	0x87	-121
22	0x8a	-118
23	0xda	-38
24	0x9d	-99
25	0xf8	-8
26	0x69	105
27	0x31	49
28	0xe7	-25
29	0xaa	-86
30	0x1b	27
31	0x47	71
32	0x75	117
33	0xbd	-67
34	0xdf	-33
35	0x26	38
36	0x47	71
37	0x79	121
38	0x23	35
39	0xe9	-23
40	0x4f	79
41	0xe8	-24
42	0x44	68
43	0x72	114
44	0x29	41
45	0x83	-125
46	0x62	98
47	0x7d	125
48	0xcd	-51
49	0x40	64
50	0x1c	28
51	0xb1	-79
52	0x16	22
53	0x25	37
54	0x04	4
55	0x00	0
56	0x40	64
57	0xa0	-96
58	0xb2	-78
59	0xdb	-37
60	0xc2	-62
61	0xcb	-53
62	0x35	53
63	0x81	-127
64	0xc6	-58
65	0x87	-121
66	0x8b	-117
67	0x94	-108
68	0xff	-1
69	0xa1	-95
70	0x76	118
71	0x18	24
72	0x28	40
73	0xa7	-89
74	0x0a	10
75	0x8c	-116
76	0xe2	-30
77	0x71	113
78	0xb0	-80
79	0xb2	-78
80	0xd4	-44
81	0xf2	-14
82	0x82	-126
83	0xbc	-68
84	0xda	-38
85	0x3b	59
86	0xb2	-78
87	0x20	32
88	0xd2	-46
89	0x74	116
90	0x7c	124
91	0xad	-83
92	0x7d	125
93	0xf6	-10
94	0xff	-1
95	0xb4	-76
96	0x6c	108
97	0x37	55
98	0xd9	-39
99	0x6b	107
100	0xd8	-40
101	0x6b	107
102	0xf8	-8
103	0x7d	125
104	0xea	-22
105	0x61	97
106	0x1f	31
107	0xbf	-65
108	0x32	50
109	0xf0	-16
110	0x5c	92
111	0x2a	42
112	0xdc	-36
113	0x8a	-118
114	0x09	9
115	0x94	-108
116	0xe2	-30
117	0x79	121
118	0xfb	-5
119	0xe3	-29
120	0x23	35
121	0x40	64
122	0x32	50
123	0xee	-18
124	0x3b	59
125	0x8d	-115
126	0x95	-107
127	0x93	-109
128	0x61	97
129	0x33	51
130	0xfe	-2
131	0xae	-82
132	0x2c	44
133	0x4b	75
134	0x8f	-113
135	0x8d	-115
136	0x7e	126
137	0xc2	-62
138	0x91	-111
139	0x73	115
140	0x0d	13
141	0x48	72
142	0xef	-17
143	0xf6	-10
144	0x65	101
145	0xf0	-16
146	0x3d	61
147	0x65	101
148	0xb0	-80
149	0x85	-123
150	0xd9	-39
151	0xcf	-49
152	0x0b	11
153	0x43	67
154	0x5c	92
155	0xa0	-96
156	0xe6	-26
157	0xf1	-15
158	0xf0	-16
159	0x2c	44
160	0x30	48
161	0x49	73
162	0xc2	-62
163	0x13	19
164	0xe7	-25
165	0x44	68
166	0xde	-34
167	0xf2	-14
168	0x06	6
169	0x96	-106
170	0x83	-125
171	0x3e	62
172	0x3a	58
173	0x41	65
174	0xce	-50
175	0x6e	110
176	0xbe	-66
177	0xf2	-14
178	0x07	7
179	0xf8	-8
180	0x2a	42
181	0x08	8
182	0xbf	-65
183	0x4e	78
184	0x48	72
185	0x2e	46
186	0xe4	-28
187	0x8e	-114
188	0xea	-22
189	0xac	-84
190	0x36	54
191	0xfd	-3
192	0x74	116
193	0x79	121
194	0x04	4
195	0x61	97
196	0x95	-107
197	0x2d	45
198	0x56	86
199	0xaf	-81
200	0x4c	76
201	0xfc	-4
202	0xc9	-55
203	0xd1	-47
204	0x97	-105
205	0xe0	-32
206	0x0b	11
207	0x02	2
208	0x12	18
209	0x10	16
210	0xaa	-86
211	0x9c	-100
212	0xe1	-31
213	0xe5	-27
214	0xfb	-5
215	0x18	24
216	0x66	102
217	0xea	-22
218	0xae	-82
219	0xf6	-10
220	0x50	80
221	0x93	-109
222	0xb6	-74
223	0x3b	59
224	0x73	115
225	0x7e	126
226	0x1f	31
227	0xb2	-78
228	0xb0	-80
229	0x58	88
230	0x61	97
231	0x21	33
232	0xc8	-56
233	0x86	-122
234	0x05	5
235	0x58	88
236	0x29	41
237	0x0b	11
238	0x7c	124
239	0xd9	-39
240	0x1b	27
241	0x43	67
242	0x31	49
243	0x57	87
244	0xc7	-57
245	0x83	-125
246	0xbc	-68
247	0x75	117
248	0x9e	-98
249	0xb5	-75
250	0xfc	-4
251	0x28	40
252	0xc1	-63
253	0x24	36
254	0x75	117
255	0x4f	79

model/conv2d_2/Conv2D i1 [64, 3, 3, 64]
0	0xf8	-8
1	0x55	85
2	0x28	40
3	0xa9	-87
4	0xe3	-29
5	0x2b	43
6	0xeb	-21
7	0x68	104
8	0x91	-111
9	0x5e	94
10	0xe5	-27
11	0x45	69
12	0x4d	77
13	0x65	101
14	0x7f	127
15	0xac	-84
16	0xbc	-68
17	0x56	86
18	0x3b	59
19	0x86	-122
20	0x33	51
21	0xba	-70
22	0x44	68
23	0xe7	-25
24	0x8c	-116
25	0x3b	59
26	0xd1	-47
27	0xac	-84
28	0x9b	-101
29	0xf4	-12
30	0xfd	-3
31	0xd1	-47
32	0xa1	-95
33	0x08	8
34	0xfb	-5
35	0xef	-17
36	0x67	103
37	0x4e	78
38	0x51	81
39	0x08	8
40	0xaf	-81
41	0xd6	-42
42	0xca	-54
43	0xf8	-8
44	0x4d	77
45	0xa0	-96
46	0xf8	-8
47	0xba	-70
48	0x6d	109
49	0xbe	-66
50	0x7f	127
51	0xef	-17
52	0x41	65
53	0xb4	-76
54	0x8f	-113
55	0xd0	-48
56	0xf0	-16
57	0x7e	126
58	0x4a	74
59	0x48	72
60	0xb9	-71
61	0xb1	-79
62	0x28	40
63	0x18	24
64	0x2f	47
65	0x7f	127
66	0xf7	-9
67	0xfc	-4
68	0xb8	-72
69	0x35	53
70	0xab	-85
71	0xe0	-32
72	0x9f	-97
73	0x03	3
74	0xb9	-71
75	0x12	18
76	0x01	1
77	0x11	17
78	0x62	98
79	0xbb	-69
80	0x3e	62
81	0x90	-112
82	0x3f	63
83	0x9c	-100
84	0xe9	-23
85	0x85	-123
86	0xa6	-90
87	0xb9	-71
88	0xf1	-15
89	0xd1	-47
90	0xca	-54
91	0x00	0
92	0xed	-19
93	0xb1	-79
94	0x64	100
95	0x8a	-118
96	0x13	19
97	0x34	52
98	0x96	-106
99	0x3d	61
100	0xbd	-67
101	0x0c	12
102	0x1c	28
103	0x35	53
104	0x54	84
105	0x30	48
106	0x60	96
107	0xb4	-76
108	0xdd	-35
109	0x00	0
110	0xdc	-36
111	0x15	21
112	0xa6	-90
113	0x3e	62
114	0xcd	-51
115	0xf8	-8
116	0x68	104
117	0x19	25
118	0x2f	47
119	0xbe	-66
120	0x17	23
121	0x0e	14
122	0xf9	-7
123	0x11	17
124	0xf4	-12
125	0xec	-20
126	0x9a	-102
127	0xbe	-66
128	0x45	69
129	0x9d	-99
130	0x8a	-118
131	0xa9	-87
132	0x14	20
133	0xd8	-40
134	0xf4	-12
135	0x1c	28
136	0x08	8
137	0xa8	-88
138	0x64	100
139	0x54	84
140	0x56	86
141	0xde	-34
142	0x2a	42
143	0x6a	106
144	0x51	81
145	0x36	54
146	0x5d	93
147	0xcf	-49
148	0xec	-20
149	0xe1	-31
150	0x26	38
151	0xc3	-61
152	0xf8	-8
153	0xb3	-77
154	0x44	68
155	0x5b	91
156	0x59	89
157	0x30	48
158	0x88	-120
159	0xbe	-66
160	0xd6	-42
161	0xd6	-42
162	0x05	5
163	0x96	-106
164	0xdc	-36
165	0xb1	-79
166	0x0a	10
167	0xb9	-71
168	0x5d	93
169	0xdb	-37
170	0x82	-126
171	0x6f	111
172	0x16	22
173	0xb4	-76
174	0xd5	-43
175	0x1c	28
176	0x17	23
177	0xc9	-55
178	0x63	99
179	0x69	105
180	0xe2	-30
181	0xdd	-35
182	0x4b	75
183	0xf7	-9
184	0x14	20
185	0xc9	-55
186	0xf8	-8
187	0xaf	-81
188	0xef	-17
189	0x3d	61
190	0xbf	-65
191	0xdc	-36
192	0x9a	-102
193	0x5f	95
194	0x51	81
195	0x1c	28
196	0x9b	-101
197	0x59	89
198	0x59	89
199	0x12	18
200	0xd0	-48
201	0x34	52
202	0x1f	31
203	0x76	118
204	0x96	-106
205	0x3d	61
206	0xf7	-9
207	0xe5	-27
208	0x26	38
209	0xf6	-10
210	0x14	20
211	0x71	113
212	0xef	-17
213	0x9a	-102
214	0x48	72
215	0xfe	-2
216	0xcd	-51
217	0x92	-110
218	0x4c	76
219	0x95	-107
220	0x92	-110
221	0x44	68
222	0x03	3
223	0x62	98
224	0x52	82
225	0xfa	-6
226	0xe2	-30
227	0x0a	10
228	0x75	117
229	0xba	-70
230	0x2e	46
231	0x4f	79
232	0x18	24
233	0x78	120
234	0x93	-109
235	0x93	-109
236	0x20	32
237	0x04	4
238	0x84	-124
239	0x54	84
240	0xe4	-28
241	0x27	39
242	0xcb	-53
243	0xfe	-2
244	0x23	35
245	0x9f	-97
246	0x22	34
247	0x6c	108
248	0xa9	-87
249	0xda	-38
250	0x2f	47
251	0xc1	-63
252	0x99	-103
253	0x1e	30
254	0x44	68
255	0xfd	-3

model/conv2d_3/Conv2D i1 [64, 3, 3, 64]
0	0x92	-110
1	0xce	-50
2	0x75	117
3	0xa4	-92
4	0x0a	10
5	0x76	118
6	0xaa	-86
7	0x0d	13
8	0x47	71
9	0x76	118
10	0x78	120
11	0xf2	-14
12	0x4a	74
13	0x39	57
14	0xc8	-56
15	0x36	54
16	0x88	-120
17	0xbd	-67
18	0xea	-22
19	0x93	-109
20	0xd2	-46
21	0x27	39
22	0x66	102
23	0x6d	109
24	0x0a	10
25	0xfc	-4
26	0x04	4
27	0xe5	-27
28	0x14	20
29	0xbd	-67
30	0x61	97
31	0x6b	107
32	0xea	-22
33	0x0a	10
34	0x3a	58
35	0x4c	76
36	0x52	82
37	0xca	-54
38	0xc8	-56
39	0x61	97
40	0xfb	-5
41	0xd0	-48
42	0x2b	43
43	0x20	32
44	0x56	86
45	0x34	52
46	0x85	-123
47	0x9f	-97
48	0x01	1
49	0x4f	79
50	0x43	67
51	0x31	49
52	0x5e	94
53	0xf5	-11
54	0x84	-124
55	0xde	-34
56	0x01	1
57	0x08	8
58	0x7a	122
59	0x08	8
60	0x3f	63
61	0x89	-119
62	0xec	-20
63	0xe4	-28
64	0xe9	-23
65	0x23	35
66	0x44	68
67	0x1a	26
68	0x5d	93
69	0x59	89
70	0x49	73
71	0x85	-123
72	0xfe	-2
73	0x07	7
74	0x47	71
75	0xd5	-43
76	0xc3	-61
77	0xec	-20
78	0xa2	-94
79	0x1d	29
80	0x03	3
81	0x99	-103
82	0x5d	93
83	0xaa	-86
84	0x96	-106
85	0x85	-123
86	0x8a	-118
87	0x7d	125
88	0x60	96
89	0x2b	43
90	0x4b	75
91	0x08	8
92	0xf0	-16
93	0x3a	58
94	0x84	-124
95	0x73	115
96	0x0a	10
97	0x84	-124
98	0x88	-120
99	0xa7	-89
100	0x1b	27
101	0x0a	10
102	0xd8	-40
103	0x32	50
104	0x18	24
105	0x3f	63
106	0xde	-34
107	0x64	100
108	0x25	37
109	0x1d	29
110	0xc4	-60
111	0x00	0
112	0xf3	-13
113	0x4a	74
114	0xbd	-67
115	0x8c	-116
116	0xc5	-59
117	0xb6	-74
118	0xce	-50
119	0x42	66
120	0xc0	-64
121	0x21	33
122	0x57	87
123	0xf2	-14
124	0x29	41
125	0xac	-84
126	0xa4	-92
127	0xd1	-47
128	0x2f	47
129	0xa9	-87
130	0x0f	15
131	0x97	-105
132	0x0c	12
133	0xb7	-73
134	0x91	-111
135	0x87	-121
136	0xc5	-59
137	0x2c	44
138	0xd5	-43
139	0x8e	-114
140	0xa1	-95
141	0x3d	61
142	0x78	120
143	0x07	7
144	0xfe	-2
145	0xc2	-62
146	0xca	-54
147	0xe4	-28
148	0x88	-120
149	0x17	23
150	0xb3	-77
151	0x8d	-115
152	0x5c	92
153	0x22	34
154	0x60	96
155	0x5e	94
156	0x7e	126
157	0xaf	-81
158	0x26	38
159	0x66	102
160	0x12	18
161	0x58	88
162	0xa3	-93
163	0x66	102
164	0xb4	-76
165	0xf8	-8
166	0xa6	-90
167	0xea	-22
168	0xbf	-65
169	0x83	-125
170	0x93	-109
171	0x92	-110
172	0xd5	-43
173	0x43	67
174	0x32	50
175	0x59	89
176	0xcc	-52
177	0x5f	95
178	0x94	-108
179	0xee	-18
180	0x75	117
181	0x1a	26
182	0x2d	45
183	0xf2	-14
184	0xb8	-72
185	0x78	120
186	0x33	51
187	0x66	102
188	0xde	-34
189	0xd5	-43
190	0x0e	14
191	0x64	100
192	0x72	114
193	0xb5	-75
194	0x1c	28
195	0xf1	-15
196	0x17	23
197	0xe3	-29
198	0x24	36
199	0x4f	79
200	0x71	113
201	0x99	-103
202	0x6d	109
203	0xb3	-77
204	0x65	101
205	0x43	67
206	0x02	2
207	0x1b	27
208	0x37	55
209	0x21	33
210	0x06	6
211	0x3c	60
212	0xed	-19
213	0xf0	-16
214	0x9d	-99
215	0x64	100
216	0x93	-109
217	0xf7	-9
218	0x21	33
219	0x1a	26
220	0x2e	46
221	0x08	8
222	0xed	-19
223	0x34	52
224	0xc2	-62
225	0x68	104
226	0x7e	126
227	0x8e	-114
228	0x3d	61
229	0x7e	126
230	0xfe	-2
231	0x0e	14
232	0xee	-18
233	0x31	49
234	0x2a	42
235	0x89	-119
236	0x2f	47
237	0x5c	92
238	0x74	116
239	0x46	70
240	0x54	84
241	0x5e	94
242	0xf0	-16
243	0x46	70
244	0x24	36
245	0x1a	26
246	0x6c	108
247	0x29	41
248	0x71	113
249	0x6f	111
250	0x53	83
251	0x0b	11
252	0xdf	-33
253	0x1a	26
254	0x6d	109
255	0xe8	-24

model/conv2d_4/Conv2D i1 [64, 3, 3, 64]
0	0x81	-127
1	0xb6	-74
2	0x18	24
3	0xcb	-53
4	0x5e	94
5	0x04	4
6	0x2e	46
7	0xd2	-46
8	0xcc	-52
9	0xfe	-2
10	0xd2	-46
11	0x6a	106
12	0xe8	-24
13	0xce	-50
14	0x1b	27
15	0x57	87
16	0x0d	13
17	0x13	19
18	0x89	-119
19	0xdf	-33
20	0x62	98
21	0xa3	-93
22	0x79	121
23	0xf6	-10
24	0x24	36
25	0x72	114
26	0x48	72
27	0x67	103
28	0x24	36
29	0xbf	-65
30	0x28	40
31	0x33	51
32	0x5c	92
33	0x9e	-98
34	0x17	23
35	0x19	25
36	0xc1	-63
37	0xe9	-23
38	0x92	-110
39	0x28	40
40	0xdb	-37
41	0xa2	-94
42	0xfd	-3
43	0x5d	93
44	0x98	-104
45	0xf4	-12
46	0x7e	126
47	0xf2	-14
48	0xaf	-81
49	0xf3	-13
50	0xb6	-74
51	0xe1	-31
52	0x5f	95
53	0xba	-70
54	0x30	48
55	0x99	-103
56	0xdb	-37
57	0x70	112
58	0xd5	-43
59	0x19	25
60	0x07	7
61	0x21	33
62	0x75	117
63	0xc3	-61
64	0x54	84
65	0x88	-120
66	0x08	8
67	0xa1	-95
68	0x31	49
69	0x57	87
70	0x2a	42
71	0xe9	-23
72	0xcf	-49
73	0xc2	-62
74	0xdf	-33
75	0x54	84
76	0xd9	-39
77	0xc4	-60
78	0x85	-123
79	0xd3	-45
80	0x7c	124
81	0x56	86
82	0xa6	-90
83	0x10	16
84	0x57	87
85	0x72	114
86	0x57	87
87	0x00	0
88	0x35	53
89	0x2a	42
90	0xac	-84
91	0x09	9
92	0x4a	74
93	0xba	-70
94	0xe3	-29
95	0xd7	-41
96	0x44	68
97	0x6b	107
98	0xa3	-93
99	0x05	5
100	0x0e	14
101	0x7a	122
102	0x19	25
103	0x20	32
104	0xa8	-88
105	0xcd	-51
106	0x02	2
107	0xb5	-75
108	0xfd	-3
109	0x64	100
110	0xd8	-40
111	0xaa	-86
112	0x99	-103
113	0xf2	-14
114	0xdf	-33
115	0xa6	-90
116	0xa3	-93
117	0x06	6
118	0x2f	47
119	0xe1	-31
120	0x37	55
121	0x0d	13
122	0x44	68
123	0x67	103
124	0x57	87
125	0x5e	94
126	0xa3	-93
127	0xce	-50
128	0xcb	-53
129	0x7e	126
130	0x38	56
131	0xf5	-11
132	0x00	0
133	0x9d	-99
134	0x83	-125
135	0x1f	31
136	0x97	-105
137	0xd5	-43
138	0x2f	47
139	0xa1	-95
140	0xc0	-64
141	0x1d	29
142	0x53	83
143	0xc5	-59
144	0x9c	-100
145	0xa9	-87
146	0x17	23
147	0x2a	42
148	0xae	-82
149	0x20	32
150	0x10	16
151	0xe9	-23
152	0xf4	-12
153	0x5f	95
154	0xb1	-79
155	0xcc	-52
156	0x8a	-118
157	0xb6	-74
158	0x1f	31
159	0x33	51
160	0x84	-124
161	0x22	34
162	0x8b	-117
163	0x68	104
164	0x6f	111
165	0x12	18
166	0x5d	93
167	0xdb	-37
168	0xb6	-74
169	0x5b	91
170	0xcd	-51
171	0x27	39
172	0x93	-109
173	0x8a	-118
174	0x36	54
175	0xb1	-79
176	0xc0	-64
177	0x14	20
178	0xf7	-9
179	0x27	39
180	0x04	4
181	0xb9	-71
182	0x7b	123
183	0x11	17
184	0x22	34
185	0x16	22
186	0x55	85
187	0x82	-126
188	0x49	73
189	0xfa	-6
190	0xdb	-37
191	0xe7	-25
192	0xac	-84
193	0x81	-127
194	0x20	32
195	0x7d	125
196	0xd5	-43
197	0x59	89
198	0x62	98
199	0xc8	-56
200	0xd8	-40
201	0xdc	-36
202	0x1a	26
203	0xbf	-65
204	0x45	69
205	0x4b	75
206	0xfa	-6
207	0x0c	12
208	0x8b	-117
209	0xd1	-47
210	0x79	121
211	0x9c	-100
212	0xe2	-30
213	0x6a	106
214	0xeb	-21
215	0xb1	-79
216	0xd8	-40
217	0x9d	-99
218	0x76	118
219	0x29	41
220	0xce	-50
221	0xb1	-79
222	0x28	40
223	0xc4	-60
224	0x60	96
225	0xd5	-43
226	0x86	-122
227	0x65	101
228	0x8e	-114
229	0x83	-125
230	0xa7	-89
231	0x23	35
232	0x69	105
233	0xce	-50
234	0xd3	-45
235	0x90	-112
236	0xa1	-95
237	0xac	-84
238	0x07	7
239	0x5e	94
240	0x26	38
241	0xcf	-49
242	0xdf	-33
243	0x4f	79
244	0x63	99
245	0xde	-34
246	0x8d	-115
247	0x24	36
248	0x8b	-117
249	0x4c	76
250	0xe3	-29
251	0x00	0
252	0x04	4
253	0xed	-19
254	0x95	-107
255	0x98	-104

model/conv2d_5/Conv2D i1 [64, 3, 3, 64]
0	0x83	-125
1	0x17	23
2	0x65	101
3	0xaf	-81
4	0x70	112
5	0x92	-110
6	0x52	82
7	0xf6	-10
8	0x93	-109
9	0xa0	-96
10	0x94	-108
11	0x66	102
12	0x18	24
13	0x3c	60
14	0x4f	79
15	0xde	-34
16	0x49	73
17	0x14	20
18	0xd4	-44
19	0x51	81
20	0xd8	-40
21	0xbc	-68
22	0x3c	60
23	0x84	-124
24	0x69	105
25	0xbc	-68
26	0x6d	109
27	0x2f	47
28	0x94	-108
29	0xb6	-74
30	0xfc	-4
31	0x90	-112
32	0x55	85
33	0x05	5
34	0x2e	46
35	0x12	18
36	0xd6	-42
37	0x70	112
38	0xec	-20
39	0x20	32
40	0xec	-20
41	0xbd	-67
42	0x51	81
43	0x12	18
44	0x29	41
45	0x09	9
46	0x02	2
47	0x39	57
48	0x58	88
49	0x7f	127
50	0x17	23
51	0x2e	46
52	0x39	57
53	0x12	18
54	0xd8	-40
55	0x34	52
56	0xfd	-3
57	0x29	41
58	0xdf	-33
59	0xce	-50
60	0xd1	-47
61	0x05	5
62	0x15	21
63	0x97	-105
64	0x52	82
65	0x5a	90
66	0xde	-34
67	0xa8	-88
68	0xa1	-95
69	0x2a	42
70	0xdc	-36
71	0x55	85
72	0x0f	15
73	0xc9	-55
74	0x6c	108
75	0x4b	75
76	0xe5	-27
77	0xb7	-73
78	0xcc	-52
79	0x34	52
80	0x19	25
81	0xa5	-91
82	0x0a	10
83	0xee	-18
84	0x67	103
85	0x12	18
86	0xf8	-8
87	0x77	119
88	0x28	40
89	0x03	3
90	0x3d	61
91	0x99	-103
92	0x70	112
93	0x67	103
94	0x53	83
95	0x04	4
96	0xa0	-96
97	0xee	-18
98	0x40	64
99	0x2d	45
100	0xa6	-90
101	0x6b	107
102	0xc1	-63
103	0xd2	-46
104	0x21	33
105	0x64	100
106	0x13	19
107	0x0f	15
108	0x4c	76
109	0x0a	10
110	0x27	39
111	0x23	35
112	0xf6	-10
113	0x96	-106
114	0xce	-50
115	0x3d	61
116	0xf9	-7
117	0xcd	-51
118	0x36	54
119	0xc7	-57
120	0x75	117
121	0xf3	-13
122	0x0a	10
123	0x0b	11
124	0x9c	-100
125	0xa3	-93
126	0x8e	-114
127	0xcc	-52
128	0xb8	-72
129	0x07	7
130	0x5c	92
131	0x2f	47
132	0xe8	-24
133	0x21	33
134	0xd6	-42
135	0xec	-20
136	0x1b	27
137	0x26	38
138	0xc2	-62
139	0x75	117
140	0xea	-22
141	0xda	-38
142	0xd3	-45
143	0x10	16
144	0x66	102
145	0x14	20
146	0x3e	62
147	0x65	101
148	0x29	41
149	0xa3	-93
150	0x65	101
151	0x2a	42
152	0x02	2
153	0x3a	58
154	0x3d	61
155	0xd6	-42
156	0x33	51
157	0x7d	125
158	0x17	23
159	0x18	24
160	0x7f	127
161	0x28	40
162	0x77	119
163	0x1e	30
164	0xc5	-59
165	0xaf	-81
166	0x6b	107
167	0x1b	27
168	0x91	-111
169	0xb9	-71
170	0x60	96
171	0xaf	-81
172	0xec	-20
173	0x48	72
174	0x92	-110
175	0x2d	45
176	0xe3	-29
177	0x6c	108
178	0xad	-83
179	0x3a	58
180	0x73	115
181	0x0e	14
182	0x39	57
183	0x56	86
184	0x9e	-98
185	0x7f	127
186	0xc3	-61
187	0xca	-54
188	0x69	105
189	0xef	-17
190	0x3c	60
191	0xbe	-66
192	0xee	-18
193	0x57	87
194	0xd8	-40
195	0x3a	58
196	0x07	7
197	0x1d	29
198	0x14	20
199	0xd6	-42
200	0x3b	59
201	0x12	18
202	0xf0	-16
203	0x52	82
204	0x37	55
205	0xbc	-68
206	0xd2	-46
207	0x15	21
208	0x10	16
209	0x12	18
210	0xdf	-33
211	0x40	64
212	0x16	22
213	0xb9	-71
214	0x2c	44
215	0x9e	-98
216	0x32	50
217	0xef	-17
218	0xed	-19
219	0xd9	-39
220	0x10	16
221	0x1f	31
222	0xc8	-56
223	0x72	114
224	0xc3	-61
225	0xeb	-21
226	0x73	115
227	0xab	-85
228	0x92	-110
229	0x7b	123
230	0x2a	42
231	0x13	19
232	0xed	-19
233	0x5e	94
234	0x8d	-115
235	0x64	100
236	0xc2	-62
237	0xb5	-75
238	0x89	-119
239	0x31	49
240	0xed	-19
241	0xa4	-92
242	0x30	48
243	0x8a	-118
244	0xe8	-24
245	0x77	119
246	0xc5	-59
247	0x27	39
248	0xeb	-21
249	0xc9	-55
250	0xd2	-46
251	0x76	118
252	0xff	-1
253	0x8c	-116
254	0x7c	124
255	0x94	-108

model/time_distributed/dense/MatMul1 i1 [64, 128] scale=0.0013914006 zero_point=0
0	0xb9	-0.09878944
1	0x44	0.094615236
2	0x0f	0.02087101
3	0xd1	-0.065395825
4	0xaf	-0.11270345
5	0x1b	0.037567817
6	0xb5	-0.104355045
7	0xb3	-0.107137844
8	0x18	0.033393614
9	0x9d	-0.13774866
10	0xc5	-0.082092635
11	0x23	0.04869902
12	0x03	0.0041742017
13	0xf6	-0.013914006
14	0x47	0.09878944
15	0x72	0.15861967
16	0x96	-0.14748846
17	0x00	0.0
18	0x0e	0.019479608
19	0xa6	-0.12522605
20	0x0c	0.016696807
21	0x4b	0.104355045
22	0x94	-0.15027127
23	0x9d	-0.13774866
24	0x7c	0.17253368
25	0x97	-0.14609706
26	0x2c	0.061221626
27	0x79	0.16835947
28	0xf8	-0.011131205
29	0xdf	-0.04591622
30	0xdb	-0.05148182
31	0x3b	0.082092635
32	0xbe	-0.09183244
33	0x0b	0.015305406
34	0xf2	-0.019479608
35	0x87	-0.16835947
36	0x01	0.0013914006
37	0xda	-0.052873224
38	0x3a	0.08070123
39	0x17	0.032002214
40	0x4d	0.107137844
41	0xd2	-0.06400443
42	0x54	0.116877645
43	0x78	0.16696808
44	0xe9	-0.032002214
45	0x4c	0.10574645
46	0xa9	-0.12105185
47	0xd6	-0.058438823
48	0x6e	0.15305406
49	0xa3	-0.12940025
50	0x4e	0.10852925
51	0x33	0.07096143
52	0x6d	0.15166266
53	0x9a	-0.14192286
54	0x3e	0.08626684
55	0xd6	-0.058438823
56	0x96	-0.14748846
57	0x29	0.057047423
58	0x4a	0.10296364
59	0x94	-0.15027127
60	0xd1	-0.065395825
61	0xc7	-0.079309836
62	0x0e	0.019479608
63	0xf1	-0.02087101
64	0xab	-0.11826905
65	0x8c	-0.16140246
66	0x0b	0.015305406
67	0x24	0.05009042
68	0x28	0.055656023
69	0x7d	0.17392507
70	0xe5	-0.037567817
71	0xac	-0.116877645
72	0xe2	-0.04174202
73	0x22	0.047307618
74	0x8a	-0.16418527
75	0x35	0.07374423
76	0x9c	-0.13914005
77	0xa5	-0.12661745
78	0x1d	0.040350616
79	0x9e	-0.13635726
80	0x29	0.057047423
81	0x52	0.114094846
82	0xcf	-0.06817863
83	0x22	0.047307618
84	0x63	0.13774866
85	0x1e	0.04174202
86	0xea	-0.030610813
87	0x16	0.030610813
88	0x54	0.116877645
89	0x17	0.032002214
90	0xa6	-0.12522605
91	0x0a	0.013914006
92	0xc9	-0.07652703
93	0x0c	0.016696807
94	0xa5	-0.12661745
95	0xb6	-0.10296364
96	0x7a	0.16975087
97	0x4a	0.10296364
98	0x96	-0.14748846
99	0x86	-0.16975087
100	0x1f	0.04313342
101	0x7c	0.17253368
102	0xcf	-0.06817863
103	0xb9	-0.09878944
104	0x61	0.13496585
105	0x1b	0.037567817
106	0x0e	0.019479608
107	0xdb	-0.05148182
108	0x93	-0.15166266
109	0x83	-0.17392507
110	0xba	-0.09739804
111	0xc3	-0.084875435
112	0x43	0.09322384
113	0xc8	-0.07791843
114	0x20	0.04452482
115	0xea	-0.030610813
116	0x5d	0.12940025
117	0xc8	-0.07791843
118	0xde	-0.047307618
119	0x2a	0.058438823
120	0xa9	-0.12105185
121	0x1d	0.040350616
122	0xbf	-0.09044104
123	0x5e	0.13079165
124	0xa8	-0.12244325
125	0x2b	0.059830226
126	0x59	0.123834655
127	0x03	0.0041742017
128	0xad	-0.11548625
129	0xae	-0.114094846
130	0x0b	0.015305406
131	0x50	0.11131205
132	0x3e	0.08626684
133	0xdb	-0.05148182
134	0xe0	-0.04452482
135	0xf7	-0.012522605
136	0x5b	0.12661745
137	0x0c	0.016696807
138	0x97	-0.14609706
139	0xc4	-0.08348404
140	0x9e	-0.13635726
141	0x22	0.047307618
142	0x55	0.11826905
143	0x71	0.15722826
144	0x08	0.011131205
145	0xbb	-0.09600664
146	0x69	0.14609706
147	0x13	0.026436612
148	0x5c	0.12800886
149	0x02	0.0027828012
150	0x6c	0.15027127
151	0xdb	-0.05148182
152	0x14	0.027828012
153	0xeb	-0.029219411
154	0x2a	0.058438823
155	0x0d	0.018088207
156	0x13	0.026436612
157	0x6f	0.15444547
158	0xa2	-0.13079165
159	0x27	0.054264624
160	0xb9	-0.09878944
161	0x97	-0.14609706
162	0xa4	-0.12800886
163	0xc2	-0.08626684
164	0x3f	0.087658234
165	0xf0	-0.02226241
166	0xb2	-0.10852925
167	0x6d	0.15166266
168	0xc9	-0.07652703
169	0xc1	-0.087658234
170	0xc1	-0.087658234
171	0x82	-0.17531647
172	0x78	0.16696808
173	0x2e	0.06400443
174	0x0a	0.013914006
175	0xe8	-0.033393614
176	0xaf	-0.11270345
177	0x43	0.09322384
178	0x24	0.05009042
179	0x08	0.011131205
180	0xa7	-0.123834655
181	0x7e	0.17531647
182	0x72	0.15861967
183	0xdd	-0.04869902
184	0x33	0.07096143
185	0xdb	-0.05148182
186	0x8b	-0.16279387
187	0x40	0.08904964
188	0xa5	-0.12661745
189	0x5b	0.12661745
190	0xb4	-0.10574645
191	0x1b	0.037567817
192	0x72	0.15861967
193	0x8d	-0.16001107
194	0x72	0.15861967
195	0x26	0.052873224
196	0x3f	0.087658234
197	0xf8	-0.011131205
198	0x5f	0.13218306
199	0xb5	-0.104355045
200	0xfc	-0.0055656023
201	0x8c	-0.16140246
202	0xbf	-0.09044104
203	0x52	0.114094846
204	0xc6	-0.08070123
205	0x2b	0.059830226
206	0xc4	-0.08348404
207	0xb0	-0.11131205
208	0x13	0.026436612
209	0xfd	-0.0041742017
210	0xa0	-0.13357446
211	0x0d	0.018088207
212	0xb2	-0.10852925
213	0x1b	0.037567817
214	0xda	-0.052873224
215	0xe2	-0.04174202
216	0x46	0.09739804
217	0x90	-0.15583687
218	0x71	0.15722826
219	0x31	0.06817863
220	0x76	0.16418527
221	0x75	0.16279387
222	0x75	0.16279387
223	0xe9	-0.032002214
224	0xb3	-0.107137844
225	0x12	0.02504521
226	0x29	0.057047423
227	0x98	-0.14470565
228	0x03	0.0041742017
229	0x69	0.14609706
230	0x40	0.08904964
231	0x43	0.09322384
232	0xbb	-0.09600664
233	0x6c	0.15027127
234	0x62	0.13635726
235	0xc2	-0.08626684
236	0xdf	-0.04591622
237	0x71	0.15722826
238	0x41	0.09044104
239	0x9e	-0.13635726
240	0xba	-0.09739804
241	0xfb	-0.006957003
242	0x56	0.11966045
243	0x45	0.09600664
244	0x89	-0.16557667
245	0x73	0.16001107
246	0xa9	-0.12105185
247	0xf3	-0.018088207
248	0x40	0.08904964
249	0xbc	-0.094615236
250	0xd2	-0.06400443
251	0xd1	-0.065395825
252	0x82	-0.17531647
253	0x42	0.09183244
254	0x15	0.029219411
255	0x3d	0.084875435

while/MatMul_1 i1 [192, 64] scale=0.0020096065 zero_point=0
0	0xb2	-0.15674931
1	0x15	0.042201735
2	0x11	0.03416331
3	0x31	0.09847072
4	0xf8	-0.016076852
5	0xf8	-0.016076852
6	0xf0	-0.032153703
7	0xd2	-0.092441894
8	0x00	0.0
9	0xf6	-0.020096064
10	0x0d	0.026124883
11	0xf0	-0.032153703
12	0x1e	0.060288195
13	0xe0	-0.06430741
14	0x85	-0.2471816
15	0xec	-0.040192127
16	0x23	0.07033622
17	0x09	0.018086458
18	0xdb	-0.07435544
19	0xb6	-0.14871088
20	0xd1	-0.0944515
21	0x17	0.046220947
22	0x58	0.17684537
23	0x12	0.036172915
24	0xc2	-0.1245956
25	0xf9	-0.014067246
26	0xea	-0.044211343
27	0xfe	-0.004019213
28	0xfb	-0.010048032
29	0xef	-0.03416331
30	0x14	0.040192127
31	0xed	-0.038182523
32	0xec	-0.040192127
33	0xf7	-0.018086458
34	0x1b	0.054259375
35	0x10	0.032153703
36	0xf2	-0.028134491
37	0xf9	-0.014067246
38	0xf7	-0.018086458
39	0xe6	-0.052249767
40	0xe6	-0.052249767
41	0xff	-0.0020096065
42	0x32	0.100480326
43	0xf7	-0.018086458
44	0x9f	-0.19493182
45	0xc5	-0.11856678
46	0xf9	-0.014067246
47	0x13	0.038182523
48	0xd5	-0.08641308
49	0xca	-0.10851875
50	0xe9	-0.046220947
51	0xec	-0.040192127
52	0xdf	-0.066317014
53	0xf5	-0.022105671
54	0x19	0.050240163
55	0xf1	-0.030144097
56	0xfd	-0.0060288194
57	0x21	0.066317014
58	0xc3	-0.122586
59	0xf5	-0.022105671
60	0xdf	-0.066317014
61	0x06	0.012057639
62	0xeb	-0.042201735
63	0xd9	-0.078374654
64	0xf9	-0.014067246
65	0x1d	0.058278587
66	0x3d	0.122586
67	0xf3	-0.026124883
68	0xdb	-0.07435544
69	0xbe	-0.13263403
70	0x09	0.018086458
71	0xcd	-0.102489926
72	0xdd	-0.07033622
73	0xf7	-0.018086458
74	0x21	0.066317014
75	0xe7	-0.050240163
76	0x24	0.07234583
77	0xe3	-0.058278587
78	0xe3	-0.058278587
79	0x1f	0.0622978
80	0xed	-0.038182523
81	0xb7	-0.14670128
82	0xfb	-0.010048032
83	0xdc	-0.07234583
84	0xa5	-0.18287419
85	0xf7	-0.018086458
86	0xdd	-0.07033622
87	0xf6	-0.020096064
88	0xfe	-0.004019213
89	0xee	-0.036172915
90	0xff	-0.0020096065
91	0x09	0.018086458
92	0xfe	-0.004019213
93	0x0c	0.024115277
94	0x06	0.012057639
95	0xc0	-0.12861481
96	0xec	-0.040192127
97	0xe7	-0.050240163
98	0xc7	-0.114547566
99	0x2b	0.08641308
100	0xfa	-0.012057639
101	0x34	0.104499534
102	0x11	0.03416331
103	0xd9	-0.078374654
104	0x1b	0.054259375
105	0x42	0.13263403
106	0x08	0.016076852
107	0xe5	-0.054259375
108	0x1c	0.056268983
109	0x27	0.078374654
110	0x00	0.0
111	0x25	0.07435544
112	0x17	0.046220947
113	0xe9	-0.046220947
114	0xf2	-0.028134491
115	0xfc	-0.008038426
116	0x0b	0.022105671
117	0x0c	0.024115277
118	0xc1	-0.12660521
119	0x00	0.0
120	0x14	0.040192127
121	0xfc	-0.008038426
122	0x30	0.09646111
123	0x06	0.012057639
124	0xd3	-0.09043229
125	0x2d	0.09043229
126	0xed	-0.038182523
127	0x17	0.046220947
128	0x22	0.06832662
129	0xe6	-0.052249767
130	0x18	0.048230555
131	0x23	0.07033622
132	0x24	0.07234583
133	0x15	0.042201735
134	0x01	0.0020096065
135	0x3b	0.11856678
136	0xb2	-0.15674931
137	0xe4	-0.056268983
138	0x1e	0.060288195
139	0xf7	-0.018086458
140	0x10	0.032153703
141	0xc4	-0.12057639
142	0xd9	-0.078374654
143	0x08	0.016076852
144	0xe4	-0.056268983
145	0x05	0.010048032
146	0xb9	-0.14268206
147	0x0e	0.028134491
148	0xe2	-0.060288195
149	0xd3	-0.09043229
150	0xbd	-0.13464363
151	0x9b	-0.20297025
152	0xf5	-0.022105671
153	0x35	0.10650914
154	0xcb	-0.10650914
155	0x12	0.036172915
156	0x39	0.114547566
157	0x04	0.008038426
158	0xdc	-0.07234583
159	0xcd	-0.102489926
160	0xee	-0.036172915
161	0xfd	-0.0060288194
162	0xff	-0.0020096065
163	0x20	0.06430741
164	0x1f	0.0622978
165	0xdb	-0.07435544
166	0xe5	-0.054259375
167	0x01	0.0020096065
168	0x0a	0.020096064
169	0xfa	-0.012057639
170	0x05	0.010048032
171	0xf8	-0.016076852
172	0xe9	-0.046220947
173	0x15	0.042201735
174	0x15	0.042201735
175	0x13	0.038182523
176	0x09	0.018086458
177	0xdc	-0.07234583
178	0x12	0.036172915
179	0x2f	0.0944515
180	0xe2	-0.060288195
181	0xf9	-0.014067246
182	0x0f	0.030144097
183	0xca	-0.10851875
184	0x10	0.032153703
185	0x0f	0.030144097
186	0x1e	0.060288195
187	0x3e	0.1245956
188	0x16	0.044211343
189	0x48	0.14469166
190	0x2e	0.092441894
191	0xda	-0.076365046
192	0x0f	0.030144097
193	0x17	0.046220947
194	0x48	0.14469166
195	0xfd	-0.0060288194
196	0x2a	0.08440347
197	0x3d	0.122586
198	0xde	-0.06832662
199	0xe7	-0.050240163
200	0x0e	0.028134491
201	0x15	0.042201735
202	0xe6	-0.052249767
203	0x4a	0.14871088
204	0x0a	0.020096064
205	0x02	0.004019213
206	0x20	0.06430741
207	0xe5	-0.054259375
208	0x36	0.10851875
209	0xfc	-0.008038426
210	0x33	0.102489926
211	0xe7	-0.050240163
212	0x1b	0.054259375
213	0x0f	0.030144097
214	0xde	-0.06832662
215	0xdc	-0.07234583
216	0x05	0.010048032
217	0x25	0.07435544
218	0xeb	-0.042201735
219	0x00	0.0
220	0xdf	-0.066317014
221	0x34	0.104499534
222	0x1d	0.058278587
223	0x13	0.038182523
224	0xcc	-0.104499534
225	0xee	-0.036172915
226	0xde	-0.06832662
227	0xe9	-0.046220947
228	0xd7	-0.08239386
229	0xbd	-0.13464363
230	0xec	-0.040192127
231	0x01	0.0020096065
232	0x4a	0.14871088
233	0x0b	0.022105671
234	0x0c	0.024115277
235	0x2f	0.0944515
236	0x3a	0.11655717
237	0x17	0.046220947
238	0x03	0.0060288194
239	0xf5	-0.022105671
240	0xe1	-0.0622978
241	0x25	0.07435544
242	0x19	0.050240163
243	0x15	0.042201735
244	0xec	-0.040192127
245	0xfe	-0.004019213
246	0x16	0.044211343
247	0xb0	-0.16076851
248	0xfd	-0.0060288194
249	0xef	-0.03416331
250	0x02	0.004019213
251	0x14	0.040192127
252	0xe4	-0.056268983
253	0xe5	-0.054259375
254	0xdf	-0.066317014
255	0x00	0.0

while/MatMul i1 [192, 64] scale=0.001205288 zero_point=0
0	0x17	0.027721623
1	0x71	0.13619754
2	0x1b	0.032542776
3	0x02	0.002410576
4	0x28	0.04821152
5	0x4c	0.091601886
6	0x44	0.08195958
7	0x50	0.09642304
8	0x4a	0.08919131
9	0x3a	0.069906704
10	0x18	0.028926913
11	0x12	0.021695184
12	0x8f	-0.13619754
13	0x06	0.007231728
14	0x94	-0.1301711
15	0x11	0.020489896
16	0x15	0.025311047
17	0x74	0.13981341
18	0xfc	-0.004821152
19	0x84	-0.14945571
20	0xc5	-0.07111199
21	0xba	-0.08437016
22	0xab	-0.10244948
23	0xf4	-0.014463456
24	0x87	-0.14583984
25	0xaa	-0.103654765
26	0xa8	-0.10606534
27	0x57	0.10486005
28	0x31	0.059059113
29	0xe2	-0.03615864
30	0x98	-0.12534995
31	0x43	0.080754295
32	0x29	0.049416807
33	0xd0	-0.057853825
34	0x7c	0.14945571
35	0x72	0.13740283
36	0x22	0.04097979
37	0x02	0.002410576
38	0x70	0.13499226
39	0x52	0.09883361
40	0x46	0.08437016
41	0x6a	0.12776053
42	0x01	0.001205288
43	0xc4	-0.07231728
44	0xd0	-0.057853825
45	0x13	0.022900471
46	0x20	0.038569216
47	0x01	0.001205288
48	0x66	0.12293938
49	0xfa	-0.007231728
50	0xba	-0.08437016
51	0x4b	0.0903966
52	0x31	0.059059113
53	0x4c	0.091601886
54	0xf7	-0.010847592
55	0x2d	0.054237958
56	0x98	-0.12534995
57	0x50	0.09642304
58	0xca	-0.06508555
59	0x12	0.021695184
60	0x60	0.11570765
61	0xde	-0.04097979
62	0xf5	-0.013258168
63	0xf9	-0.008437016
64	0x08	0.009642304
65	0x48	0.086780734
66	0xc6	-0.069906704
67	0x87	-0.14583984
68	0xa3	-0.11209178
69	0x4b	0.0903966
70	0x26	0.045800943
71	0x66	0.12293938
72	0xc4	-0.07231728
73	0x58	0.10606534
74	0x26	0.045800943
75	0x6d	0.13137639
76	0xfa	-0.007231728
77	0x19	0.0301322
78	0x27	0.04700623
79	0x6e	0.13258168
80	0x95	-0.12896581
81	0x88	-0.14463456
82	0x03	0.003615864
83	0xae	-0.09883361
84	0xf5	-0.013258168
85	0x43	0.080754295
86	0x8c	-0.13981341
87	0xf1	-0.01807932
88	0x69	0.12655523
89	0xc2	-0.074727856
90	0xcd	-0.06146969
91	0x44	0.08195958
92	0x29	0.049416807
93	0xd3	-0.054237958
94	0xba	-0.08437016
95	0xaf	-0.097628325
96	0x54	0.10124419
97	0x75	0.14101869
98	0xda	-0.045800943
99	0xac	-0.10124419
100	0x4f	0.09521775
101	0x8b	-0.14101869
102	0x36	0.06508555
103	0x8d	-0.13860811
104	0xa2	-0.11329707
105	0x76	0.14222398
106	0xdf	-0.039774504
107	0x25	0.044595655
108	0xea	-0.026516335
109	0xb6	-0.08919131
110	0x7e	0.15186629
111	0x56	0.103654765
112	0x32	0.0602644
113	0x3a	0.069906704
114	0xc4	-0.07231728
115	0x7f	0.15307157
116	0xab	-0.10244948
117	0xfa	-0.007231728
118	0xac	-0.10124419
119	0xa3	-0.11209178
120	0xf6	-0.01205288
121	0x2d	0.054237958
122	0x49	0.08798602
123	0xe8	-0.028926913
124	0xbf	-0.07834372
125	0xe0	-0.038569216
126	0x82	-0.15186629
127	0xd1	-0.056648534
128	0x43	0.080754295
129	0x3b	0.07111199
130	0x62	0.11811823
131	0xc3	-0.07352257
132	0x60	0.11570765
133	0xaf	-0.097628325
134	0x89	-0.14342926
135	0x08	0.009642304
136	0x04	0.004821152
137	0x06	0.007231728
138	0x94	-0.1301711
139	0xf7	-0.010847592
140	0xcf	-0.059059113
141	0x06	0.007231728
142	0x79	0.14583984
143	0x88	-0.14463456
144	0x52	0.09883361
145	0x57	0.10486005
146	0x8e	-0.13740283
147	0xb6	-0.08919131
148	0x9e	-0.11811823
149	0x8f	-0.13619754
150	0x4a	0.08919131
151	0x17	0.027721623
152	0x89	-0.14342926
153	0x72	0.13740283
154	0x7e	0.15186629
155	0xc0	-0.07713843
156	0xab	-0.10244948
157	0x44	0.08195958
158	0x8a	-0.14222398
159	0x63	0.119323514
160	0x17	0.027721623
161	0xc6	-0.069906704
162	0x0c	0.014463456
163	0xb0	-0.09642304
164	0x60	0.11570765
165	0x88	-0.14463456
166	0xa8	-0.10606534
167	0x5b	0.109681204
168	0x5f	0.114502355
169	0xda	-0.045800943
170	0xc4	-0.07231728
171	0x1e	0.03615864
172	0x83	-0.15066099
173	0xf7	-0.010847592
174	0x3a	0.069906704
175	0x05	0.00602644
176	0xd0	-0.057853825
177	0xbe	-0.07954901
178	0xed	-0.022900471
179	0xb8	-0.086780734
180	0x60	0.11570765
181	0x3f	0.07593314
182	0xf1	-0.01807932
183	0x84	-0.14945571
184	0xea	-0.026516335
185	0xb8	-0.086780734
186	0xec	-0.02410576
187	0x71	0.13619754
188	0x95	-0.12896581
189	0xee	-0.021695184
190	0xfb	-0.00602644
191	0x96	-0.12776053
192	0xb9	-0.08557545
193	0x2d	0.054237958
194	0x7c	0.14945571
195	0xc4	-0.07231728
196	0x6a	0.12776053
197	0x5c	0.11088649
198	0x1f	0.037363928
199	0xa9	-0.10486005
200	0x41	0.07834372
201	0x37	0.06629084
202	0x0e	0.016874032
203	0x8e	-0.13740283
204	0xb6	-0.08919131
205	0x22	0.04097979
206	0xca	-0.06508555
207	0x39	0.068701416
208	0xed	-0.022900471
209	0x0e	0.016874032
210	0x2b	0.051827382
211	0xd0	-0.057853825
212	0xec	-0.02410576
213	0xf4	-0.014463456
214	0x9c	-0.1205288
215	0x9a	-0.12293938
216	0x3d	0.07352257
217	0xae	-0.09883361
218	0xcc	-0.06267498
219	0xeb	-0.025311047
220	0x00	0.0
221	0xcd	-0.06146969
222	0x61	0.11691294
223	0x7d	0.15066099
224	0xcc	-0.06267498
225	0x1d	0.034953352
226	0xc2	-0.074727856
227	0x00	0.0
228	0xcd	-0.06146969
229	0x1b	0.032542776
230	0x73	0.13860811
231	0xc7	-0.068701416
232	0x9d	-0.119323514
233	0x88	-0.14463456
234	0x11	0.020489896
235	0x17	0.027721623
236	0xb8	-0.086780734
237	0xb2	-0.09401246
238	0x7a	0.14704514
239	0xb4	-0.091601886
240	0xb1	-0.09521775
241	0xbb	-0.08316487
242	0x00	0.0
243	0xb9	-0.08557545
244	0xae	-0.09883361
245	0x7a	0.14704514
246	0xf6	-0.01205288
247	0x2b	0.051827382
248	0xfa	-0.007231728
249	0x14	0.02410576
250	0xd8	-0.04821152
251	0xf3	-0.015668744
252	0x4d	0.092807174
253	0x57	0.10486005
254	0xe1	-0.037363928
255	0x83	-0.15066099

while/MatMul_11 i1 [192, 64] scale=0.002328984 zero_point=0
0	0xe1	-0.0721985
1	0xd0	-0.11179123
2	0x00	0.0
3	0x22	0.079185456
4	0x2c	0.10247529
5	0xea	-0.051237646
6	0xfe	-0.004657968
7	0xf5	-0.025618823
8	0x0b	0.025618823
9	0x02	0.004657968
10	0xc5	-0.13741006
11	0x17	0.05356663
12	0x11	0.039592728
13	0xdc	-0.083843425
14	0xf3	-0.030276792
15	0x0e	0.032605775
16	0x04	0.009315936
17	0xe4	-0.06521155
18	0xfc	-0.009315936
19	0xe2	-0.06986952
20	0xfd	-0.006986952
21	0x29	0.09548834
22	0x28	0.09315936
23	0x12	0.041921712
24	0xf3	-0.030276792
25	0x12	0.041921712
26	0xf2	-0.032605775
27	0xdd	-0.08151444
28	0x0c	0.027947808
29	0xc9	-0.12809412
30	0xd6	-0.097817324
31	0x47	0.16535786
32	0xd5	-0.10014631
33	0x2b	0.10014631
34	0xfe	-0.004657968
35	0xd5	-0.10014631
36	0x12	0.041921712
37	0xf8	-0.018631872
38	0x07	0.016302887
39	0xc8	-0.1304231
40	0xdd	-0.08151444
41	0xf4	-0.027947808
42	0xf2	-0.032605775
43	0xf8	-0.018631872
44	0x0c	0.027947808
45	0x0f	0.03493476
46	0xeb	-0.048908662
47	0x2b	0.10014631
48	0xc1	-0.146726
49	0xec	-0.04657968
50	0x01	0.002328984
51	0x1a	0.060553584
52	0x06	0.013973904
53	0xf5	-0.025618823
54	0xc6	-0.13508107
55	0xf2	-0.032605775
56	0xf2	-0.032605775
57	0x3e	0.144397
58	0x14	0.04657968
59	0xbf	-0.15138395
60	0x2e	0.10713326
61	0x0a	0.02328984
62	0x21	0.07685647
63	0xf1	-0.03493476
64	0x4b	0.1746738
65	0x04	0.009315936
66	0x40	0.14905497
67	0x0d	0.030276792
68	0x0b	0.025618823
69	0xe8	-0.055895615
70	0x0f	0.03493476
71	0xf1	-0.03493476
72	0x22	0.079185456
73	0xff	-0.002328984
74	0x08	0.018631872
75	0xe5	-0.062882565
76	0xf3	-0.030276792
77	0x34	0.12110717
78	0x2c	0.10247529
79	0x2e	0.10713326
80	0x34	0.12110717
81	0xf9	-0.016302887
82	0xf1	-0.03493476
83	0xfa	-0.013973904
84	0x3f	0.146726
85	0x0b	0.025618823
86	0xd6	-0.097817324
87	0xd2	-0.10713326
88	0xda	-0.088501394
89	0x26	0.088501394
90	0x40	0.14905497
91	0x02	0.004657968
92	0x21	0.07685647
93	0xe9	-0.05356663
94	0xe4	-0.06521155
95	0xe6	-0.060553584
96	0x02	0.004657968
97	0xe8	-0.055895615
98	0x09	0.020960856
99	0x11	0.039592728
100	0xba	-0.16302888
101	0x13	0.044250697
102	0xdd	-0.08151444
103	0xfb	-0.01164492
104	0xf3	-0.030276792
105	0xee	-0.041921712
106	0x43	0.15604192
107	0x19	0.0582246
108	0x29	0.09548834
109	0x04	0.009315936
110	0xfe	-0.004657968
111	0x1a	0.060553584
112	0x16	0.051237646
113	0xf7	-0.020960856
114	0x04	0.009315936
115	0x0b	0.025618823
116	0x31	0.114120215
117	0xf9	-0.016302887
118	0xd3	-0.10480428
119	0xe0	-0.07452749
120	0x13	0.044250697
121	0x00	0.0
122	0x13	0.044250697
123	0xee	-0.041921712
124	0x1f	0.0721985
125	0x0f	0.03493476
126	0x16	0.051237646
127	0x0d	0.030276792
128	0xf8	-0.018631872
129	0xcf	-0.114120215
130	0xf1	-0.03493476
131	0xdf	-0.07685647
132	0x3c	0.13973904
133	0xd4	-0.10247529
134	0xc7	-0.13275209
135	0x17	0.05356663
136	0xfc	-0.009315936
137	0xf3	-0.030276792
138	0x36	0.12576513
139	0x23	0.08151444
140	0x0a	0.02328984
141	0xd7	-0.09548834
142	0x07	0.016302887
143	0x3a	0.13508107
144	0x2e	0.10713326
145	0xd6	-0.097817324
146	0x15	0.048908662
147	0x0a	0.02328984
148	0xd7	-0.09548834
149	0xf8	-0.018631872
150	0xe5	-0.062882565
151	0x3d	0.14206803
152	0x2d	0.10480428
153	0xdf	-0.07685647
154	0x07	0.016302887
155	0x06	0.013973904
156	0x39	0.13275209
157	0x24	0.083843425
158	0xe1	-0.0721985
159	0xd9	-0.09083038
160	0xf9	-0.016302887
161	0x16	0.051237646
162	0x34	0.12110717
163	0x1d	0.067540534
164	0xea	-0.051237646
165	0x32	0.1164492
166	0xbf	-0.15138395
167	0x22	0.079185456
168	0xe3	-0.067540534
169	0x10	0.037263744
170	0x02	0.004657968
171	0x10	0.037263744
172	0xbb	-0.16069989
173	0x2f	0.10946225
174	0xf6	-0.02328984
175	0xf0	-0.037263744
176	0x24	0.083843425
177	0x9a	-0.23755637
178	0xfc	-0.009315936
179	0x0c	0.027947808
180	0x0f	0.03493476
181	0x22	0.079185456
182	0xea	-0.051237646
183	0xe1	-0.0721985
184	0x1c	0.06521155
185	0xd6	-0.097817324
186	0x0c	0.027947808
187	0xf4	-0.027947808
188	0x0d	0.030276792
189	0xf9	-0.016302887
190	0xde	-0.079185456
191	0xff	-0.002328984
192	0x07	0.016302887
193	0x1a	0.060553584
194	0xf1	-0.03493476
195	0x13	0.044250697
196	0xed	-0.044250697
197	0xe4	-0.06521155
198	0x01	0.002328984
199	0xe5	-0.062882565
200	0x04	0.009315936
201	0x11	0.039592728
202	0x20	0.07452749
203	0xd1	-0.10946225
204	0xfe	-0.004657968
205	0xe7	-0.0582246
206	0xef	-0.039592728
207	0x0a	0.02328984
208	0xe1	-0.0721985
209	0xfd	-0.006986952
210	0xfe	-0.004657968
211	0xf6	-0.02328984
212	0xe9	-0.05356663
213	0x23	0.08151444
214	0xb7	-0.17001583
215	0xef	-0.039592728
216	0x10	0.037263744
217	0xe7	-0.0582246
218	0xf5	-0.025618823
219	0xf8	-0.018631872
220	0xf6	-0.02328984
221	0x14	0.04657968
222	0x02	0.004657968
223	0x10	0.037263744
224	0x15	0.048908662
225	0xdf	-0.07685647
226	0xfc	-0.009315936
227	0xf6	-0.02328984
228	0xf6	-0.02328984
229	0xfa	-0.013973904
230	0x47	0.16535786
231	0x0d	0.030276792
232	0x30	0.11179123
233	0xfc	-0.009315936
234	0xdd	-0.08151444
235	0xfc	-0.009315936
236	0x24	0.083843425
237	0x1e	0.06986952
238	0xce	-0.1164492
239	0x0b	0.025618823
240	0xff	-0.002328984
241	0x02	0.004657968
242	0x03	0.006986952
243	0x29	0.09548834
244	0xe1	-0.0721985
245	0x10	0.037263744
246	0x01	0.002328984
247	0xf5	-0.025618823
248	0xed	-0.044250697
249	0xef	-0.039592728
250	0xd2	-0.10713326
251	0x0a	0.02328984
252	0xda	-0.088501394
253	0x9b	-0.23522738
254	0xeb	-0.048908662
255	0x35	0.12343615
