python_quantization/tflite_models/microfaune_converted_model_dynamic.tflite (tflite, 356504 bytes, 17 tensors)

model/time_distributed_1/dense_1/MatMul f4 [1, 64]
0	0x3e1dacb8	0.15397918
1	0xbe5eb698	-0.21749341
2	0xbe571ba5	-0.2100664
3	0xbd932562	-0.071848646
4	0xbd114380	-0.035464764
5	0x3e4b1fac	0.198363
6	0x3df9ac70	0.12191093
7	0x3e1a000c	0.1503908
8	0xbd59e0d0	-0.053192914
9	0xbe460508	-0.19337857
10	0xbe42cd54	-0.19023639
11	0xbd684c90	-0.05671364
12	0xbe193b75	-0.14964087
13	0xbcb63ac0	-0.022244811
14	0x3e6032e8	0.21894419
15	0x3dad07bc	0.08448741
16	0x3debcbe4	0.115134984
17	0x3e04cf7c	0.12969774
18	0xbe9a0702	-0.30083472
19	0xbdfb6376	-0.1227483
20	0x3d149d68	0.036282927
21	0xbddb11ac	-0.1069673
22	0x3cab0fb0	0.020881504
23	0xbe83ff45	-0.25780693
24	0xbe3d3460	-0.1847701
25	0xbd8f5282	-0.06998159
26	0xbbb14240	-0.005409509
27	0xbe646078	-0.22302425
28	0x3e798cf0	0.2437017
29	0x3e13accc	0.14421386
30	0x3e701094	0.23443824
31	0xbca75840	-0.020427823
32	0x3db8450c	0.08997545
33	0x3e7f7024	0.24945122
34	0x3e20a084	0.15686232
35	0xbe1b87d4	-0.15188533
36	0x3e6f2db8	0.23357284
37	0x3e6d6474	0.23182851
38	0x3d085ce8	0.033291727
39	0x3e3872d8	0.1801256
40	0xbe54069a	-0.20705643
41	0xbe47fc84	-0.19529921
42	0x3e4902f0	0.19630027
43	0xbe808593	-0.2510191
44	0xbe9ae067	-0.3024933
45	0x3c432520	0.011910707
46	0xbe0be8cb	-0.13663022
47	0xbe1001a0	-0.1406312
48	0x3da70b4c	0.081564516
49	0xbde3b4ce	-0.1111847
50	0x3e4760d8	0.19470537
51	0xbe2d59c5	-0.16928776
52	0xbe67f6f0	-0.22652793
53	0xbe5e63cd	-0.21717758
54	0x3e87c138	0.26514602
55	0x3dee2d6c	0.11629757
56	0x3d2e7988	0.04259637
57	0xbdb0b314	-0.086279064
58	0xbe18f175	-0.14935859
59	0xbe24a489	-0.1607839
60	0xbd7338dc	-0.059380397
61	0x3dfd0190	0.12353814
62	0xbdc8bfa6	-0.09802179
63	0x3d53daa0	0.05172217

model/batch_normalization_1/FusedBatchNormV3/ReadVariableOp f4 [64]
0	0x00000000	0.0
1	0x00000000	0.0
2	0x00000000	0.0
3	0x00000000	0.0
4	0x00000000	0.0
5	0x00000000	0.0
6	0x00000000	0.0
7	0x00000000	0.0
8	0x00000000	0.0
9	0x00000000	0.0
10	0x00000000	0.0
11	0x00000000	0.0
12	0x00000000	0.0
13	0x00000000	0.0
14	0x00000000	0.0
15	0x00000000	0.0
16	0x00000000	0.0
17	0x00000000	0.0
18	0x00000000	0.0
19	0x00000000	0.0
20	0x00000000	0.0
21	0x00000000	0.0
22	0x00000000	0.0
23	0x00000000	0.0
24	0x00000000	0.0
25	0x00000000	0.0
26	0x00000000	0.0
27	0x00000000	0.0
28	0x00000000	0.0
29	0x00000000	0.0
30	0x00000000	0.0
31	0x00000000	0.0
32	0x00000000	0.0
33	0x00000000	0.0
34	0x00000000	0.0
35	0x00000000	0.0
36	0x00000000	0.0
37	0x00000000	0.0
38	0x00000000	0.0
39	0x00000000	0.0
40	0x00000000	0.0
41	0x00000000	0.0
42	0x00000000	0.0
43	0x00000000	0.0
44	0x00000000	0.0
45	0x00000000	0.0
46	0x00000000	0.0
47	0x00000000	0.0
48	0x00000000	0.0
49	0x00000000	0.0
50	0x00000000	0.0
51	0x00000000	0.0
52	0x00000000	0.0
53	0x00000000	0.0
54	0x00000000	0.0
55	0x00000000	0.0
56	0x00000000	0.0
57	0x00000000	0.0
58	0x00000000	0.0
59	0x00000000	0.0
60	0x00000000	0.0
61	0x00000000	0.0
62	0x00000000	0.0
63	0x00000000	0.0

model/conv2d/Conv2D f4 [64, 3, 3, 1]
0	0x3d760124	0.06005968
1	0xbd069633	-0.032858085
2	0xbcada737	-0.021197898
3	0x3ce4394b	0.02785935
4	0xbd61b075	-0.055099923
5	0xbd6e2b24	-0.05814661
6	0xbcb93b63	-0.022611326
7	0x3c53eb91	0.012934581
8	0x3d982cac	0.074303955
9	0x3d82186e	0.06352316
10	0x3d496602	0.049169548
11	0xbbaee16e	-0.005336932
12	0xbc8f802f	-0.017517177
13	0x3d966b08	0.07344633
14	0x3c629cd0	0.013831332
15	0x3d9e40ff	0.07727241
16	0x3dbc5f46	0.091978595
17	0xbd3bde79	-0.045866463
18	0x3d104cec	0.03522961
19	0xbda8794a	-0.08226259
20	0xbd8e508b	-0.06948956
21	0xbcbd876f	-0.023135869
22	0x3d2e5a0c	0.042566344
23	0x3d95a114	0.07306114
24	0xbd03b5ed	-0.03215592
25	0xbd92f20f	-0.07175075
26	0xbdbee9ea	-0.09321959
27	0xbd15b8bf	-0.03655314
28	0x3ca19b65	0.019727418
29	0x3c3258cd	0.01088543
30	0xbc7797d0	-0.0151118785
31	0x3d9684b3	0.07349529
32	0xbdbba8dd	-0.091630675
33	0xbd9c1503	-0.07621195
34	0xbd597e19	-0.05309877
35	0xbdcbf667	-0.09959107
36	0xbd441459	-0.047870968
37	0xbbef1207	-0.00729585
38	0x3acc6ed6	0.0015596997
39	0xbd547119	-0.05186567
40	0x3c49a412	0.012307184
41	0x3c1b1827	0.009466208
42	0x3d5e260e	0.05423551
43	0xbc898477	-0.016786797
44	0xbd471096	-0.048599802
45	0x3c671fac	0.014106672
46	0xbdce9965	-0.100878514
47	0xbd257f8f	-0.040404852
48	0xbc7aa2a5	-0.015297567
49	0x3d479fc4	0.04873635
50	0x3d99e5d4	0.07514539
51	0xbd9ad450	-0.07560027
52	0x3bf434bf	0.007452577
53	0xbdcce39e	-0.10004352
54	0xbd68032c	-0.05664365
55	0xbd8e873e	-0.06959389
56	0xbdbfae6e	-0.09359442
57	0x3c0933b1	0.008374141
58	0xbd744cea	-0.059643663
59	0x3d648a28	0.05579582
60	0x39ac2af7	0.00032838408
61	0xbdb4e889	-0.08833415
62	0xbc3e3ddf	-0.011611431
63	0x3d5bae23	0.053632867
64	0x3bbe7410	0.0058121756
65	0x3d87d6d2	0.066327706
66	0xbd0506e0	-0.03247726
67	0xbbef6a1c	-0.0073063504
68	0xbd866137	-0.06561511
69	0xbd6330e8	-0.055466563
70	0xbd9e4ca0	-0.07729459
71	0xbd947433	-0.07248726
72	0xbd88b82f	-0.06675755
73	0xbd8032c5	-0.062596835
74	0xbdcdce40	-0.10049105
75	0xbd270d9f	-0.040784474
76	0x3d9705c2	0.07374145
77	0x3dc370a3	0.09542968
78	0xbda9cf29	-0.08291466
79	0x3d0b0ce8	0.033947855
80	0x3b2d99e8	0.002648944
81	0x3c4fb41b	0.012677218
82	0x3d8a4bc3	0.06752732
83	0x3d159957	0.03652319
84	0xbd8f0b4a	-0.06984575
85	0x3c951f46	0.018203389
86	0x3d8d1ff0	0.06890857
87	0x3d72f5c4	0.05931641
88	0x3c399718	0.011327527
89	0xbdc5574e	-0.09635793
90	0x3da59359	0.08084745
91	0x3d9abfea	0.07556136
92	0x3d94bdff	0.072628014
93	0x3c991698	0.018687531
94	0x3cfd3c3f	0.030912517
95	0xbc2c31d6	-0.010509929
96	0x3dcd7c7e	0.100335106
97	0xbdb8d547	-0.090250544
98	0xbdb6a78a	-0.08918674
99	0x3d836f96	0.06417768
100	0x3db93e81	0.09045125
101	0x3d8333e7	0.06406384
102	0xbd273f3f	-0.0408318
103	0x3ad2f241	0.0016093926
104	0xbd605a0c	-0.054773375
105	0x3d90dfe0	0.07073951
106	0xbdb3cb3d	-0.08778999
107	0xbdceb87f	-0.100937836
108	0x3d13e45b	0.03610645
109	0x3d607f71	0.054809038
110	0x3d95ba17	0.073108844
111	0x3dbd06a9	0.09229786
112	0x3baa872d	0.0052041025
113	0xbc454c38	-0.012042098
114	0x3ce13cc5	0.027494797
115	0x3cf076fa	0.029353607
116	0xbd98a299	-0.07452888
117	0xbc6b2ce7	-0.014353967
118	0x3d577ffc	0.05261229
119	0xbcef30d4	-0.029198088
120	0xbcda8b40	-0.026677728
121	0x3da53733	0.08067169
122	0xbdae797e	-0.085192665
123	0x3dcb6380	0.099310875
124	0x3cbc387d	0.022976154
125	0xbd892f42	-0.06698467
126	0x3da6da79	0.08147139
127	0x3d955d24	0.07293156
128	0x3dad00c0	0.08447409
129	0x3c4b84f4	0.012421835
130	0x3daf577d	0.08561609
131	0xbbfbeb62	-0.007687972
132	0x3c2076df	0.009793966
133	0x3d6f5946	0.058434747
134	0x3dba1152	0.09085335
135	0xbd79f228	-0.061021954
136	0x3d71df9c	0.05905114
137	0xbb15c5d5	-0.0022853513
138	0x3db6b5f0	0.089214206
139	0xbd5fa619	-0.054601762
140	0xba13fa10	-0.0005644867
141	0x3d9c6d0b	0.07637986
142	0xbd533e23	-0.05157293
143	0xbd5dd7fc	-0.054161057
144	0xbdb5105b	-0.0884101
145	0x3d94efd8	0.07272309
146	0xbca472e4	-0.020074315
147	0xbd85e1b1	-0.06537188
148	0xbd891a04	-0.06694415
149	0x3d80e997	0.06294554
150	0xbb0a9384	-0.0021145055
151	0x3d9ec85e	0.07753061
152	0xbd5be81e	-0.05368816
153	0x3d66ebfe	0.056377403
154	0xbd573617	-0.05254182
155	0x3d9e2fc5	0.07723955
156	0xbda4f953	-0.08055367
157	0x3d97991b	0.074022494
158	0xbd700dcd	-0.05860691
159	0x3c0f89e1	0.0087609
160	0x3d14f09c	0.036362275
161	0xbcea9e49	-0.02863993
162	0x3d98cf48	0.07461411
163	0xbdc7fbda	-0.09764834
164	0xbdceb4ad	-0.10093055
165	0x3d8c8f6d	0.06863294
166	0xbd5bbcd8	-0.053646892
167	0x3d8be0b3	0.06829967
168	0xbdabb41f	-0.08383965
169	0x3b53e2c2	0.0032331203
170	0xbd40eb72	-0.04709954
171	0xbd42cfa7	-0.047561314
172	0xba880258	-0.0010376675
173	0x3d880436	0.06641428
174	0xbdc7aca5	-0.09749726
175	0xbd4d4529	-0.050114784
176	0xbc859793	-0.016307628
177	0x3bc5ee2b	0.0060403547
178	0xbd177aa3	-0.03698219
179	0x3c3bb09b	0.01145568
180	0xbd6f9601	-0.058492664
181	0xbd7eeb57	-0.062236156
182	0x3d83385b	0.06407233
183	0xbc8251a6	-0.015908074
184	0x3d937a2e	0.07201038
185	0xbd4e9779	-0.050437424
186	0xbd164882	-0.036690243
187	0x3cb5d0df	0.022194324
188	0xbcdd4f41	-0.02701533
189	0xbd6a67cd	-0.0572279
190	0x3af46839	0.0018646783
191	0xbdbeace1	-0.09310318
192	0xbd8ee7a8	-0.06977779
193	0xbd262033	-0.04055805
194	0x3d2a862d	0.041631866
195	0x3d2957e8	0.0413436
196	0xbc8371ee	-0.016045537
197	0xbdc286d2	-0.09498371
198	0xbd73991e	-0.059472196
199	0x3d0deb9e	0.03464853
200	0xbd2d8ea5	-0.042372365
201	0xbbe56b04	-0.0070012826
202	0xbdbb7ef4	-0.09155074
203	0xbd1351d1	-0.035966698
204	0xbd081b0b	-0.033228915
205	0x3d66f499	0.05638561
206	0xbda8923d	-0.08231018
207	0xbd9fb201	-0.077976234
208	0x3d32b409	0.043628726
209	0xbd33e224	-0.043916836
210	0xbd4424fa	-0.047886826
211	0x3dc82c60	0.09774089
212	0xbd981c1a	-0.07427235
213	0x3d93393b	0.0718865
214	0xbc5b8f97	-0.013400934
215	0xbc77297e	-0.015085576
216	0xb823fb04	-3.9096005e-05
217	0x3d5dd3dc	0.054157123
218	0xbcf6cbf6	-0.030126553
219	0xbd0176b2	-0.031607337
220	0xbd7636dc	-0.06011091
221	0xbdc7ff5f	-0.09765505
222	0x3da583e9	0.080818005
223	0x3d7466c5	0.05966832
224	0x3d57935d	0.05263077
225	0x3dc08826	0.09400968
226	0xbca0a16d	-0.019608224
227	0xbd0f8ecd	-0.035048295
228	0x3dc2ad02	0.09505655
229	0xbd96e3c6	-0.07367663
230	0x3d7eb8c7	0.062187936
231	0x3cabb9a6	0.020962548
232	0xbd9267c9	-0.07148702
233	0xba95a959	-0.0011418267
234	0x3d7fed4f	0.062482174
235	0xbc2bc41d	-0.010483769
236	0xbcca593f	-0.024700759
237	0x3d27c330	0.04095763
238	0xbb357ca6	-0.0027692704
239	0x3d0d9ef4	0.034575418
240	0x3cf3aae1	0.029744567
241	0xbd41116f	-0.047135767
242	0x3dca8741	0.09889079
243	0x3cd46392	0.025926385
244	0x3db681e3	0.08911493
245	0x3dbcabdb	0.09212466
246	0xbda901b3	-0.08252277
247	0xbda33a0b	-0.07970055
248	0xbda68b56	-0.08132045
249	0xbd0552d0	-0.03254968
250	0x3d01d297	0.031694975
251	0x3db0fe69	0.08642275
252	0xbd23823a	-0.039919116
253	0xbdcd76b2	-0.10032405
254	0xbcaef2d4	-0.021356024
255	0xbc9349f2	-0.017979596

model/conv2d_1/Conv2D i1 [64, 3, 3, 64]
0	0x05	5
1	0x49	73
2	0x97	-105
3	0xbb	-69
4	0x15	21
5	0x47	71
6	0xc3	-61
7	0x27	39
8	0x6a	106
9	0x33	51
10	0xc8	-56
11	0x5b	91
12	0x2b	43
13	0x50	80
14	0x5d	93
15	0xc9	-55
16	0x2e	46
17	0xb9	-71
18	0x48	72
19	0x05	5
20	0x5c	92
21	0xf2	-14
22	0xcc	-52
23	0x36	54
24	0xf3	-13
25	0xa8	-88
26	0x28	40
27	0xd5	-43
28	0x37	55
29	0x1a	26
30	0x17	23
31	0x71	113
32	0x36	54
33	0x1a	26
34	0x19	25
35	0x33	51
36	0x6b	107
37	0x6e	110
38	0xfb	-5
39	0x7e	126
40	0xa7	-89
41	0x08	8
42	0x43	67
43	0xef	-17
44	0x64	100
45	0x46	70
46	0x8a	-118
47	0x55	85
48	0x6a	106
49	0x15	21
50	0xf2	-14
51	0x7b	123
52	0xb6	-74
53	0x6c	108
54	0xd4	-44
55	0x90	-112
56	0x3c	60
57	0xf7	-9
58	0x1a	26
59	0x8e	-114
60	0x12	18
61	0x5e	94
62	0xae	-82
63	0x9b	-101
64	0x5a	90
65	0xda	-38
66	0xf3	-13
67	0x3d	61
68	0x20	32
69	0xf3	-13
70	0x45	69
71	0xf7	-9
72	0xa1	-95
73	0xd2	-46
74	0x57	87
75	0xb8	-72
76	0xca	-54
77	0x43	67
78	0x20	32
79	0x7c	124
80	0x8a	-118
81	0x21	33
82	0x52	82
83	0xac	-84
84	0x69	105
85	0x83	-125
86	0x46	70
87	0xf7	-9
88	0x15	21
89	0x2c	44
90	0xd8	-40
91	0xe1	-31
92	0xa7	-89
93	0x24	36
94	0x79	121
95	0x4b	75
96	0xa0	-96
97	0xfe	-2
98	0x1a	26
99	0xf9	-7
100	0x6f	111
101	0xa9	-87
102	0x70	112
103	0xed	-19
104	0x0f	15
105	0xa2	-94
106	0xe0	-32
107	0xfc	-4
108	0xa8	-88
109	0xfa	-6
110	0xfa	-6
111	0x02	2
112	0x17	23
113	0xca	-54
114	0x2c	44
115	0xc1	-63
116	0x64	100
117	0x70	112
118	0x7b	123
119	0x97	-105
120	0xf3	-13
121	0xee	-18
122	0x86	-122
123	0xe2	-30
124	0xfd	-3
125	0x8f	-113
126	0x8a	-118
127	0xa7	-89
128	0x36	54
129	0x1a	26
130	0x31	49
131	0x1e	30
132	0xb7	-73
133	0x01	1
134	0xf6	-10
135	0x71	113
136	0x30	48
137	0x62	98
138	0xb7	-73
139	0x02	2
140	0x98	-104
141	0x04	4
142	0xe5	-27
143	0xdb	-37
144	0x35	53
145	0x61	97
146	0xb1	-79
147	0x47	71
148	0xbb	-69
149	0x14	20
150	0x65	101
151	0xed	-19
152	0xaf	-81
153	0xf2	-14
154	0xd0	-48
155	0xac	-84
156	0x18	24
157	0xce	-50
158	0x77	119
159	0x1e	30
160	0x38	56
161	0x0e	14
162	0x14	20
163	0xb9	-71
164	0x49	73
165	0x83	-125
166	0x73	115
167	0xb0	-80
168	0x8b	-117
169	0x52	82
170	0x6d	109
171	0xce	-50
172	0xaf	-81
173	0x7c	124
174	0xd7	-41
175	0x5e	94
176	0x1d	29
177	0xb4	-76
178	0xca	-54
179	0xd5	-43
180	0xe5	-27
181	0x2c	44
182	0xc5	-59
183	0xde	-34
184	0xd1	-47
185	0xbc	-68
186	0x0e	14
187	0xfd	-3
188	0xa6	-90
189	0x1f	31
190	0xc4	-60
191	0xf9	-7
192	0xf8	-8
193	0x63	99
194	0xb4	-76
195	0x13	19
196	0x38	56
197	0x78	120
198	0x65	101
199	0x00	0
200	0xb6	-74
201	0xba	-70
202	0x95	-107
203	0xb0	-80
204	0x01	1
205	0xfe	-2
206	0xe7	-25
207	0x3c	60
208	0xe0	-32
209	0x33	51
210	0x62	98
211	0x45	69
212	0xa5	-91
213	0xfb	-5
214	0x14	20
215	0x66	102
216	0x0b	11
217	0xc6	-58
218	0x20	32
219	0xc8	-56
220	0x05	5
221	0xc9	-55
222	0xde	-34
223	0x02	2
224	0x87	-121
225	0xa2	-94
226	0x78	120
227	0xe2	-30
228	0x21	33
229	0x71	113
230	0xe8	-24
231	0xb3	-77
232	0xf3	-13
233	0xe8	-24
234	0xfc	-4
235	0xfc	-4
236	0x6b	107
237	0x89	-119
238	0x96	-106
239	0x9b	-101
240	0xbf	-65
241	0x7c	124
242	0x84	-124
243	0x75	117
244	0x47	71
245	0xb1	-79
246	0x44	68
247	0xe5	-27
248	0x17	23
249	0xd7	-41
250	0xda	-38
251	0x16	22
252	0xb9	-71
253	0xf2	-14
254	0xd4	-44
255	0x14	20

model/conv2d_2/Conv2D i1 [64, 3, 3, 64]
0	0xcd	-51
1	0x7d	125
2	0x07	7
3	0xb0	-80
4	0xbc	-68
5	0x69	105
6	0x3d	61
7	0x66	102
8	0x98	-104
9	0x02	2
10	0xd4	-44
11	0xec	-20
12	0x8a	-118
13	0x0e	14
14	0x32	50
15	0x0c	12
16	0xd0	-48
17	0x69	105
18	0xe7	-25
19	0xc6	-58
20	0x14	20
21	0xcf	-49
22	0xfc	-4
23	0x40	64
24	0x2e	46
25	0x1e	30
26	0xf8	-8
27	0x51	81
28	0x40	64
29	0x6b	107
30	0x7a	122
31	0x93	-109
32	0x63	99
33	0x2d	45
34	0xaa	-86
35	0xdc	-36
36	0xff	-1
37	0x95	-107
38	0x59	89
39	0x26	38
40	0xa6	-90
41	0x04	4
42	0xba	-70
43	0xa8	-88
44	0x3b	59
45	0x76	118
46	0x1f	31
47	0xd3	-45
48	0xdd	-35
49	0x58	88
50	0x9e	-98
51	0xd9	-39
52	0xcc	-52
53	0xe5	-27
54	0x98	-104
55	0x4a	74
56	0xd8	-40
57	0xc4	-60
58	0x39	57
59	0xa1	-95
60	0xc6	-58
61	0x8e	-114
62	0x5b	91
63	0x37	55
64	0xd9	-39
65	0x17	23
66	0x7c	124
67	0x3b	59
68	0xe4	-28
69	0xb0	-80
70	0x5e	94
71	0xf9	-7
72	0xe7	-25
73	0x00	0
74	0xbe	-66
75	0xba	-70
76	0x66	102
77	0x7e	126
78	0xdb	-37
79	0x26	38
80	0x5d	93
81	0x14	20
82	0xaa	-86
83	0xa6	-90
84	0xb5	-75
85	0xe2	-30
86	0xa5	-91
87	0x0c	12
88	0xf8	-8
89	0xec	-20
90	0xe3	-29
91	0xfe	-2
92	0x36	54
93	0xb5	-75
94	0xce	-50
95	0x43	67
96	0x04	4
97	0xb3	-77
98	0xdc	-36
99	0xe6	-26
100	0x7b	123
101	0xfd	-3
102	0x5f	95
103	0x50	80
104	0x01	1
105	0xfc	-4
106	0xca	-54
107	0x35	53
108	0xd2	-46
109	0x25	37
110	0xed	-19
111	0x5d	93
112	0x13	19
113	0x30	48
114	0xa9	-87
115	0x07	7
116	0xa0	-96
117	0xc8	-56
118	0x7f	127
119	0xee	-18
120	0xa9	-87
121	0x90	-112
122	0xad	-83
123	0x8c	-116
124	0xb2	-78
125	0x6c	108
126	0x96	-106
127	0x5c	92
128	0xce	-50
129	0x78	120
130	0x29	41
131	0x57	87
132	0x64	100
133	0xf7	-9
134	0x09	9
135	0x5c	92
136	0x27	39
137	0xf5	-11
138	0xc9	-55
139	0xee	-18
140	0x95	-107
141	0xa8	-88
142	0xd9	-39
143	0xbc	-68
144	0x8c	-116
145	0x83	-125
146	0x5b	91
147	0x63	99
148	0xec	-20
149	0xfe	-2
150	0x6d	109
151	0xa2	-94
152	0x77	119
153	0x17	23
154	0x4d	77
155	0x81	-127
156	0x0d	13
157	0x2a	42
158	0xb6	-74
159	0xce	-50
160	0xb8	-72
161	0x03	3
162	0x79	121
163	0xd9	-39
164	0x31	49
165	0x49	73
166	0x6c	108
167	0x82	-126
168	0x02	2
169	0xca	-54
170	0x67	103
171	0xb8	-72
172	0x5f	95
173	0x4b	75
174	0xd3	-45
175	0x22	34
176	0x5d	93
177	0xa8	-88
178	0xc8	-56
179	0x9c	-100
180	0x2d	45
181	0x90	-112
182	0x0f	15
183	0x4e	78
184	0xd6	-42
185	0x8e	-114
186	0x4e	78
187	0xe1	-31
188	0x32	50
189	0x5d	93
190	0x24	36
191	0x24	36
192	0xc3	-61
193	0x24	36
194	0xc9	-55
195	0x9d	-99
196	0xae	-82
197	0x37	55
198	0xd0	-48
199	0x5a	90
200	0xf5	-11
201	0xaf	-81
202	0xba	-70
203	0x0a	10
204	0xf8	-8
205	0xee	-18
206	0x9a	-102
207	0x42	66
208	0xf8	-8
209	0x6c	108
210	0x96	-106
211	0x2b	43
212	0x83	-125
213	0xd6	-42
214	0x33	51
215	0x71	113
216	0x6c	108
217	0xb1	-79
218	0x76	118
219	0x4a	74
220	0x11	17
221	0x5f	95
222	0x4a	74
223	0x39	57
224	0x8a	-118
225	0x7b	123
226	0xb1	-79
227	0x94	-108
228	0x89	-119
229	0xcd	-51
230	0x7b	123
231	0xb2	-78
232	0xac	-84
233	0xb6	-74
234	0x44	68
235	0xcd	-51
236	0xf9	-7
237	0xa2	-94
238	0xb3	-77
239	0x9c	-100
240	0x5b	91
241	0x18	24
242	0xcf	-49
243	0xd3	-45
244	0xa6	-90
245	0xaf	-81
246	0x25	37
247	0x17	23
248	0x23	35
249	0x57	87
250	0x6b	107
251	0x5b	91
252	0x2d	45
253	0x22	34
254	0xb9	-71
255	0x0f	15

model/conv2d_3/Conv2D i1 [64, 3, 3, 64]
0	0xbe	-66
1	0xb6	-74
2	0xc6	-58
3	0x40	64
4	0xed	-19
5	0xf1	-15
6	0x00	0
7	0x9c	-100
8	0x93	-109
9	0x58	88
10	0xad	-83
11	0x4e	78
12	0xd3	-45
13	0x90	-112
14	0xfa	-6
15	0xe3	-29
16	0x6d	109
17	0x51	81
18	0xea	-22
19	0x08	8
20	0xab	-85
21	0x89	-119
22	0xa2	-94
23	0x7c	124
24	0x01	1
25	0xf8	-8
26	0x59	89
27	0x59	89
28	0xe7	-25
29	0x04	4
30	0x02	2
31	0xb6	-74
32	0x60	96
33	0xf3	-13
34	0xd8	-40
35	0x98	-104
36	0x5a	90
37	0xf3	-13
38	0xa6	-90
39	0x6d	109
40	0x2a	42
41	0x59	89
42	0x7a	122
43	0x5e	94
44	0xb1	-79
45	0x34	52
46	0xa2	-94
47	0x18	24
48	0x10	16
49	0x6d	109
50	0xad	-83
51	0x70	112
52	0x0f	15
53	0x19	25
54	0x58	88
55	0xa8	-88
56	0x7e	126
57	0x06	6
58	0x1d	29
59	0x1b	27
60	0x00	0
61	0xdc	-36
62	0x18	24
63	0xdb	-37
64	0x21	33
65	0x19	25
66	0xb6	-74
67	0x0b	11
68	0x68	104
69	0x8e	-114
70	0x3d	61
71	0x89	-119
72	0x7d	125
73	0xce	-50
74	0xdc	-36
75	0xf3	-13
76	0x62	98
77	0x21	33
78	0x96	-106
79	0x52	82
80	0x77	119
81	0x12	18
82	0xdd	-35
83	0x7b	123
84	0x24	36
85	0xde	-34
86	0x03	3
87	0xc4	-60
88	0xa1	-95
89	0x00	0
90	0x62	98
91	0xcd	-51
92	0x23	35
93	0x1b	27
94	0x5c	92
95	0xa3	-93
96	0x3c	60
97	0x1f	31
98	0xf6	-10
99	0x23	35
100	0x16	22
101	0x7b	123
102	0x7b	123
103	0x13	19
104	0x55	85
105	0x8f	-113
106	0xe3	-29
107	0xa5	-91
108	0xc7	-57
109	0x6b	107
110	0xfc	-4
111	0x5d	93
112	0x67	103
113	0xb0	-80
114	0xa2	-94
115	0x15	21
116	0x0c	12
117	0x12	18
118	0xd5	-43
119	0xd9	-39
120	0xab	-85
121	0x33	51
122	0x0f	15
123	0x48	72
124	0x66	102
125	0x87	-121
126	0xe5	-27
127	0xf4	-12
128	0x31	49
129	0x1a	26
130	0x28	40
131	0x11	17
132	0xbc	-68
133	0xfd	-3
134	0xa2	-94
135	0x76	118
136	0x64	100
137	0x0d	13
138	0x12	18
139	0xb1	-79
140	0x43	67
141	0xf9	-7
142	0x8c	-116
143	0xef	-17
144	0xc2	-62
145	0x7c	124
146	0xfb	-5
147	0xee	-18
148	0x12	18
149	0x20	32
150	0xf3	-13
151	0xd9	-39
152	0x7b	123
153	0xa7	-89
154	0x1f	31
155	0x02	2
156	0x85	-123
157	0xf7	-9
158	0x3a	58
159	0x16	22
160	0xce	-50
161	0x76	118
162	0x4d	77
163	0x1d	29
164	0xaa	-86
165	0x68	104
166	0xaa	-86
167	0x5f	95
168	0xee	-18
169	0xc2	-62
170	0x53	83
171	0x0e	14
172	0xa2	-94
173	0x8f	-113
174	0x3c	60
175	0xda	-38
176	0xb1	-79
177	0xbc	-68
178	0x11	17
179	0x55	85
180	0x56	86
181	0xfc	-4
182	0x01	1
183	0x43	67
184	0xb5	-75
185	0x77	119
186	0x23	35
187	0x5f	95
188	0xbc	-68
189	0x04	4
190	0x9a	-102
191	0x78	120
192	0xe6	-26
193	0xc0	-64
194	0x99	-103
195	0x1e	30
196	0x0e	14
197	0x70	112
198	0x1a	26
199	0x5c	92
200	0xc8	-56
201	0x2c	44
202	0x66	102
203	0x50	80
204	0x55	85
205	0xc2	-62
206	0x75	117
207	0x37	55
208	0x79	121
209	0x3c	60
210	0xe5	-27
211	0x07	7
212	0xf8	-8
213	0x78	120
214	0xd3	-45
215	0x0f	15
216	0xbb	-69
217	0xf9	-7
218	0xfb	-5
219	0x26	38
220	0x4d	77
221	0x33	51
222	0x37	55
223	0xa6	-90
224	0x3a	58
225	0x4d	77
226	0x15	21
227	0x48	72
228	0x2b	43
229	0x9e	-98
230	0x5d	93
231	0x30	48
232	0x0b	11
233	0x58	88
234	0xc6	-58
235	0xf5	-11
236	0x75	117
237	0xb0	-80
238	0x26	38
239	0x3d	61
240	0xec	-20
241	0xf8	-8
242	0xc4	-60
243	0xf1	-15
244	0xa6	-90
245	0x5e	94
246	0x3f	63
247	0x4d	77
248	0x77	119
249	0x58	88
250	0x1c	28
251	0xfd	-3
252	0x67	103
253	0x67	103
254	0xc7	-57
255	0xf2	-14

model/conv2d_4/Conv2D i1 [64, 3, 3, 64]
0	0x41	65
1	0xe3	-29
2	0x26	38
3	0xc1	-63
4	0x18	24
5	0x1d	29
6	0xd4	-44
7	0xc6	-58
8	0x65	101
9	0x07	7
10	0x8f	-113
11	0x7c	124
12	0x6f	111
13	0x96	-106
14	0x9a	-102
15	0xde	-34
16	0x43	67
17	0xe2	-30
18	0x01	1
19	0x00	0
20	0xd7	-41
21	0x41	65
22	0xae	-82
23	0xde	-34
24	0x3c	60
25	0x7c	124
26	0x48	72
27	0x15	21
28	0xcf	-49
29	0xf3	-13
30	0x82	-126
31	0xa7	-89
32	0x0f	15
33	0x57	87
34	0x19	25
35	0xd1	-47
36	0x04	4
37	0x18	24
38	0x19	25
39	0xc2	-62
40	0x7d	125
41	0x5e	94
42	0x0e	14
43	0x64	100
44	0x50	80
45	0x53	83
46	0xa7	-89
47	0x57	87
48	0x1e	30
49	0x07	7
50	0x4b	75
51	0x7d	125
52	0xd5	-43
53	0xee	-18
54	0xf5	-11
55	0x89	-119
56	0xc5	-59
57	0x49	73
58	0xf3	-13
59	0x5d	93
60	0xc8	-56
61	0xdc	-36
62	0xe7	-25
63	0x51	81
64	0xb0	-80
65	0x10	16
66	0xfa	-6
67	0xa2	-94
68	0xc4	-60
69	0x57	87
70	0x61	97
71	0x25	37
72	0x13	19
73	0xe9	-23
74	0x5a	90
75	0xb5	-75
76	0x8a	-118
77	0x34	52
78	0x21	33
79	0x76	118
80	0x29	41
81	0xfb	-5
82	0xdb	-37
83	0xea	-22
84	0xfc	-4
85	0x9b	-101
86	0x49	73
87	0xb8	-72
88	0x24	36
89	0x6f	111
90	0x0f	15
91	0x59	89
92	0xde	-34
93	0x57	87
94	0x97	-105
95	0x5f	95
96	0xa3	-93
97	0x9b	-101
98	0xfb	-5
99	0xae	-82
100	0xc3	-61
101	0xc4	-60
102	0xb2	-78
103	0x70	112
104	0x39	57
105	0x3f	63
106	0x0e	14
107	0x10	16
108	0x00	0
109	0x88	-120
110	0x46	70
111	0xc3	-61
112	0x04	4
113	0x4e	78
114	0x8e	-114
115	0xe5	-27
116	0x37	55
117	0xb2	-78
118	0xfa	-6
119	0x83	-125
120	0x95	-107
121	0x32	50
122	0x0f	15
123	0x29	41
124	0x68	104
125	0x20	32
126	0x5d	93
127	0x23	35
128	0x1b	27
129	0x42	66
130	0x14	20
131	0xa6	-90
132	0xb1	-79
133	0x29	41
134	0xc3	-61
135	0xdf	-33
136	0x23	35
137	0x55	85
138	0xc9	-55
139	0xd7	-41
140	0x81	-127
141	0x0a	10
142	0x41	65
143	0x3a	58
144	0x77	119
145	0x44	68
146	0x9f	-97
147	0xe8	-24
148	0xcd	-51
149	0xc7	-57
150	0xa1	-95
151	0x15	21
152	0x04	4
153	0x01	1
154	0xc3	-61
155	0x62	98
156	0xba	-70
157	0xe2	-30
158	0xb7	-73
159	0x7f	127
160	0xaa	-86
161	0x57	87
162	0x70	112
163	0x97	-105
164	0x0b	11
165	0x40	64
166	0x33	51
167	0x62	98
168	0x2b	43
169	0xc8	-56
170	0xba	-70
171	0xc2	-62
172	0x2d	45
173	0x27	39
174	0x4c	76
175	0x74	116
176	0x98	-104
177	0x9a	-102
178	0x6c	108
179	0xc5	-59
180	0x90	-112
181	0xdf	-33
182	0x59	89
183	0x99	-103
184	0xb1	-79
185	0x4e	78
186	0x52	82
187	0x8e	-114
188	0xc4	-60
189	0xf0	-16
190	0xc7	-57
191	0xe7	-25
192	0xd2	-46
193	0x61	97
194	0xa5	-91
195	0x2c	44
196	0x69	105
197	0xdd	-35
198	0x53	83
199	0xb6	-74
200	0x34	52
201	0x0e	14
202	0xca	-54
203	0x2a	42
204	0x75	117
205	0xb4	-76
206	0xc1	-63
207	0x4e	78
208	0xc2	-62
209	0x18	24
210	0xb3	-77
211	0xc1	-63
212	0xf4	-12
213	0xb3	-77
214	0x29	41
215	0x28	40
216	0x63	99
217	0x79	121
218	0x75	117
219	0x07	7
220	0x1d	29
221	0xcb	-53
222	0xdf	-33
223	0xb9	-71
224	0xfd	-3
225	0xa0	-96
226	0x7b	123
227	0x79	121
228	0x05	5
229	0x57	87
230	0x67	103
231	0xd0	-48
232	0xd2	-46
233	0x10	16
234	0x61	97
235	0x1d	29
236	0x93	-109
237	0x73	115
238	0xc1	-63
239	0x11	17
240	0xb2	-78
241	0x40	64
242	0xa0	-96
243	0x9c	-100
244	0xe8	-24
245	0xae	-82
246	0x2f	47
247	0x01	1
248	0xcb	-53
249	0x4e	78
250	0xba	-70
251	0x6f	111
252	0x90	-112
253	0x24	36
254	0xa0	-96
255	0x91	-111

model/conv2d_5/Conv2D i1 [64, 3, 3, 64]
0	0x3a	58
1	0x8e	-114
2	0x68	104
3	0xf6	-10
4	0xa2	-94
5	0xdd	-35
6	0xb0	-80
7	0x8c	-116
8	0x23	35
9	0x9a	-102
10	0x23	35
11	0x48	72
12	0x12	18
13	0x6a	106
14	0x10	16
15	0x49	73
16	0x4f	79
17	0x41	65
18	0xf8	-8
19	0xc3	-61
20	0x8e	-114
21	0x0f	15
22	0x3d	61
23	0x43	67
24	0xe3	-29
25	0x0f	15
26	0x49	73
27	0xd1	-47
28	0xf4	-12
29	0x7c	124
30	0xd0	-48
31	0x45	69
32	0x90	-112
33	0x75	117
34	0x0b	11
35	0x5d	93
36	0x15	21
37	0x58	88
38	0x47	71
39	0x91	-111
40	0xa4	-92
41	0x14	20
42	0x10	16
43	0x22	34
44	0x85	-123
45	0xb6	-74
46	0xe6	-26
47	0xc5	-59
48	0x3c	60
49	0x7f	127
50	0xd0	-48
51	0xa3	-93
52	0x82	-126
53	0x30	48
54	0x16	22
55	0xac	-84
56	0xd9	-39
57	0x17	23
58	0x40	64
59	0x7a	122
60	0x56	86
61	0x43	67
62	0x29	41
63	0xda	-38
64	0x10	16
65	0x6e	110
66	0xe9	-23
67	0x6a	106
68	0xd6	-42
69	0xe7	-25
70	0x00	0
71	0x03	3
72	0x2e	46
73	0xfc	-4
74	0x61	97
75	0xbb	-69
76	0x6d	109
77	0x6f	111
78	0x74	116
79	0xf2	-14
80	0x63	99
81	0xbc	-68
82	0xf2	-14
83	0xcc	-52
84	0x97	-105
85	0xf9	-7
86	0xc3	-61
87	0x6e	110
88	0x8f	-113
89	0x2f	47
90	0x2e	46
91	0xdf	-33
92	0x9b	-101
93	0x12	18
94	0x72	114
95	0x0e	14
96	0x03	3
97	0x07	7
98	0x78	120
99	0xb0	-80
100	0x7e	126
101	0x40	64
102	0x46	70
103	0xa4	-92
104	0x07	7
105	0x06	6
106	0x2e	46
107	0x0b	11
108	0x62	98
109	0x1a	26
110	0x79	121
111	0x40	64
112	0x40	64
113	0x3c	60
114	0x2f	47
115	0x4a	74
116	0x4f	79
117	0x79	121
118	0xa9	-87
119	0x31	49
120	0xfb	-5
121	0xf6	-10
122	0x24	36
123	0xa6	-90
124	0x6e	110
125	0x35	53
126	0xf0	-16
127	0x0f	15
128	0x88	-120
129	0x1c	28
130	0xa9	-87
131	0x93	-109
132	0xf2	-14
133	0x73	115
134	0x75	117
135	0xf9	-7
136	0x53	83
137	0x46	70
138	0xc8	-56
139	0x4b	75
140	0x6a	106
141	0x28	40
142	0x4c	76
143	0x5e	94
144	0x78	120
145	0x55	85
146	0xdb	-37
147	0x66	102
148	0xbb	-69
149	0xc7	-57
150	0x8a	-118
151	0xda	-38
152	0x58	88
153	0xfc	-4
154	0x60	96
155	0x20	32
156	0x9e	-98
157	0xb3	-77
158	0x63	99
159	0x83	-125
160	0xaf	-81
161	0x07	7
162	0xb4	-76
163	0x18	24
164	0xfb	-5
165	0x44	68
166	0xfb	-5
167	0x0e	14
168	0x5a	90
169	0x49	73
170	0x06	6
171	0x6f	111
172	0x61	97
173	0x1a	26
174	0x75	117
175	0xa8	-88
176	0x4e	78
177	0xbf	-65
178	0x73	115
179	0x3d	61
180	0x48	72
181	0xb2	-78
182	0xdc	-36
183	0xe3	-29
184	0x32	50
185	0x95	-107
186	0xec	-20
187	0xc0	-64
188	0xff	-1
189	0xa4	-92
190	0x63	99
191	0x6f	111
192	0x9f	-97
193	0x52	82
194	0x89	-119
195	0x34	52
196	0x9a	-102
197	0xe6	-26
198	0x7a	122
199	0x37	55
200	0x2b	43
201	0xe9	-23
202	0x02	2
203	0x5f	95
204	0xae	-82
205	0xa5	-91
206	0x9b	-101
207	0x25	37
208	0x75	117
209	0xce	-50
210	0x6b	107
211	0xab	-85
212	0xde	-34
213	0x43	67
214	0x4f	79
215	0x9e	-98
216	0xb9	-71
217	0xc2	-62
218	0x4a	74
219	0xac	-84
220	0x99	-103
221	0xdc	-36
222	0x25	37
223	0xf5	-11
224	0x88	-120
225	0x5a	90
226	0x46	70
227	0xee	-18
228	0x9e	-98
229	0xe1	-31
230	0x76	118
231	0x9e	-98
232	0xde	-34
233	0xac	-84
234	0x34	52
235	0x0e	14
236	0xde	-34
237	0x38	56
238	0x03	3
239	0x5a	90
240	0x6d	109
241	0x88	-120
242	0x60	96
243	0x6c	108
244	0x21	33
245	0x75	117
246	0x8e	-114
247	0x6c	108
248	0x87	-121
249	0xb1	-79
250	0x24	36
251	0x8a	-118
252	0x51	81
253	0xac	-84
254	0xa5	-91
255	0x1a	26

model/time_distributed/dense/MatMul1 i1 [64, 128] scale=0.0013918044 zero_point=0
0	0x59	0.1238706
1	0xd2	-0.064023
2	0x1d	0.04036233
3	0x63	0.13778864
4	0x17	0.0320115
5	0x64	0.13918044
6	0x56	0.11969518
7	0x8b	-0.16284111
8	0xa1	-0.13222142
9	0xb0	-0.11134435
10	0x9c	-0.13918044
11	0x34	0.07237383
12	0x60	0.13361323
13	0xb5	-0.10438533
14	0x7e	0.17536736
15	0x31	0.06819842
16	0xd9	-0.054280374
17	0x2f	0.06541481
18	0xdf	-0.045929547
19	0xef	-0.023660675
20	0x4a	0.102993526
21	0x60	0.13361323
22	0xe6	-0.036186915
23	0xa1	-0.13222142
24	0xdf	-0.045929547
25	0x1c	0.038970523
26	0x1b	0.03757872
27	0x9b	-0.14057225
28	0x53	0.11551977
29	0xf9	-0.009742631
30	0xff	-0.0013918044
31	0xea	-0.030619698
32	0xb2	-0.10856075
33	0xec	-0.027836088
34	0xed	-0.026444284
35	0xb9	-0.098818116
36	0xca	-0.07515744
37	0xd2	-0.064023
38	0x49	0.10160172
39	0x2f	0.06541481
40	0x49	0.10160172
41	0x01	0.0013918044
42	0x41	0.09046729
43	0x84	-0.17258374
44	0xa9	-0.121086985
45	0x8d	-0.16005751
46	0x12	0.02505248
47	0xc9	-0.07654925
48	0x47	0.098818116
49	0xc8	-0.077941045
50	0x24	0.05010496
51	0x14	0.027836088
52	0xd3	-0.0626312
53	0xc2	-0.08629187
54	0x60	0.13361323
55	0x71	0.1572739
56	0x18	0.033403307
57	0x54	0.116911575
58	0x40	0.08907548
59	0x66	0.14196405
60	0x8a	-0.16423292
61	0xe7	-0.03479511
62	0xf6	-0.013918044
63	0x52	0.114127964
64	0x98	-0.14474766
65	0x10	0.02226887
66	0x32	0.06959022
67	0x3c	0.08350827
68	0x17	0.0320115
69	0x89	-0.16562472
70	0xab	-0.11830337
71	0xcf	-0.06819842
72	0xb1	-0.10995255
73	0xe8	-0.033403307
74	0xdc	-0.05010496
75	0x2f	0.06541481
76	0xaf	-0.11273616
77	0xce	-0.06959022
78	0x48	0.10020992
79	0x09	0.01252624
80	0xb0	-0.11134435
81	0x86	-0.16980015
82	0xa6	-0.1252624
83	0x1d	0.04036233
84	0x82	-0.17536736
85	0x9a	-0.14196405
86	0x31	0.06819842
87	0xb6	-0.102993526
88	0x76	0.16423292
89	0xbf	-0.09046729
90	0x64	0.13918044
91	0x68	0.14474766
92	0xc3	-0.08490007
93	0x67	0.14335586
94	0x98	-0.14474766
95	0x96	-0.14753127
96	0x72	0.1586657
97	0x18	0.033403307
98	0xe9	-0.0320115
99	0xcd	-0.070982024
100	0x11	0.023660675
101	0xaf	-0.11273616
102	0xab	-0.11830337
103	0x8a	-0.16423292
104	0x3b	0.08211646
105	0x88	-0.16701654
106	0x26	0.05288857
107	0xf8	-0.011134435
108	0xf9	-0.009742631
109	0x8c	-0.16144931
110	0x26	0.05288857
111	0xb4	-0.10577714
112	0x6c	0.15031488
113	0x8e	-0.1586657
114	0xde	-0.04732135
115	0xaf	-0.11273616
116	0x8c	-0.16144931
117	0xa3	-0.12943782
118	0xa7	-0.1238706
119	0x95	-0.14892307
120	0x35	0.073765635
121	0x10	0.02226887
122	0xf2	-0.019485261
123	0x40	0.08907548
124	0x19	0.03479511
125	0x50	0.11134435
126	0x67	0.14335586
127	0xf0	-0.02226887
128	0xc7	-0.07933285
129	0xa2	-0.13082962
130	0xf7	-0.01252624
131	0xa0	-0.13361323
132	0xfa	-0.008350827
133	0x48	0.10020992
134	0xef	-0.023660675
135	0x8f	-0.1572739
136	0x02	0.0027836089
137	0xfa	-0.008350827
138	0x11	0.023660675
139	0x08	0.011134435
140	0x7c	0.17258374
141	0xb0	-0.11134435
142	0x8f	-0.1572739
143	0x35	0.073765635
144	0x5f	0.13222142
145	0xc0	-0.08907548
146	0x5d	0.12943782
147	0xa7	-0.1238706
148	0x89	-0.16562472
149	0x1d	0.04036233
150	0xa7	-0.1238706
151	0x1e	0.041754134
152	0x4e	0.10856075
153	0x9d	-0.13778864
154	0xc7	-0.07933285
155	0x29	0.057063982
156	0x93	-0.15170668
157	0x91	-0.15449029
158	0x91	-0.15449029
159	0x53	0.11551977
160	0x64	0.13918044
161	0x95	-0.14892307
162	0x93	-0.15170668
163	0x9e	-0.13639684
164	0x4d	0.10716894
165	0xa8	-0.12247879
166	0x21	0.045929547
167	0xa7	-0.1238706
168	0xe5	-0.03757872
169	0x03	0.0041754134
170	0xeb	-0.029227894
171	0xd2	-0.064023
172	0x7f	0.17675917
173	0x4e	0.10856075
174	0xc4	-0.08350827
175	0x05	0.006959022
176	0x0c	0.016701654
177	0x77	0.16562472
178	0xb7	-0.10160172
179	0x92	-0.1530985
180	0x9a	-0.14196405
181	0x4f	0.10995255
182	0xaf	-0.11273616
183	0x97	-0.14613946
184	0xeb	-0.029227894
185	0x0d	0.018093457
186	0xa3	-0.12943782
187	0x52	0.114127964
188	0xd0	-0.066806614
189	0x8d	-0.16005751
190	0x4c	0.10577714
191	0xe5	-0.03757872
192	0x44	0.0946427
193	0x85	-0.17119195
194	0xc7	-0.07933285
195	0x44	0.0946427
196	0x92	-0.1530985
197	0x57	0.121086985
198	0x40	0.08907548
199	0x18	0.033403307
200	0xdf	-0.045929547
201	0x3e	0.08629187
202	0x5f	0.13222142
203	0x4d	0.10716894
204	0x17	0.0320115
205	0xca	-0.07515744
206	0xb2	-0.10856075
207	0x7d	0.17397556
208	0xd3	-0.0626312
209	0x93	-0.15170668
210	0xfe	-0.0027836089
211	0x19	0.03479511
212	0x39	0.07933285
213	0xf8	-0.011134435
214	0xa8	-0.12247879
215	0x70	0.15588209
216	0x0e	0.019485261
217	0x6b	0.14892307
218	0x83	-0.17397556
219	0xc9	-0.07654925
220	0x3d	0.08490007
221	0xbd	-0.09325089
222	0x3e	0.08629187
223	0x4f	0.10995255
224	0x63	0.13778864
225	0x53	0.11551977
226	0xef	-0.023660675
227	0x44	0.0946427
228	0x8c	-0.16144931
229	0x28	0.055672176
230	0x92	-0.1530985
231	0x32	0.06959022
232	0xee	-0.02505248
233	0x8e	-0.1586657
234	0x3f	0.08768368
235	0x9b	-0.14057225
236	0x20	0.04453774
237	0xee	-0.02505248
238	0xe2	-0.041754134
239	0x90	-0.15588209
240	0x19	0.03479511
241	0x92	-0.1530985
242	0x3f	0.08768368
243	0x5c	0.128046
244	0x4a	0.102993526
245	0xeb	-0.029227894
246	0x51	0.11273616
247	0x02	0.0027836089
248	0x6f	0.15449029
249	0x10	0.02226887
250	0xc0	-0.08907548
251	0x73	0.16005751
252	0x92	-0.1530985
253	0x51	0.11273616
254	0x9f	-0.13500503
255	0xff	-0.0013918044

while/MatMul_1 i1 [192, 64] scale=0.0021766818 zero_point=0
0	0xfc	-0.008706727
1	0xeb	-0.045710318
2	0xf3	-0.028296864
3	0x1d	0.06312377
4	0xcd	-0.11101077
5	0x20	0.06965382
6	0xee	-0.03918027
7	0x1f	0.06747714
8	0x05	0.010883409
9	0x0b	0.023943499
10	0xe4	-0.06094709
11	0xf5	-0.023943499
12	0xe9	-0.05006368
13	0x13	0.041356955
14	0x08	0.017413454
15	0xf5	-0.023943499
16	0x15	0.045710318
17	0x2d	0.09795068
18	0xee	-0.03918027
19	0xeb	-0.045710318
20	0x03	0.0065300455
21	0x0d	0.028296864
22	0xf9	-0.015236773
23	0x26	0.08271391
24	0xed	-0.041356955
25	0x13	0.041356955
26	0x28	0.08706727
27	0x6a	0.23072827
28	0x11	0.03700359
29	0x14	0.043533634
30	0xfd	-0.0065300455
31	0xdc	-0.07836054
32	0x35	0.115364134
33	0x46	0.15236773
34	0x18	0.052240364
35	0xe0	-0.06965382
36	0x1b	0.058770407
37	0xf9	-0.015236773
38	0xf7	-0.019590136
39	0x0b	0.023943499
40	0xfb	-0.010883409
41	0xea	-0.047886997
42	0x16	0.047886997
43	0xf8	-0.017413454
44	0xd2	-0.10012736
45	0x0b	0.023943499
46	0xfb	-0.010883409
47	0x07	0.015236773
48	0x0d	0.028296864
49	0x27	0.08489059
50	0xf7	-0.019590136
51	0x13	0.041356955
52	0x0a	0.021766817
53	0x1b	0.058770407
54	0x0e	0.030473545
55	0x02	0.0043533635
56	0xf2	-0.030473545
57	0x43	0.14583768
58	0xfc	-0.008706727
59	0x0d	0.028296864
60	0xfd	-0.0065300455
61	0x23	0.07618386
62	0xfc	-0.008706727
63	0xd6	-0.091420636
64	0x18	0.052240364
65	0x25	0.08053722
66	0x02	0.0043533635
67	0x10	0.03482691
68	0xd7	-0.089243956
69	0x27	0.08489059
70	0x0f	0.032650225
71	0x06	0.013060091
72	0xe7	-0.054417044
73	0x21	0.071830496
74	0xde	-0.07400718
75	0x30	0.10448073
76	0x16	0.047886997
77	0xf1	-0.032650225
78	0xcc	-0.113187455
79	0xf8	-0.017413454
80	0x2a	0.091420636
81	0x10	0.03482691
82	0x06	0.013060091
83	0xf7	-0.019590136
84	0x17	0.05006368
85	0x27	0.08489059
86	0x0a	0.021766817
87	0x03	0.0065300455
88	0x0f	0.032650225
89	0x15	0.045710318
90	0x15	0.045710318
91	0xc0	-0.13930763
92	0x59	0.19372468
93	0xeb	-0.045710318
94	0x01	0.0021766818
95	0xca	-0.117540814
96	0x1f	0.06747714
97	0xb8	-0.15672109
98	0x0f	0.032650225
99	0xdd	-0.07618386
100	0xe7	-0.054417044
101	0xd1	-0.10230404
102	0xf4	-0.026120182
103	0x05	0.010883409
104	0xf2	-0.030473545
105	0x08	0.017413454
106	0x29	0.089243956
107	0x0f	0.032650225
108	0x3c	0.1306009
109	0x00	0.0
110	0xe1	-0.06747714
111	0x4a	0.16107444
112	0x23	0.07618386
113	0x14	0.043533634
114	0xdc	-0.07836054
115	0xec	-0.043533634
116	0x15	0.045710318
117	0x24	0.07836054
118	0xd8	-0.08706727
119	0xff	-0.0021766818
120	0xfe	-0.0043533635
121	0xf5	-0.023943499
122	0x10	0.03482691
123	0xde	-0.07400718
124	0xe9	-0.05006368
125	0xd0	-0.10448073
126	0x36	0.117540814
127	0x17	0.05006368
128	0xef	-0.03700359
129	0x29	0.089243956
130	0xee	-0.03918027
131	0x0b	0.023943499
132	0x25	0.08053722
133	0x0a	0.021766817
134	0x3e	0.13495427
135	0xed	-0.041356955
136	0x0d	0.028296864
137	0x1f	0.06747714
138	0xda	-0.08271391
139	0x23	0.07618386
140	0x10	0.03482691
141	0xb8	-0.15672109
142	0x27	0.08489059
143	0xe5	-0.058770407
144	0xf3	-0.028296864
145	0x22	0.07400718
146	0x14	0.043533634
147	0xc6	-0.12624754
148	0xf7	-0.019590136
149	0xef	-0.03700359
150	0xe3	-0.06312377
151	0x18	0.052240364
152	0x38	0.12189418
153	0xb9	-0.1545444
154	0xce	-0.10883409
155	0xe7	-0.054417044
156	0xc8	-0.12189418
157	0xf0	-0.03482691
158	0x1e	0.06530045
159	0x04	0.008706727
160	0x18	0.052240364
161	0x48	0.15672109
162	0xe0	-0.06965382
163	0x11	0.03700359
164	0x2d	0.09795068
165	0x2d	0.09795068
166	0x02	0.0043533635
167	0x19	0.054417044
168	0x07	0.015236773
169	0x09	0.019590136
170	0xf3	-0.028296864
171	0x05	0.010883409
172	0xcb	-0.115364134
173	0xf5	-0.023943499
174	0x11	0.03700359
175	0x50	0.17413454
176	0xdc	-0.07836054
177	0x41	0.14148432
178	0xae	-0.17848791
179	0x2d	0.09795068
180	0x29	0.089243956
181	0x04	0.008706727
182	0x0b	0.023943499
183	0xfa	-0.013060091
184	0xfb	-0.010883409
185	0x06	0.013060091
186	0xe2	-0.06530045
187	0xe5	-0.058770407
188	0xc8	-0.12189418
189	0xf8	-0.017413454
190	0x32	0.10883409
191	0x25	0.08053722
192	0xd5	-0.093597315
193	0x0d	0.028296864
194	0xfc	-0.008706727
195	0x56	0.18719463
196	0xf4	-0.026120182
197	0x11	0.03700359
198	0x1e	0.06530045
199	0xdf	-0.071830496
200	0xc8	-0.12189418
201	0xd1	-0.10230404
202	0x2b	0.093597315
203	0x0b	0.023943499
204	0xbd	-0.14583768
205	0x01	0.0021766818
206	0x0c	0.026120182
207	0xf4	-0.026120182
208	0xfe	-0.0043533635
209	0x15	0.045710318
210	0xfc	-0.008706727
211	0x01	0.0021766818
212	0x05	0.010883409
213	0xf6	-0.021766817
214	0x07	0.015236773
215	0xeb	-0.045710318
216	0xf7	-0.019590136
217	0xd6	-0.091420636
218	0x06	0.013060091
219	0xfd	-0.0065300455
220	0xfd	-0.0065300455
221	0xef	-0.03700359
222	0x18	0.052240364
223	0x13	0.041356955
224	0x07	0.015236773
225	0xe3	-0.06312377
226	0x18	0.052240364
227	0xfa	-0.013060091
228	0x1e	0.06530045
229	0x0e	0.030473545
230	0xd8	-0.08706727
231	0xdc	-0.07836054
232	0x0e	0.030473545
233	0xfc	-0.008706727
234	0x3c	0.1306009
235	0x35	0.115364134
236	0x0e	0.030473545
237	0x3a	0.12624754
238	0xf9	-0.015236773
239	0xe9	-0.05006368
240	0x15	0.045710318
241	0xf7	-0.019590136
242	0x42	0.14366099
243	0xd6	-0.091420636
244	0xfb	-0.010883409
245	0x34	0.113187455
246	0xee	-0.03918027
247	0xd4	-0.095773995
248	0x07	0.015236773
249	0xc7	-0.12407086
250	0x06	0.013060091
251	0x15	0.045710318
252	0xa3	-0.20243141
253	0x14	0.043533634
254	0xea	-0.047886997
255	0x36	0.117540814

while/MatMul i1 [192, 64] scale=0.0012054231 zero_point=0
0	0x83	-0.15067789
1	0xc7	-0.06870912
2	0x2c	0.05303862
3	0x8d	-0.13862365
4	0xc5	-0.071119964
5	0x7a	0.14706163
6	0xa1	-0.1145152
7	0xe9	-0.027724732
8	0xe5	-0.032546423
9	0x29	0.04942235
10	0x7c	0.14947248
11	0xd7	-0.04942235
12	0xe0	-0.03857354
13	0x54	0.10125554
14	0xbb	-0.0831742
15	0xdd	-0.04218981
16	0x09	0.010848808
17	0xdd	-0.04218981
18	0xb6	-0.089201316
19	0x07	0.008437962
20	0x03	0.0036162694
21	0x61	0.116926044
22	0x4b	0.09040674
23	0x71	0.13621281
24	0xc8	-0.0675037
25	0x03	0.0036162694
26	0xe9	-0.027724732
27	0x97	-0.12656944
28	0xc3	-0.073530816
29	0x10	0.01928677
30	0x95	-0.12898028
31	0x68	0.125364
32	0x27	0.047011502
33	0x6c	0.1301857
34	0xf9	-0.008437962
35	0xca	-0.06509285
36	0x6d	0.13139112
37	0x63	0.11933689
38	0x39	0.06870912
39	0x9a	-0.12295316
40	0xe4	-0.03375185
41	0x5b	0.109693505
42	0xaf	-0.09763928
43	0x89	-0.14344536
44	0xaa	-0.10366639
45	0x2f	0.05665489
46	0x48	0.086790465
47	0xe2	-0.036162693
48	0x51	0.09763928
49	0xf5	-0.013259655
50	0x33	0.06147658
51	0xde	-0.04098439
52	0x30	0.05786031
53	0x9e	-0.118131466
54	0x5f	0.1145152
55	0x1f	0.03736812
56	0xef	-0.020492194
57	0x1c	0.03375185
58	0x5a	0.10848808
59	0x15	0.025313886
60	0xc3	-0.073530816
61	0x7c	0.14947248
62	0xf3	-0.0156705
63	0x58	0.10607724
64	0x26	0.04580608
65	0xaf	-0.09763928
66	0x63	0.11933689
67	0xb9	-0.08558504
68	0x70	0.1350074
69	0x0b	0.013259655
70	0x70	0.1350074
71	0x54	0.10125554
72	0x27	0.047011502
73	0xfd	-0.0036162694
74	0xe1	-0.03736812
75	0xbe	-0.079557925
76	0x6a	0.12777485
77	0x9e	-0.118131466
78	0x9f	-0.116926044
79	0xab	-0.102460966
80	0x26	0.04580608
81	0x77	0.14344536
82	0xb3	-0.09281758
83	0x9b	-0.12174774
84	0xea	-0.02651931
85	0x23	0.04218981
86	0xa0	-0.11572062
87	0x99	-0.12415858
88	0x01	0.0012054231
89	0x42	0.079557925
90	0x5f	0.1145152
91	0x9d	-0.11933689
92	0x6d	0.13139112
93	0xe6	-0.031341
94	0x1c	0.03375185
95	0xd9	-0.047011502
96	0x40	0.07714708
97	0xb5	-0.09040674
98	0x2a	0.05062777
99	0x86	-0.14706163
100	0xca	-0.06509285
101	0xd4	-0.05303862
102	0x41	0.0783525
103	0xac	-0.10125554
104	0x71	0.13621281
105	0x08	0.009643385
106	0xba	-0.08437962
107	0xdb	-0.044600658
108	0x39	0.06870912
109	0x4a	0.089201316
110	0x70	0.1350074
111	0x3c	0.072325386
112	0xee	-0.021697616
113	0x55	0.102460966
114	0xd8	-0.048216924
115	0x5d	0.11210436
116	0x00	0.0
117	0x53	0.10005012
118	0xd5	-0.051833194
119	0xa0	-0.11572062
120	0x40	0.07714708
121	0xfa	-0.007232539
122	0xd0	-0.05786031
123	0xd2	-0.055449463
124	0xd8	-0.048216924
125	0xf6	-0.012054231
126	0xf7	-0.010848808
127	0x72	0.13741824
128	0xc4	-0.072325386
129	0x7d	0.15067789
130	0xb0	-0.09643385
131	0x90	-0.1350074
132	0xcf	-0.059065733
133	0xcd	-0.06147658
134	0xce	-0.06027116
135	0x8d	-0.13862365
136	0xf7	-0.010848808
137	0x65	0.12174774
138	0x64	0.12054232
139	0x23	0.04218981
140	0x3c	0.072325386
141	0x89	-0.14344536
142	0xcc	-0.062682
143	0x82	-0.15188332
144	0x84	-0.14947248
145	0xc9	-0.066298276
146	0x23	0.04218981
147	0xf4	-0.014465078
148	0x10	0.01928677
149	0x34	0.062682
150	0x2a	0.05062777
151	0xbc	-0.08196878
152	0x1f	0.03736812
153	0x67	0.12415858
154	0x49	0.08799589
155	0xdb	-0.044600658
156	0x6c	0.1301857
157	0x02	0.0024108463
158	0x91	-0.13380197
159	0x50	0.09643385
160	0xc2	-0.07473624
161	0xd9	-0.047011502
162	0xf8	-0.009643385
163	0x72	0.13741824
164	0x15	0.025313886
165	0xac	-0.10125554
166	0x79	0.1458562
167	0xe4	-0.03375185
168	0x63	0.11933689
169	0x9b	-0.12174774
170	0x44	0.08196878
171	0x87	-0.1458562
172	0x17	0.027724732
173	0x37	0.066298276
174	0xa0	-0.11572062
175	0xd7	-0.04942235
176	0x8d	-0.13862365
177	0x1e	0.036162693
178	0x0c	0.014465078
179	0xef	-0.020492194
180	0x6d	0.13139112
181	0x04	0.0048216926
182	0x35	0.063887425
183	0xb6	-0.089201316
184	0xe5	-0.032546423
185	0x45	0.0831742
186	0xa7	-0.10728266
187	0x4a	0.089201316
188	0x3c	0.072325386
189	0x74	0.13982908
190	0xc2	-0.07473624
191	0x7e	0.15188332
192	0xe8	-0.028930156
193	0xa9	-0.10487182
194	0xe8	-0.028930156
195	0x70	0.1350074
196	0x6c	0.1301857
197	0x9d	-0.11933689
198	0xa6	-0.10848808
199	0x03	0.0036162694
200	0x34	0.062682
201	0x08	0.009643385
202	0xa7	-0.10728266
203	0x8e	-0.13741824
204	0x2c	0.05303862
205	0x1b	0.032546423
206	0x91	-0.13380197
207	0x25	0.044600658
208	0xe5	-0.032546423
209	0xf7	-0.010848808
210	0x13	0.02290304
211	0x32	0.06027116
212	0x9d	-0.11933689
213	0x71	0.13621281
214	0xd5	-0.051833194
215	0x68	0.125364
216	0x78	0.14465077
217	0xd3	-0.05424404
218	0xbf	-0.0783525
219	0xa1	-0.1145152
220	0xd0	-0.05786031
221	0x6e	0.13259655
222	0x55	0.102460966
223	0x77	0.14344536
224	0x3b	0.071119964
225	0xf6	-0.012054231
226	0x16	0.02651931
227	0xc4	-0.072325386
228	0xc6	-0.06991454
229	0x5e	0.11330978
230	0x98	-0.125364
231	0xc6	-0.06991454
232	0x8b	-0.14103451
233	0x66	0.12295316
234	0x4b	0.09040674
235	0xd1	-0.05665489
236	0x10	0.01928677
237	0x13	0.02290304
238	0x07	0.008437962
239	0xb8	-0.086790465
240	0x84	-0.14947248
241	0xe6	-0.031341
242	0x3b	0.071119964
243	0xae	-0.0988447
244	0xd0	-0.05786031
245	0x46	0.08437962
246	0x76	0.14223993
247	0x06	0.007232539
248	0xcf	-0.059065733
249	0xb2	-0.094023004
250	0x86	-0.14706163
251	0x55	0.102460966
252	0x18	0.028930156
253	0x58	0.10607724
254	0xc3	-0.073530816
255	0x95	-0.12898028

while/MatMul_11 i1 [192, 64] scale=0.0023999389 zero_point=0
0	0xf5	-0.026399327
1	0xee	-0.0431989
2	0x1d	0.06959823
3	0x03	0.0071998164
4	0xd9	-0.09359761
5	0xf2	-0.033599146
6	0x02	0.0047998778
7	0xfa	-0.014399633
8	0x3d	0.14639626
9	0x2a	0.10079743
10	0xea	-0.052798655
11	0x0a	0.02399939
12	0x06	0.014399633
13	0xb8	-0.1727956
14	0x09	0.02159945
15	0xe1	-0.07439811
16	0x18	0.05759853
17	0x24	0.0863978
18	0xdf	-0.07919798
19	0xd8	-0.09599756
20	0x1a	0.06239841
21	0x09	0.02159945
22	0x2c	0.10559731
23	0x2c	0.10559731
24	0x2c	0.10559731
25	0xef	-0.040798962
26	0xe1	-0.07439811
27	0xfe	-0.0047998778
28	0xf7	-0.02159945
29	0x0a	0.02399939
30	0x26	0.09119768
31	0x1e	0.071998164
32	0x12	0.0431989
33	0x0c	0.028799266
34	0xd3	-0.107997246
35	0x0c	0.028799266
36	0x12	0.0431989
37	0x02	0.0047998778
38	0xed	-0.04559884
39	0x0a	0.02399939
40	0x0c	0.028799266
41	0xfd	-0.0071998164
42	0x06	0.014399633
43	0xb6	-0.17759548
44	0xdc	-0.0863978
45	0x22	0.081597924
46	0xff	-0.0023999389
47	0xe1	-0.07439811
48	0x01	0.0023999389
49	0x0e	0.033599146
50	0x0b	0.026399327
51	0x19	0.05999847
52	0xd9	-0.09359761
53	0xc9	-0.13199663
54	0xd9	-0.09359761
55	0xef	-0.040798962
56	0x42	0.15839596
57	0x0e	0.033599146
58	0xfa	-0.014399633
59	0x06	0.014399633
60	0x03	0.0071998164
61	0xc3	-0.14639626
62	0xcf	-0.117597006
63	0x09	0.02159945
64	0xfa	-0.014399633
65	0x08	0.019199511
66	0xd7	-0.09839749
67	0x0a	0.02399939
68	0x06	0.014399633
69	0xf6	-0.02399939
70	0xf8	-0.019199511
71	0xfd	-0.0071998164
72	0x29	0.09839749
73	0x1b	0.06479835
74	0x1d	0.06959823
75	0xe8	-0.05759853
76	0xdc	-0.0863978
77	0xfc	-0.0095997555
78	0x22	0.081597924
79	0xe8	-0.05759853
80	0x26	0.09119768
81	0x30	0.11519706
82	0xe8	-0.05759853
83	0x19	0.05999847
84	0xfe	-0.0047998778
85	0x1f	0.07439811
86	0xd2	-0.11039719
87	0x39	0.13679652
88	0xd7	-0.09839749
89	0x0a	0.02399939
90	0xfe	-0.0047998778
91	0x35	0.12719676
92	0x1c	0.06719829
93	0x0e	0.033599146
94	0x20	0.076798044
95	0xe3	-0.06959823
96	0xdb	-0.08879774
97	0x1a	0.06239841
98	0xef	-0.040798962
99	0x25	0.08879774
100	0xf6	-0.02399939
101	0xf2	-0.033599146
102	0x23	0.08399786
103	0x0b	0.026399327
104	0x18	0.05759853
105	0xd8	-0.09599756
106	0x14	0.04799878
107	0x39	0.13679652
108	0xf1	-0.035999082
109	0x11	0.040798962
110	0x02	0.0047998778
111	0xf0	-0.038399022
112	0x0a	0.02399939
113	0xdf	-0.07919798
114	0x0a	0.02399939
115	0xfc	-0.0095997555
116	0x12	0.0431989
117	0xf1	-0.035999082
118	0xf3	-0.031199206
119	0xde	-0.081597924
120	0xf6	-0.02399939
121	0x07	0.016799573
122	0xe8	-0.05759853
123	0xea	-0.052798655
124	0xdd	-0.08399786
125	0xc9	-0.13199663
126	0xfe	-0.0047998778
127	0xfe	-0.0047998778
128	0x21	0.07919798
129	0x20	0.076798044
130	0x10	0.038399022
131	0x05	0.011999695
132	0x20	0.076798044
133	0x1f	0.07439811
134	0x01	0.0023999389
135	0xe7	-0.05999847
136	0xf7	-0.02159945
137	0xf4	-0.028799266
138	0xe3	-0.06959823
139	0x26	0.09119768
140	0xe8	-0.05759853
141	0xac	-0.20159486
142	0xec	-0.04799878
143	0xe5	-0.06479835
144	0x1f	0.07439811
145	0x03	0.0071998164
146	0x10	0.038399022
147	0x07	0.016799573
148	0xf8	-0.019199511
149	0xf7	-0.02159945
150	0x10	0.038399022
151	0xf6	-0.02399939
152	0x07	0.016799573
153	0xec	-0.04799878
154	0xf6	-0.02399939
155	0xad	-0.19919492
156	0xf7	-0.02159945
157	0x2f	0.112797126
158	0x23	0.08399786
159	0x0c	0.028799266
160	0xea	-0.052798655
161	0xff	-0.0023999389
162	0xd8	-0.09599756
163	0xe9	-0.055198595
164	0x02	0.0047998778
165	0x38	0.13439658
166	0x03	0.0071998164
167	0x05	0.011999695
168	0x0e	0.033599146
169	0x04	0.0095997555
170	0xf7	-0.02159945
171	0x02	0.0047998778
172	0x00	0.0
173	0x26	0.09119768
174	0xdc	-0.0863978
175	0xde	-0.081597924
176	0xf9	-0.016799573
177	0x16	0.052798655
178	0xb9	-0.17039566
179	0xf8	-0.019199511
180	0xf8	-0.019199511
181	0xec	-0.04799878
182	0x10	0.038399022
183	0xed	-0.04559884
184	0x19	0.05999847
185	0xdb	-0.08879774
186	0xfd	-0.0071998164
187	0xe6	-0.06239841
188	0xf0	-0.038399022
189	0x33	0.12239689
190	0x03	0.0071998164
191	0x1c	0.06719829
192	0x1d	0.06959823
193	0xe4	-0.06719829
194	0x0d	0.031199206
195	0x26	0.09119768
196	0xd7	-0.09839749
197	0x41	0.15599602
198	0x18	0.05759853
199	0xff	-0.0023999389
200	0xf0	-0.038399022
201	0x24	0.0863978
202	0xe5	-0.06479835
203	0x13	0.04559884
204	0xf9	-0.016799573
205	0xf0	-0.038399022
206	0x03	0.0071998164
207	0xff	-0.0023999389
208	0x05	0.011999695
209	0x11	0.040798962
210	0xee	-0.0431989
211	0xee	-0.0431989
212	0x16	0.052798655
213	0xeb	-0.050398715
214	0x2b	0.10319737
215	0xe8	-0.05759853
216	0xd6	-0.10079743
217	0xf1	-0.035999082
218	0xb3	-0.18479529
219	0x2b	0.10319737
220	0x0b	0.026399327
221	0xd7	-0.09839749
222	0xf5	-0.026399327
223	0xf8	-0.019199511
224	0x02	0.0047998778
225	0xcc	-0.12479682
226	0x1a	0.06239841
227	0xed	-0.04559884
228	0x22	0.081597924
229	0x13	0.04559884
230	0x19	0.05999847
231	0xff	-0.0023999389
232	0x18	0.05759853
233	0xea	-0.052798655
234	0xcf	-0.117597006
235	0x28	0.09599756
236	0xf9	-0.016799573
237	0xb8	-0.1727956
238	0x14	0.04799878
239	0xd2	-0.11039719
240	0xe3	-0.06959823
241	0x36	0.1295967
242	0xda	-0.09119768
243	0x2b	0.10319737
244	0xfb	-0.011999695
245	0x2d	0.107997246
246	0xf8	-0.019199511
247	0xd4	-0.10559731
248	0xfc	-0.0095997555
249	0xf0	-0.038399022
250	0x05	0.011999695
251	0xf2	-0.033599146
252	0xf7	-0.02159945
253	0x01	0.0023999389
254	0xc4	-0.14399633
255	0xfa	-0.014399633
