python_quantization/tflite_models/microfaune_model_converted.tflite (tflite, 356504 bytes, 17 tensors)

model/time_distributed_1/dense_1/MatMul f4 [1, 64]
000000 70 d4 3e be c8 83 03 3d e8 75 90 3d d0 47 87 bd
       -0.18635726 0.0321081 0.07053739 -0.06605494
000010 55 54 83 be da c2 dd bd 64 be 5f bd d8 e4 fa 3d
       -0.25650278 -0.108281806 -0.05462493 0.1225068
000020 f0 6b 00 3d a0 28 96 be c3 4e 87 be c5 52 86 be
       0.031352937 -0.2932787 -0.26427278 -0.26235023
000030 ac 27 8f 3d 80 ed 6c bc 85 f3 1e be 70 86 80 be
       0.06989989 -0.014460921 -0.15522583 -0.25102568
000040 2e ed 62 be 00 fb 71 3d 3a 41 42 3e 1d fb 36 be
       -0.2216079 0.059077263 0.18970194 -0.1786923
000050 20 23 ab 3c 60 20 49 3d fe 43 1a 3e c8 60 bf bd
       0.020890772 0.04910314 0.15065 -0.093446314
000060 c0 45 55 bc 80 38 76 3e 8e df 93 bd ae da 97 bd
       -0.013017118 0.2404499 -0.07220374 -0.07414757
000070 f0 38 ef 3d 98 a7 fc 3d 28 81 ae 3d 40 1e 20 3e
       0.11680782 0.123366535 0.08520728 0.1563654
000080 10 2f 8d bd 74 28 34 3e 1b e6 79 be e0 1c 92 bc
       -0.06893742 0.17593557 -0.24404185 -0.017836034
000090 a8 41 43 be 40 95 78 3c e0 d0 5d bc 28 a6 e0 3d
       -0.19068015 0.015172303 -0.013538569 0.10969192
0000a0 2e 4d 39 3e a9 64 96 be cc a4 41 3e 14 2c 0b 3e
       0.18095848 -0.29373673 0.18910521 0.13591033
0000b0 26 d5 80 bd 52 e4 81 be 70 35 89 3c 3c 74 b5 3d
       -0.06290655 -0.25369507 0.016749114 0.088600606
0000c0 9e a5 9f bd 40 8e d9 3b 96 9e fb bd c8 2e 1f be
       -0.07795261 0.006639272 -0.12286107 -0.1554519
0000d0 04 f6 d9 bd 74 b3 fd 3d 60 a7 41 bd 7c ac 81 3e
       -0.10642627 0.123877436 -0.047278762 0.25326908
0000e0 10 07 8a bc b4 ca 30 3e cc d5 e1 bd 1e 2e 2b be
       -0.01684907 0.17264825 -0.11027107 -0.16716811
0000f0 70 7f 82 3e b4 4e 97 3d 10 56 92 3d 50 17 73 3e
       0.25487852 0.07388058 0.07145321 0.23739362

model/batch_normalization_1/FusedBatchNormV3/ReadVariableOp f4 [64]
000000 00 00 00 00 00 00 00 00 00 00 00 00 00 00 00 00
       0.0 0.0 0.0 0.0
000010 00 00 00 00 00 00 00 00 00 00 00 00 00 00 00 00
       0.0 0.0 0.0 0.0
000020 00 00 00 00 00 00 00 00 00 00 00 00 00 00 00 00
       0.0 0.0 0.0 0.0
000030 00 00 00 00 00 00 00 00 00 00 00 00 00 00 00 00
       0.0 0.0 0.0 0.0
000040 00 00 00 00 00 00 00 00 00 00 00 00 00 00 00 00
       0.0 0.0 0.0 0.0
000050 00 00 00 00 00 00 00 00 00 00 00 00 00 00 00 00
       0.0 0.0 0.0 0.0
000060 00 00 00 00 00 00 00 00 00 00 00 00 00 00 00 00
       0.0 0.0 0.0 0.0
000070 00 00 00 00 00 00 00 00 00 00 00 00 00 00 00 00
       0.0 0.0 0.0 0.0
000080 00 00 00 00 00 00 00 00 00 00 00 00 00 00 00 00
       0.0 0.0 0.0 0.0
000090 00 00 00 00 00 00 00 00 00 00 00 00 00 00 00 00
       0.0 0.0 0.0 0.0
0000a0 00 00 00 00 00 00 00 00 00 00 00 00 00 00 00 00
       0.0 0.0 0.0 0.0
0000b0 00 00 00 00 00 00 00 00 00 00 00 00 00 00 00 00
       0.0 0.0 0.0 0.0
0000c0 00 00 00 00 00 00 00 00 00 00 00 00 00 00 00 00
       0.0 0.0 0.0 0.0
0000d0 00 00 00 00 00 00 00 00 00 00 00 00 00 00 00 00
       0.0 0.0 0.0 0.0
0000e0 00 00 00 00 00 00 00 00 00 00 00 00 00 00 00 00
       0.0 0.0 0.0 0.0
0000f0 00 00 00 00 00 00 00 00 00 00 00 00 00 00 00 00
       0.0 0.0 0.0 0.0

model/conv2d/Conv2D f4 [64, 3, 3, 1]
000000 84 91 bd bd 1f c0 4d bd 1a 93 55 bd e9 06 6d bd
       -0.092562705 -0.05023205 -0.05214224 -0.05786792
000010 d5 1a 9a 3d 44 11 96 bd 77 82 b0 3d 47 8e 01 bd
       0.07524649 -0.07327512 0.08618634 -0.031629827
000020 31 7a 56 3d a0 04 db 3c 80 46 d6 bc 66 6c 1d 3d
       0.052362625 0.026735604 -0.026156664 0.038433455
000030 a3 d6 8a 3d 5e dc e4 3c 30 3a 67 3c bc 26 bc 3d
       0.0677922 0.02793711 0.014112994 0.091870755
000040 ef 67 13 bd d0 85 94 bd 50 df 66 3d da 44 49 3d
       -0.03598779 -0.07252085 0.05636531 0.049137928
000050 9e 1a 65 bc f3 62 91 bd ee 13 0d 3d fd 9b 92 3b
       -0.013983397 -0.07098951 0.034442835 0.0044741617
000060 f6 bd 93 3d 59 f7 70 bd a0 3c f7 bc 16 36 e0 3c
       0.072139665 -0.05882964 -0.030180275 0.02736954
000070 1f ca 8c 3d 9a 61 30 bd 0f 39 de ba 6f f6 8a bc
       0.06874489 -0.04306183 -0.0016954261 -0.016963212
000080 ab 27 01 bd c1 79 7d bd 8c b5 8e bb e9 23 34 bd
       -0.03153197 -0.06188369 -0.004355138 -0.04397956
000090 41 08 59 3d f3 7b c6 3d fa d1 cb bb 1b bb 85 bc
       0.052986387 0.0969161 -0.0062200995 -0.01632457
0000a0 9e 00 2e bd 79 85 5f 3d 70 93 6e 3c fa 84 b9 3d
       -0.042481057 0.05457065 0.014561519 0.090585664
0000b0 3a 16 2f bd 34 f9 1e 3d 20 ee a5 bc 96 22 ba bc
       -0.042745806 0.038811877 -0.020255148 -0.02272157
0000c0 94 55 97 3d 39 42 6e bd f5 c6 d4 bc 32 d0 27 3d
       0.073893696 -0.058168624 -0.025973776 0.040970035
0000d0 05 7e 3c 3d 09 51 7d bd 64 c4 91 3c 7f 37 54 3d
       0.04601862 -0.06184486 0.017793842 0.051810738
0000e0 64 3c 6c 3d 80 8e 71 bd 4a 9b 7f 3d a0 ca b2 3d
       0.05767478 -0.05897379 0.062403955 0.08730054
0000f0 73 5c 95 3d 69 d0 f7 3c c6 95 36 bd 38 c3 b3 bd
       0.07293024 0.030250745 -0.04457643 -0.087774694
000100 6f 15 bb 3b 8f 41 8e bd ec aa 43 bd c2 4e 22 bc
       0.005709342 -0.06946098 -0.047770426 -0.009906473
000110 66 05 ce bc f6 48 c8 bc cd ca ee bc 8f 2c c1 bc
       -0.025149059 -0.024448853 -0.029149437 -0.023580818
000120 c7 f7 63 3d 7e 52 bd bd 6d a9 97 bd 2a 19 ab bc
       0.05565622 -0.0924425 -0.07405362 -0.020886023
000130 55 83 86 bd d8 53 02 bd 3b 7d 1a 3d a6 e3 39 bd
       -0.06568018 -0.03181824 0.037717085 -0.045383118
000140 8f fd b3 bd 09 05 5d bd 00 3c e2 bc 82 56 56 3d
       -0.08788597 -0.05395988 -0.0276165 0.052328594
000150 c4 22 88 bb 36 04 8a bc fc 9d 98 3d 57 67 8d 3d
       -0.004154535 -0.016847711 0.07452008 0.06904476
000160 02 53 c6 3d e5 2c 34 bd 23 9b 78 3d 6c e2 9c 3d
       0.09683801 -0.043988127 0.060694825 0.07660374
000170 22 4c 99 bc ce a8 a9 3c 6f 46 67 3c f1 c3 a0 3c
       -0.01871306 0.020710375 0.014115914 0.019624682
000180 16 69 86 bd f4 5d e1 bc 43 0c a2 3d b5 cc 22 bd
       -0.06563012 -0.02751062 0.07912495 -0.039746005
000190 e1 43 36 3d 73 3c 80 3c 1e 3f b8 bd 12 dc ba 3d
       0.044498328 0.015653824 -0.08996414 0.09124006
0001a0 93 d1 a5 3c de c6 77 3d 97 6d 46 bd 0f df 9b bd
       0.020241534 0.06049239 -0.048444357 -0.076109044
0001b0 e4 5b a8 3b bc 3c b0 bd 80 da b3 bd 79 5d 8a bd
       0.0051379073 -0.08605334 -0.0878191 -0.0675611
0001c0 d9 b1 a3 3c ee 48 c0 3d 00 da 18 3c 38 7d c0 3d
       0.019982265 0.0938891 0.009329319 0.093988836
0001d0 2a cb 37 3d 82 25 7e 3d 21 03 55 3d b3 87 4c bc
       0.044871487 0.06204749 0.052004937 -0.012483525
0001e0 05 ae 93 bd fb 7c 4e 3d 90 71 15 3c f8 20 86 bd
       -0.07210926 0.05041216 0.009121314 -0.06549257
0001f0 69 9d 6c bd 26 a9 40 bd b8 cc 6f 3c aa da 20 bd
       -0.057767306 -0.047036313 0.014636211 -0.039271034
000200 a2 4c 1b bd 18 37 bb 3d 62 ab 9d 3d d2 13 12 bd
       -0.03791488 0.09141368 0.07698704 -0.035663433
000210 cc a8 79 bd e0 25 99 3d f8 f1 5e 3c e1 00 a3 bd
       -0.060951993 0.07477927 0.0136074945 -0.07959152
000220 12 67 a9 3c a6 d8 26 bb 42 9e 98 3d 2f 8e 55 3d
       0.02067903 -0.0025458722 0.0745206 0.05213755
000230 91 f1 1d 3d 90 2d 81 bd b0 2b 4b 3c 47 72 16 3c
       0.038560454 -0.063075185 0.012400553 0.009182519
000240 de 84 a4 3d 84 3e 18 bc fc cb 6f 3d 05 98 4c 3d
       0.08033155 -0.009292249 0.058544144 0.049949665
000250 c8 b7 a8 3b d7 97 ce bd 41 3a 9d bb 16 62 b2 3d
       0.0051488616 -0.10087555 -0.004798204 0.08710115
000260 a0 70 a0 bd e1 96 12 3d 51 c3 9b 3c f9 26 89 bd
       -0.078339815 0.03578842 0.019014033 -0.066968866
000270 8b 41 ae 3d ca 99 e0 3c 0a 06 0c bd 44 d8 cd bc
       0.08508595 0.027417082 -0.034185447 -0.025127538
000280 4d a0 94 3d d5 c7 8a bd ea bc 64 3d bf a6 5c 3d
       0.072571374 -0.06776396 0.055844225 0.05386996
000290 63 4d d6 3c 6c d7 84 bd f0 46 9f bd b0 90 8d 3d
       0.026159948 -0.06486401 -0.07777202 0.069123626
0002a0 98 e5 62 bd fb e8 b1 3c 7e 40 aa 3d 95 89 c9 bc
       -0.05539474 0.021717539 0.08313082 -0.024601737
0002b0 2f a1 4b bd 70 22 76 3d 2e e8 f2 bc 3c f5 29 3d
       -0.049714264 0.060091436 -0.029651728 0.04149364
0002c0 19 af 67 3d fe 55 cc bd ae 91 51 3c a8 f7 99 bc
       0.05656347 -0.09977339 0.01279108 -0.01879485
0002d0 91 40 9e 3d 2b 14 e0 3c f1 44 cf 3d 46 2b 3d 3d
       0.07727159 0.027353367 0.101205714 0.046183847
0002e0 14 a4 66 bc b0 6f cf bc 7e 37 02 bc 2f 97 cf 3a
       -0.014077205 -0.025321811 -0.007947801 0.0015837903
0002f0 c2 7e 8b bd fc b2 3d bd 1d 4a 49 3d e2 bf 64 3d
       -0.068112865 -0.04631327 0.049142946 0.055847056
000300 6e 44 5e bb ed 66 3a 3d 5a 5b 60 3c 00 68 d5 3c
       -0.00339153 0.045508314 0.013693655 0.026050568
000310 5b c4 a2 bb d8 b4 8a 3d e7 88 55 bd d8 14 a5 bd
       -0.004967255 0.067727745 -0.052132513 -0.08060616
000320 b6 e6 8b bd 68 e5 4b 3a e7 84 5e bd e2 77 87 bc
       -0.06831114 0.00077780196 -0.054325964 -0.016536657
000330 32 ec 99 bd 2f 09 7b bc 1e 98 70 3d 25 8a 81 bd
       -0.07515754 -0.015322014 0.05873882 -0.06325177
000340 05 eb bb 3d 52 35 b4 3d 24 50 18 bd 4c ba 8e 3d
       0.09175686 0.087992325 -0.037185803 0.06969127
000350 2c f5 b0 bd c5 65 8b bd 24 79 62 3b 55 eb 11 bd
       -0.08640513 -0.068065204 0.0034557069 -0.03562482
000360 57 8c 14 bd 2c c6 2b 3d 1b 27 9e 3d f0 80 7b bb
       -0.03626665 0.04193704 0.077223025 -0.0038376413
000370 b8 26 ba bd 43 ed 8c 3d 70 89 65 3d ce ef 86 bd
       -0.09089416 0.068811916 0.056039274 -0.06588708
000380 79 3d e1 bc f5 50 d3 b9 39 b5 bb bd d7 cb d1 bc
       -0.027495133 -0.00040305374 -0.09165425 -0.025609894
000390 bc 05 36 3d 5a f0 bc bc cf 8b 82 bd 6d 61 c3 3d
       0.044439062 -0.023063827 -0.063743226 0.09540067
0003a0 1f 39 bf 3c 5d 41 5d bd 3c 8e 9b 3d 60 ea c2 3d
       0.023342667 -0.054017413 0.075954884 0.0951736
0003b0 1e 3f aa bc c8 df b8 bd fb dc 11 bd 44 8b 86 bd
       -0.02078205 -0.09027058 -0.035611134 -0.065695316
0003c0 81 1d 49 bd 5a f6 31 3d 6d 5a 46 3d 44 bd 3c 3d
       -0.049100403 0.04344783 0.04842608 0.046078935
0003d0 7d 12 8e 3d 61 f3 23 3d dc 57 72 bd 00 e6 96 3d
       0.0693712 0.040027026 -0.05916582 0.07368088
0003e0 9d c7 83 bd ab 87 c4 bd 2a ae 6c bd 71 d3 57 bc
       -0.064345576 -0.09596189 -0.057783283 -0.01317297
0003f0 75 cd 40 bd 70 32 79 3d 28 dc 35 bd 9d 2c e9 bc
       -0.04707094 0.060839117 -0.04439941 -0.028463656

model/conv2d_1/Conv2D i1 [64, 3, 3, 64]
000000 9a ae a4 69 1b 09 8d b4 88 73 b5 5f 96 b6 b3 39
       -102 -82 -92 105 27 9 -115 -76 -120 115 -75 95 -106 -74 -77 57
000010 a6 58 e6 b4 26 96 01 85 fd 82 a5 37 7a e3 28 dc
       -90 88 -26 -76 38 -106 1 -123 -3 -126 -91 55 122 -29 40 -36
000020 a5 58 4a 4f 5e da 25 c1 ff 64 62 db 1d 37 04 f3
       -91 88 74 79 94 -38 37 -63 -1 100 98 -37 29 55 4 -13
000030 dd 3c c8 7e fb 43 17 07 30 7e 69 a1 8e 0e 4f f8
       -35 60 -56 126 -5 67 23 7 48 126 105 -95 -114 14 79 -8
000040 0f 3a 10 ff 0a d9 84 ee cc 89 14 9e 0f 28 86 66
       15 58 16 -1 10 -39 -124 -18 -52 -119 20 -98 15 40 -122 102
000050 cc d1 13 33 96 d4 84 97 fe 6a e8 54 0a d0 54 a7
       -52 -47 19 51 -106 -44 -124 -105 -2 106 -24 84 10 -48 84 -89
000060 db 90 84 dc c1 3c a7 1f 0b 6b 2a c0 98 a5 77 ba
       -37 -112 -124 -36 -63 60 -89 31 11 107 42 -64 -104 -91 119 -70
000070 10 99 fb 59 14 66 fb 66 36 da 5a db 86 44 a7 98
       16 -103 -5 89 20 102 -5 102 54 -38 90 -37 -122 68 -89 -104
000080 29 b2 1e ba e0 99 12 0b 38 31 27 ea ff a5 7d bf
       41 -78 30 -70 -32 -103 18 11 56 49 39 -22 -1 -91 125 -65
000090 ee 82 6a 43 58 a9 dd a9 2d db 7c f3 0e 9e f9 ab
       -18 -126 106 67 88 -87 -35 -87 45 -37 124 -13 14 -98 -7 -85
0000a0 f8 6c 30 38 bc 78 7d ed 56 7c d9 94 0a f9 45 c3
       -8 108 48 56 -68 120 125 -19 86 124 -39 -108 10 -7 69 -61
0000b0 bb 8b ed f6 e4 64 da ea 42 fa ee a3 8d a4 68 1f
       -69 -117 -19 -10 -28 100 -38 -22 66 -6 -18 -93 -115 -92 104 31
0000c0 0f 11 c8 2b bc b7 c0 7e 8f 2c 10 51 59 e6 4a ce
       15 17 -56 43 -68 -73 -64 126 -113 44 16 81 89 -26 74 -50
0000d0 b9 86 c9 1d 4d 00 d0 6a e1 75 bd 4a a7 c6 48 eb
       -71 -122 -55 29 77 0 -48 106 -31 117 -67 74 -89 -58 72 -21
0000e0 0d 3b f9 fe ef 82 b8 c3 90 bb 13 6a e3 53 eb d8
       13 59 -7 -2 -17 -126 -72 -61 -112 -69 19 106 -29 83 -21 -40
0000f0 cb 0e 86 c2 5f fe 08 09 7c 7f 25 11 34 43 72 c4
       -53 14 -122 -62 95 -2 8 9 124 127 37 17 52 67 114 -60

model/conv2d_2/Conv2D i1 [64, 3, 3, 64]
000000 0a 88 cf 73 c3 2c 5b ff 4d 86 16 a5 c4 ce bd 23
       10 -120 -49 115 -61 44 91 -1 77 -122 22 -91 -60 -50 -67 35
000010 9d ad 54 e7 aa f6 09 2e 7a 8a 78 9e a1 60 09 d1
       -99 -83 84 -25 -86 -10 9 46 122 -118 120 -98 -95 96 9 -47
000020 e5 ad e3 64 ed 04 99 30 92 d5 fd d1 d8 d3 e0 17
       -27 -83 -29 100 -19 4 -103 48 -110 -43 -3 -47 -40 -45 -32 23
000030 ae 82 3c ef af cf 9d f0 a3 cb e0 f6 e9 45 51 d2
       -82 -126 60 -17 -81 -49 -99 -16 -93 -53 -32 -10 -23 69 81 -46
000040 52 8a 1a 44 5c a5 57 cc a8 54 e8 76 7a 06 5b 30
       82 -118 26 68 92 -91 87 -52 -88 84 -24 118 122 6 91 48
000050 2e 25 e5 2f 9e 8c c8 49 3f dd b2 52 8d 81 3a ed
       46 37 -27 47 -98 -116 -56 73 63 -35 -78 82 -115 -127 58 -19
000060 8e 73 d4 71 ca 2b 53 c8 c4 42 2e 85 8c e9 28 02
       -114 115 -44 113 -54 43 83 -56 -60 66 46 -123 -116 -23 40 2
000070 b3 a9 f7 a0 e7 a8 c0 13 9d 2b 0b 30 ec 1f 00 71
       -77 -87 -9 -96 -25 -88 -64 19 -99 43 11 48 -20 31 0 113
000080 82 c9 57 4a 7d 9d 6d 29 31 5c c5 47 d0 47 c1 84
       -126 -55 87 74 125 -99 109 41 49 92 -59 71 -48 71 -63 -124
000090 36 ba ce 00 0d 9b b9 e5 01 35 ef dd fe 4d ef 0a
       54 -70 -50 0 13 -101 -71 -27 1 53 -17 -35 -2 77 -17 10
0000a0 e9 ae 5b e9 63 65 a7 b5 c2 4a 3e 16 55 29 ba f2
       -23 -82 91 -23 99 101 -89 -75 -62 74 62 22 85 41 -70 -14
0000b0 e3 d9 25 58 ce a5 cd ea 1d 20 e6 b6 e6 8e 48 df
       -29 -39 37 88 -50 -91 -51 -22 29 32 -26 -74 -26 -114 72 -33
0000c0 56 3e c1 14 7e 4a 25 f7 9a ba 04 a4 b2 c9 c8 8c
       86 62 -63 20 126 74 37 -9 -102 -70 4 -92 -78 -55 -56 -116
0000d0 3e 0e 06 19 6d d7 de 49 f8 5c b6 de 94 05 8d ef
       62 14 6 25 109 -41 -34 73 -8 92 -74 -34 -108 5 -115 -17
0000e0 c8 44 d4 52 5a 3b 84 35 d2 35 bf 19 b1 ee 57 e5
       -56 68 -44 82 90 59 -124 53 -46 53 -65 25 -79 -18 87 -27
0000f0 7f c1 48 2c 3b b8 b3 ab 72 1a b3 9b 7d 08 d6 10
       127 -63 72 44 59 -72 -77 -85 114 26 -77 -101 125 8 -42 16

model/conv2d_3/Conv2D i1 [64, 3, 3, 64]
000000 a5 f1 fe e9 de cc 25 d6 9f a1 24 fe 68 05 14 aa
       -91 -15 -2 -23 -34 -52 37 -42 -97 -95 36 -2 104 5 20 -86
000010 48 a8 15 30 33 18 10 d8 03 e2 a5 12 81 8f b6 24
       72 -88 21 48 51 24 16 -40 3 -30 -91 18 -127 -113 -74 36
000020 b5 71 be 31 f4 1a e9 ab a3 41 99 be 1d 3e ff 10
       -75 113 -66 49 -12 26 -23 -85 -93 65 -103 -66 29 62 -1 16
000030 45 63 5d a0 b8 ea 55 c3 c1 ec 64 90 1b 19 ea 88
       69 99 93 -96 -72 -22 85 -61 -63 -20 100 -112 27 25 -22 -120
000040 49 09 87 50 ef 1d e0 b8 32 ac a9 2e d5 a8 b8 0a
       73 9 -121 80 -17 29 -32 -72 50 -84 -87 46 -43 -88 -72 10
000050 16 02 e6 c2 d4 c8 6c 44 55 52 56 df c1 7b 2d 77
       22 2 -26 -62 -44 -56 108 68 85 82 86 -33 -63 123 45 119
000060 1b e4 78 04 aa a7 eb 92 45 49 c1 b6 45 ad 8b 02
       27 -28 120 4 -86 -89 -21 -110 69 73 -63 -74 69 -83 -117 2
000070 53 73 2d 94 2f 98 f5 b7 ef 9e 15 00 c1 70 fd e5
       83 115 45 -108 47 -104 -11 -73 -17 -98 21 0 -63 112 -3 -27
000080 5f e8 5c 6c 59 ab 54 95 20 95 eb 5e 9e 75 cd 9d
       95 -24 92 108 89 -85 84 -107 32 -107 -21 94 -98 117 -51 -99
000090 ad b9 22 d2 4c 9d bf b5 b6 3d 48 78 fe a6 11 0b
       -83 -71 34 -46 76 -99 -65 -75 -74 61 72 120 -2 -90 17 11
0000a0 34 8c 51 98 70 fe e8 22 f3 b9 be 76 73 ee e6 41
       52 -116 81 -104 112 -2 -24 34 -13 -71 -66 118 115 -18 -26 65
0000b0 4a 9c 6f 1e ff 17 f9 f4 94 b0 44 7c ae fa db 8e
       74 -100 111 30 -1 23 -7 -12 -108 -80 68 124 -82 -6 -37 -114
0000c0 06 ce 7f 93 25 5a 23 b3 3d ba 4c 90 cb cc e0 36
       6 -50 127 -109 37 90 35 -77 61 -70 76 -112 -53 -52 -32 54
0000d0 c1 19 3f 2a f9 74 d6 2e 52 b3 f5 07 6f 1c 69 b9
       -63 25 63 42 -7 116 -42 46 82 -77 -11 7 111 28 105 -71
0000e0 9a 0e 65 d1 99 e6 8c 21 68 70 7d 29 97 62 64 ae
       -102 14 101 -47 -103 -26 -116 33 104 112 125 41 -105 98 100 -82
0000f0 da 99 b4 82 62 d4 51 42 82 e6 90 c1 11 84 5b 57
       -38 -103 -76 -126 98 -44 81 66 -126 -26 -112 -63 17 -124 91 87

model/conv2d_4/Conv2D i1 [64, 3, 3, 64]
000000 27 af 13 61 3f 8f 6d 9e a7 43 6a 7e d3 45 7c 8b
       39 -81 19 97 63 -113 109 -98 -89 67 106 126 -45 69 124 -117
000010 ba ee 66 e1 40 6a 24 98 e0 71 79 1c fd 74 c5 66
       -70 -18 102 -31 64 106 36 -104 -32 113 121 28 -3 116 -59 102
000020 74 b3 3f 2a c2 57 95 6a 8f 6d 77 26 c1 de ca ed
       116 -77 63 42 -62 87 -107 106 -113 109 119 38 -63 -34 -54 -19
000030 3d 50 ac c5 83 01 d5 76 7f b7 1e 2e 86 5b 89 35
       61 80 -84 -59 -125 1 -43 118 127 -73 30 46 -122 91 -119 53
000040 a4 10 84 5f d5 bf 47 a5 6d f8 c2 f8 ad 47 8b c1
       -92 16 -124 95 -43 -65 71 -91 109 -8 -62 -8 -83 71 -117 -63
000050 58 98 7e 6a 58 a6 fa db 65 47 a0 23 7a 2a 1c 18
       88 -104 126 106 88 -90 -6 -37 101 71 -96 35 122 42 28 24
000060 51 3f 98 b9 b6 5f 0c 92 70 c8 16 bb 9a 40 a1 f2
       81 63 -104 -71 -74 95 12 -110 112 -56 22 -69 -102 64 -95 -14
000070 24 34 d7 4d ed 94 65 ba 06 bb 6d b4 99 66 ba 7c
       36 52 -41 77 -19 -108 101 -70 6 -69 109 -76 -103 102 -70 124
000080 c9 2b 9e e1 6f 62 de 02 17 96 6e 0b 5e 2c e5 fa
       -55 43 -98 -31 111 98 -34 2 23 -106 110 11 94 44 -27 -6
000090 00 c3 67 21 e8 ea e1 38 c6 f7 fd 85 0e 4d 76 be
       0 -61 103 33 -24 -22 -31 56 -58 -9 -3 -123 14 77 118 -66
0000a0 f8 ee e0 84 e8 15 1e bb 76 12 e7 ea 2a 29 1b a8
       -8 -18 -32 -124 -24 21 30 -69 118 18 -25 -22 42 41 27 -88
0000b0 f9 c6 2f ca e2 57 8c 4e 3d 14 4d 1b be 37 f3 0c
       -7 -58 47 -54 -30 87 -116 78 61 20 77 27 -66 55 -13 12
0000c0 55 30 ab fb fc b6 26 a9 8b b8 b2 77 e6 85 13 d8
       85 48 -85 -5 -4 -74 38 -87 -117 -72 -78 119 -26 -123 19 -40
0000d0 7d 95 9d 82 f6 89 91 32 06 fc 35 75 6e 43 f4 58
       125 -107 -99 -126 -10 -119 -111 50 6 -4 53 117 110 67 -12 88
0000e0 67 d5 d4 f7 f8 5b df 24 21 0c 9e 3a 7b 1a 24 25
       103 -43 -44 -9 -8 91 -33 36 33 12 -98 58 123 26 36 37
0000f0 a1 b3 fe 92 ae 57 89 ca 45 d7 06 5f a5 bf bc b4
       -95 -77 -2 -110 -82 87 -119 -54 69 -41 6 95 -91 -65 -68 -76

model/conv2d_5/Conv2D i1 [64, 3, 3, 64]
000000 31 3d 92 8b 8b ab 57 37 9a 99 60 ce 97 da 69 f2
       49 61 -110 -117 -117 -85 87 55 -102 -103 96 -50 -105 -38 105 -14
000010 1e 87 cc d0 cb 21 86 29 9f 26 1a 72 52 f9 9d 1e
       30 -121 -52 -48 -53 33 -122 41 -97 38 26 114 82 -7 -99 30
000020 40 f8 ad 33 e6 dd 14 bd ea ab 69 09 1d 53 62 7b
       64 -8 -83 51 -26 -35 20 -67 -22 -85 105 9 29 83 98 123
000030 bd 27 73 f4 35 16 15 27 ec 40 8f ab 24 95 50 41
       -67 39 115 -12 53 22 21 39 -20 64 -113 -85 36 -107 80 65
000040 cf 0c be 77 02 58 62 e7 4c 99 1b 98 59 75 a6 b1
       -49 12 -66 119 2 88 98 -25 76 -103 27 -104 89 117 -90 -79
000050 8c a1 e7 9b 20 70 1b 00 f8 17 35 1c 4f 37 bc d3
       -116 -95 -25 -101 32 112 27 0 -8 23 53 28 79 55 -68 -45
000060 67 39 39 d0 d2 b8 71 03 4b 47 56 82 1f 3a b3 9c
       103 57 57 -48 -46 -72 113 3 75 71 86 -126 31 58 -77 -100
000070 41 16 6d 61 bb b5 43 8a ea 7a e2 25 c9 4d 3d 14
       65 22 109 97 -69 -75 67 -118 -22 122 -30 37 -55 77 61 20
000080 2f 76 0d 51 54 28 5a 7f a5 7f a4 8b c1 68 37 eb
       47 118 13 81 84 40 90 127 -91 127 -92 -117 -63 104 55 -21
000090 5f b7 1b 52 9c fe 7e 56 1e 75 95 00 0b f6 c9 f9
       95 -73 27 82 -100 -2 126 86 30 117 -107 0 11 -10 -55 -7
0000a0 99 4b b7 5f a7 99 05 ed 04 fc 45 89 2e 91 db ea
       -103 75 -73 95 -89 -103 5 -19 4 -4 69 -119 46 -111 -37 -22
0000b0 18 a4 8e 98 21 41 f1 95 3a d0 71 56 8b 94 de 82
       24 -92 -114 -104 33 65 -15 -107 58 -48 113 86 -117 -108 -34 -126
0000c0 52 04 e4 54 fc a9 e1 b7 bc 64 9e 4e 7c 25 50 6e
       82 4 -28 84 -4 -87 -31 -73 -68 100 -98 78 124 37 80 110
0000d0 98 40 cf be 13 2b 9d 78 bf 83 d5 d9 1d 5f ac 59
       -104 64 -49 -66 19 43 -99 120 -65 -125 -43 -39 29 95 -84 89
0000e0 04 01 1e 1a 0c d0 2e 9e 54 66 d6 a0 17 77 db 31
       4 1 30 26 12 -48 46 -98 84 102 -42 -96 23 119 -37 49
0000f0 c2 c0 86 b1 1e be 0d 11 c1 92 2a 6f af b8 df 41
       -62 -64 -122 -79 30 -66 13 17 -63 -110 42 111 -81 -72 -33 65

model/time_distributed/dense/MatMul1 i1 [64, 128] scale=0.0013917519 zero_point=0
000000 68 fb 9b d9 fc de 83 2c f2 1b e2 44 1d 37 ee 0e
       0.1447422 -0.0069587594 -0.14056695 -0.054278325 -0.0055670077 -0.047319565 -0.17396899 0.061237086 -0.019484527 0.0375773 -0.04175256 0.09463913 0.040360805 0.076546356 -0.025051534 0.019484527
000010 a2 a9 ea a5 fe f9 c7 d6 6e 2d 8d 7b f7 cd a2 9f
       -0.13082469 -0.12108242 -0.030618543 -0.12664942 -0.0027835038 -0.009742264 -0.07932986 -0.058453582 0.15309271 0.062628835 -0.16005147 0.1711855 -0.012525767 -0.07097935 -0.13082469 -0.13499993
000020 d4 b4 9f 72 0d 52 40 8e 5b b7 e1 19 a3 73 c0 84
       -0.061237086 -0.10577314 -0.13499993 0.15865973 0.018092776 0.11412366 0.08907212 -0.15865973 0.12664942 -0.10159789 -0.043144308 0.034793798 -0.12943293 0.16005147 -0.08907212 -0.17257723
000030 e2 5d dc 25 ec 9f 4d a8 e6 28 61 05 b9 58 d6 9d
       -0.04175256 0.12943293 -0.05010307 0.051494822 -0.027835038 -0.13499993 0.1071649 -0.12247417 -0.03618555 0.055670075 0.13499993 0.0069587594 -0.09881438 0.12247417 -0.058453582 -0.13778344
000040 fd d0 f3 b1 e2 86 08 ba 5f 4e 6f 91 43 1a 60 86
       -0.004175256 -0.066804096 -0.018092776 -0.109948404 -0.04175256 -0.16979374 0.011134015 -0.09742264 0.13221644 0.10855665 0.15448447 -0.15448447 0.09324738 0.03618555 0.13360819 -0.16979374
000050 73 c3 f5 be 79 e9 02 31 88 a9 d3 0b 62 07 a9 65
       0.16005147 -0.08489687 -0.015309271 -0.09185563 0.16840199 -0.032010294 0.0027835038 0.06819584 -0.16701023 -0.12108242 -0.062628835 0.015309271 0.13639168 0.009742264 -0.12108242 0.14056695
000060 0b 58 fd d9 74 3a 69 a6 8f 45 a8 65 a7 67 55 11
       0.015309271 0.12247417 -0.004175256 -0.054278325 0.16144322 0.08072161 0.14613396 -0.12525767 -0.15726797 0.09603088 -0.12247417 0.14056695 -0.123865925 0.14335045 0.11829891 0.023659782
000070 67 65 83 bf 18 19 d7 da 47 71 58 6c f5 01 08 a0
       0.14335045 0.14056695 -0.17396899 -0.09046388 0.033402048 0.034793798 -0.05706183 -0.05288657 0.09881438 0.15726797 0.12247417 0.1503092 -0.015309271 0.0013917519 0.011134015 -0.13360819
000080 9d 4e ad 97 d7 6b 3a 62 b6 08 c5 42 ec 18 f5 6f
       -0.13778344 0.10855665 -0.11551541 -0.14613396 -0.05706183 0.14891745 0.08072161 0.13639168 -0.102989644 0.011134015 -0.08211336 0.09185563 -0.027835038 0.033402048 -0.015309271 0.15448447
000090 8d 50 fb 0d 59 49 c1 7f 97 d3 22 df d2 7d 95 55
       -0.16005147 0.11134015 -0.0069587594 0.018092776 0.123865925 0.10159789 -0.08768037 0.1767525 -0.14613396 -0.062628835 0.047319565 -0.045927815 -0.06402059 0.17396899 -0.14891745 0.11829891
0000a0 dd 62 21 87 44 77 da 63 fc 5e f9 92 64 5e 02 cf
       -0.04871132 0.13639168 0.045927815 -0.16840199 0.09463913 0.16561848 -0.05288657 0.13778344 -0.0055670077 0.13082469 -0.009742264 -0.15309271 0.13917519 0.13082469 0.0027835038 -0.06819584
0000b0 6c ab 38 18 b5 51 07 03 60 0f ac b0 12 bf a7 1a
       0.1503092 -0.11829891 0.07793811 0.033402048 -0.1043814 0.112731904 0.009742264 0.004175256 0.13360819 0.02087628 -0.116907164 -0.11134015 0.025051534 -0.09046388 -0.123865925 0.03618555
0000c0 da d4 f4 c7 b7 f2 49 bc d5 df 36 8c bd 68 b1 d2
       -0.05288657 -0.061237086 -0.016701024 -0.07932986 -0.10159789 -0.019484527 0.10159789 -0.09463913 -0.059845332 -0.045927815 0.0751546 -0.16144322 -0.09324738 0.1447422 -0.109948404 -0.06402059
0000d0 b2 a3 cd 30 91 30 20 0a bb 4a c5 55 06 c5 1c 73
       -0.10855665 -0.12943293 -0.07097935 0.066804096 -0.15448447 0.066804096 0.04453606 0.013917519 -0.09603088 0.102989644 -0.08211336 0.11829891 0.008350512 -0.08211336 0.038969055 0.16005147
0000e0 ca 29 e9 4e bd dd e1 1d f8 f1 38 aa f4 e2 79 fd
       -0.0751546 0.05706183 -0.032010294 0.10855665 -0.09324738 -0.04871132 -0.043144308 0.040360805 -0.011134015 -0.02087628 0.07793811 -0.119690664 -0.016701024 -0.04175256 0.16840199 -0.004175256
0000f0 d7 ac 89 8b c0 5d c5 fd 4b d8 40 db ed 6c 91 38
       -0.05706183 -0.116907164 -0.16561848 -0.16283497 -0.08907212 0.12943293 -0.08211336 -0.004175256 0.1043814 -0.055670075 0.08907212 -0.051494822 -0.026443286 0.1503092 -0.15448447 0.07793811

while/MatMul_1 i1 [192, 64] scale=0.002318846 zero_point=0
000000 17 0f fc 24 f6 18 13 2b 18 0b 50 21 20 3f fa fa
       0.05333346 0.034782693 -0.009275384 0.08347846 -0.02318846 0.055652305 0.044058077 0.09971038 0.055652305 0.025507307 0.18550768 0.07652192 0.074203074 0.1460873 -0.013913076 -0.013913076
000010 e9 24 e8 25 fa 1e f0 33 01 ad fb f3 e5 d6 e4 df
       -0.05333346 0.08347846 -0.055652305 0.0857973 -0.013913076 0.069565386 -0.037101537 0.11826115 0.002318846 -0.19246422 -0.01159423 -0.030144999 -0.062608846 -0.09739153 -0.06492769 -0.07652192
000020 d1 f8 eb f0 f1 c6 19 b2 09 17 d8 25 1f 0c 03 1a
       -0.10898577 -0.018550768 -0.048695765 -0.037101537 -0.034782693 -0.13449307 0.05797115 -0.18087 0.020869615 0.05333346 -0.09275384 0.0857973 0.07188423 0.027826153 0.006956538 0.060289998
000030 f9 ca 2e 12 e5 09 fa fa c9 09 21 c3 10 fa 1d 3f
       -0.016231922 -0.12521769 0.10666692 0.04173923 -0.062608846 0.020869615 -0.013913076 -0.013913076 -0.12753654 0.020869615 0.07652192 -0.14144962 0.037101537 -0.013913076 0.067246534 0.1460873
000040 1a 16 03 31 0f f9 1a 16 03 20 2f 22 05 03 fc 1f
       0.060289998 0.051014613 0.006956538 0.113623455 0.034782693 -0.016231922 0.060289998 0.051014613 0.006956538 0.074203074 0.10898577 0.07884076 0.01159423 0.006956538 -0.009275384 0.07188423
000050 12 da 21 b6 de df 10 e6 ec e7 fa 2f 0a 10 1b 30
       0.04173923 -0.088116154 0.07652192 -0.1715946 -0.07884076 -0.07652192 0.037101537 -0.060289998 -0.04637692 -0.05797115 -0.013913076 0.10898577 0.02318846 0.037101537 0.062608846 0.11130461
000060 12 e9 ee 0e df 38 37 21 2c 08 c3 0e 24 02 de d4
       0.04173923 -0.05333346 -0.04173923 0.032463845 -0.07652192 0.12985538 0.12753654 0.07652192 0.10202923 0.018550768 -0.14144962 0.032463845 0.08347846 0.004637692 -0.07884076 -0.10202923
000070 08 a8 21 e3 28 03 f1 c7 cf 15 fb 0c 02 12 e3 44
       0.018550768 -0.20405845 0.07652192 -0.067246534 0.09275384 0.006956538 -0.034782693 -0.13217422 -0.113623455 0.048695765 -0.01159423 0.027826153 0.004637692 0.04173923 -0.067246534 0.15768152
000080 fe 3c 0e eb 21 e6 f1 fa 04 0d cb 20 39 29 2c e1
       -0.004637692 0.13913077 0.032463845 -0.048695765 0.07652192 -0.060289998 -0.034782693 -0.013913076 0.009275384 0.030144999 -0.12289884 0.074203074 0.13217422 0.09507269 0.10202923 -0.07188423
000090 0a f0 d7 24 c3 08 10 f5 fc 00 e9 dd c2 07 d6 11
       0.02318846 -0.037101537 -0.09507269 0.08347846 -0.14144962 0.018550768 0.037101537 -0.025507307 -0.009275384 0.0 -0.05333346 -0.081159614 -0.14376846 0.016231922 -0.09739153 0.03942038
0000a0 25 0f 19 f1 f1 04 e8 13 0a 17 24 23 4d 24 c6 1d
       0.0857973 0.034782693 0.05797115 -0.034782693 -0.034782693 0.009275384 -0.055652305 0.044058077 0.02318846 0.05333346 0.08347846 0.081159614 0.17855115 0.08347846 -0.13449307 0.067246534
0000b0 2d f4 05 e5 08 06 0d a9 e8 0a 01 51 00 12 f0 19
       0.10434807 -0.027826153 0.01159423 -0.062608846 0.018550768 0.013913076 0.030144999 -0.20173961 -0.055652305 0.02318846 0.002318846 0.18782653 0.0 0.04173923 -0.037101537 0.05797115
0000c0 04 da da a7 0b 14 0f 40 cf e6 ed f7 06 25 2e 09
       0.009275384 -0.088116154 -0.088116154 -0.2063773 0.025507307 0.04637692 0.034782693 0.14840615 -0.113623455 -0.060289998 -0.044058077 -0.020869615 0.013913076 0.0857973 0.10666692 0.020869615
0000d0 e0 ee 2e e7 19 06 3b e6 ff ee 0f f9 c6 46 18 3a
       -0.074203074 -0.04173923 0.10666692 -0.05797115 0.05797115 0.013913076 0.13681191 -0.060289998 -0.002318846 -0.04173923 0.034782693 -0.016231922 -0.13449307 0.16231923 0.055652305 0.13449307
0000e0 dd f9 05 cf e1 f1 0b e4 08 08 f4 af 01 d3 15 10
       -0.081159614 -0.016231922 0.01159423 -0.113623455 -0.07188423 -0.034782693 0.025507307 -0.06492769 0.018550768 0.018550768 -0.027826153 -0.18782653 0.002318846 -0.10434807 0.048695765 0.037101537
0000f0 21 24 2f ef 0e 11 d8 fb 05 fd 16 17 13 cb 0f 03
       0.07652192 0.08347846 0.10898577 -0.03942038 0.032463845 0.03942038 -0.09275384 -0.01159423 0.01159423 -0.006956538 0.051014613 0.05333346 0.044058077 -0.12289884 0.034782693 0.006956538

while/MatMul i1 [192, 64] scale=0.0012054086 zero_point=0
000000 55 65 1c 20 2d c6 a7 57 59 fc bf d4 9a a1 69 df
       0.10245973 0.12174627 0.03375144 0.038573075 0.054243386 -0.0699137 -0.107281365 0.10487055 0.107281365 -0.0048216344 -0.07835156 -0.05303798 -0.12295168 -0.114513814 0.1265679 -0.039778482
000010 be a1 60 cb 16 ef c5 16 8a 8b 8e d8 9b be 86 7d
       -0.079556964 -0.114513814 0.11571923 -0.06388666 0.02651899 -0.020491946 -0.07111911 0.02651899 -0.14223821 -0.1410328 -0.13741659 -0.048216343 -0.12174627 -0.079556964 -0.14705984 0.15067607
000020 eb e2 9a aa 02 63 b6 fc 49 96 93 dd 1e 69 0c cb
       -0.02531358 -0.036162257 -0.12295168 -0.103665136 0.0024108172 0.11933545 -0.089200236 -0.0048216344 0.08799483 -0.12777331 -0.13138954 -0.0421893 0.036162257 0.1265679 0.014464904 -0.06388666
000030 e2 f7 2a 37 2a fc 78 74 ba b1 21 9e 6a 50 20 21
       -0.036162257 -0.010848678 0.05062716 0.06629747 0.05062716 -0.0048216344 0.14464903 0.1398274 -0.0843786 -0.09522728 0.039778482 -0.11813004 0.12777331 0.096432686 0.038573075 0.039778482
000040 b4 48 91 0a e2 4e 76 4c 5b fb d8 f9 68 a8 7a c3
       -0.09161105 0.08678942 -0.13380036 0.012054086 -0.036162257 0.09402187 0.14223821 0.09161105 0.10969218 -0.006027043 -0.048216343 -0.00843786 0.1253625 -0.10607596 0.14705984 -0.07352992
000050 89 e2 35 b9 30 ae 41 15 e4 25 b1 43 6b bb b9 d2
       -0.14344363 -0.036162257 0.06388666 -0.08558401 0.057859614 -0.09884351 0.07835156 0.02531358 -0.03375144 0.044600118 -0.09522728 0.08076238 0.12897871 -0.08317319 -0.08558401 -0.055448797
000060 29 31 bb 04 41 ea ad 70 db a3 63 a2 8b c3 65 2a
       0.049421754 0.05906502 -0.08317319 0.0048216344 0.07835156 -0.02651899 -0.100048915 0.13500576 -0.044600118 -0.112103 0.11933545 -0.11330841 -0.1410328 -0.07352992 0.12174627 0.05062716
000070 43 39 ab bd 32 16 9c d7 32 4d a2 12 e9 7e 36 5c
       0.08076238 0.06870829 -0.10245973 -0.08076238 0.06027043 0.02651899 -0.12054086 -0.049421754 0.06027043 0.092816465 -0.11330841 0.021697355 -0.027724398 0.15188149 0.065092064 0.11089759
000080 48 af 01 03 55 36 b2 76 33 35 38 0a b1 aa 42 6d
       0.08678942 -0.09763809 0.0012054086 0.003616226 0.10245973 0.065092064 -0.09402187 0.14223821 0.06147584 0.06388666 0.06750288 0.012054086 -0.09522728 -0.103665136 0.079556964 0.13138954
000090 b7 b6 3d c0 2b 34 12 42 1b 2b ad e0 3d d7 c8 c9
       -0.08799483 -0.089200236 0.07352992 -0.07714615 0.051832568 0.06268125 0.021697355 0.079556964 0.032546032 0.051832568 -0.100048915 -0.038573075 0.07352992 -0.049421754 -0.06750288 -0.06629747
0000a0 9f d3 96 05 c0 48 4b 08 f4 db b3 2b b7 39 c9 51
       -0.116924636 -0.054243386 -0.12777331 0.006027043 -0.07714615 0.08678942 0.09040564 0.009643269 -0.014464904 -0.044600118 -0.092816465 0.051832568 -0.08799483 0.06870829 -0.06629747 0.09763809
0000b0 e1 f7 a2 bd cc 51 18 48 f4 77 3c 8f 06 27 6a 3d
       -0.037367668 -0.010848678 -0.11330841 -0.08076238 -0.06268125 0.09763809 0.028929807 0.08678942 -0.014464904 0.14344363 0.072324514 -0.13621117 0.007232452 0.047010936 0.12777331 0.07352992
0000c0 c5 c4 fd 1b e3 8e 39 d0 f9 37 29 c4 9b d2 cb 76
       -0.07111911 -0.072324514 -0.003616226 0.032546032 -0.03495685 -0.13741659 0.06870829 -0.057859614 -0.00843786 0.06629747 0.049421754 -0.072324514 -0.12174627 -0.055448797 -0.06388666 0.14223821
0000d0 d4 9d 95 60 65 be b3 93 15 9a 61 9d 7f 39 13 2e
       -0.05303798 -0.11933545 -0.12897871 0.11571923 0.12174627 -0.079556964 -0.092816465 -0.13138954 0.02531358 -0.12295168 0.116924636 -0.11933545 0.15308689 0.06870829 0.022902763 0.055448797
0000e0 92 23 f4 9b 79 c1 22 aa 76 00 11 04 38 a8 0f a0
       -0.13259494 0.0421893 -0.014464904 -0.12174627 0.14585444 -0.07594074 0.040983893 -0.103665136 0.14223821 0.0 0.020491946 0.0048216344 0.06750288 -0.10607596 0.018081129 -0.11571923
0000f0 26 b9 a8 10 c8 cf 9f 05 99 e3 43 4e 62 02 85 d4
       0.045805525 -0.08558401 -0.10607596 0.019286538 -0.06750288 -0.05906502 -0.116924636 0.006027043 -0.124157086 -0.03495685 0.08076238 0.09402187 0.11813004 0.0024108172 -0.14826526 -0.05303798

while/MatMul_11 i1 [192, 64] scale=0.0022654932 zero_point=0
000000 46 0a cc 09 1a 0f 05 48 e1 e8 42 f3 d6 18 11 0b
       0.15858452 0.022654932 -0.117805645 0.020389438 0.058902822 0.033982396 0.011327466 0.1631155 -0.07023029 -0.054371834 0.14952254 -0.029451411 -0.09515071 0.054371834 0.038513385 0.024920424
000010 0f eb ef 2e df 09 1e cb f0 f9 4d cf 1c 07 09 30
       0.033982396 -0.047575355 -0.038513385 0.10421269 -0.07476127 0.020389438 0.06796479 -0.120071135 -0.03624789 -0.015858453 0.17444298 -0.111009166 0.06343381 0.015858453 0.020389438 0.10874367
000020 e6 bb d6 11 1d 22 20 3e 17 2f 29 1b ef c8 01 31
       -0.058902822 -0.15631902 -0.09515071 0.038513385 0.0656993 0.07702677 0.07249578 0.14046058 0.052106343 0.10647818 0.09288522 0.061168317 -0.038513385 -0.12686762 0.0022654932 0.111009166
000030 d5 08 1d 2a e4 0c f4 03 12 f0 1f e7 0c c2 22 fa
       -0.09741621 0.018123945 0.0656993 0.09515071 -0.06343381 0.027185917 -0.027185917 0.006796479 0.040778875 -0.03624789 0.07023029 -0.056637328 0.027185917 -0.14046058 0.07702677 -0.013592958
000040 fb f4 fa ca e0 0e 62 00 fd f3 e8 33 07 d1 ff d2
       -0.011327466 -0.027185917 -0.013592958 -0.12233663 -0.07249578 0.031716906 0.22201833 0.0 -0.006796479 -0.029451411 -0.054371834 0.115540154 0.015858453 -0.10647818 -0.0022654932 -0.10421269
000050 f8 0b 0c dc e6 18 0c d9 0a e2 f3 f3 12 df ef bb
       -0.018123945 0.024920424 0.027185917 -0.08155775 -0.058902822 0.054371834 0.027185917 -0.08835423 0.022654932 -0.06796479 -0.029451411 -0.029451411 0.040778875 -0.07476127 -0.038513385 -0.15631902
000060 cb 14 22 02 04 02 da f4 0b 20 e8 e6 2b e4 21 03
       -0.120071135 0.045309864 0.07702677 0.0045309863 0.009061973 0.0045309863 -0.08608874 -0.027185917 0.024920424 0.07249578 -0.054371834 -0.058902822 0.09741621 -0.06343381 0.07476127 0.006796479
000070 0d dc e4 54 de 34 d5 26 0a d6 2b 04 e8 f8 d6 19
       0.029451411 -0.08155775 -0.06343381 0.19030142 -0.07702677 0.117805645 -0.09741621 0.08608874 0.022654932 -0.09515071 0.09741621 0.009061973 -0.054371834 -0.018123945 -0.09515071 0.056637328
000080 e7 ea cf bd 02 f3 e4 dd 17 bd f6 f6 09 ef 16 0b
       -0.056637328 -0.04984085 -0.111009166 -0.15178804 0.0045309863 -0.029451411 -0.06343381 -0.07929226 0.052106343 -0.15178804 -0.022654932 -0.022654932 0.020389438 -0.038513385 0.04984085 0.024920424
000090 f7 dd 06 29 28 d1 02 ec 18 ff e2 bd 09 07 1e fc
       -0.020389438 -0.07929226 0.013592958 0.09288522 0.09061973 -0.10647818 0.0045309863 -0.045309864 0.054371834 -0.0022654932 -0.06796479 -0.15178804 0.020389438 0.015858453 0.06796479 -0.009061973
0000a0 e2 fc b6 1f ee ef f4 37 14 b7 15 bc eb 30 29 16
       -0.06796479 -0.009061973 -0.1676465 0.07023029 -0.040778875 -0.038513385 -0.027185917 0.124602124 0.045309864 -0.165381 0.047575355 -0.15405354 -0.047575355 0.10874367 0.09288522 0.04984085
0000b0 0c fc f6 e5 14 28 0b f6 10 2f f3 27 0e da 0c 1a
       0.027185917 -0.009061973 -0.022654932 -0.061168317 0.045309864 0.09061973 0.024920424 -0.022654932 0.03624789 0.10647818 -0.029451411 0.08835423 0.031716906 -0.08608874 0.027185917 0.058902822
0000c0 fc e4 3b 02 ee 0a de 04 d5 3c 06 0f dd 2e 1a fa
       -0.009061973 -0.06343381 0.1336641 0.0045309863 -0.040778875 0.022654932 -0.07702677 0.009061973 -0.09741621 0.13592958 0.013592958 0.033982396 -0.07929226 0.10421269 0.058902822 -0.013592958
0000d0 1f 13 29 2c f0 e3 16 1c d9 fe f4 de d1 05 ee fa
       0.07023029 0.04304437 0.09288522 0.0996817 -0.03624789 -0.0656993 0.04984085 0.06343381 -0.08835423 -0.0045309863 -0.027185917 -0.07702677 -0.10647818 0.011327466 -0.040778875 -0.013592958
0000e0 ee 1b ef 3a 4b 08 ec 0a f7 ee d7 eb e3 c2 d8 0a
       -0.040778875 0.061168317 -0.038513385 0.1313986 0.16991198 0.018123945 -0.045309864 0.022654932 -0.020389438 -0.040778875 -0.09288522 -0.047575355 -0.0656993 -0.14046058 -0.09061973 0.022654932
0000f0 15 f6 f0 ee e3 0c 14 e9 2d d0 07 08 c6 1a ea 0b
       0.047575355 -0.022654932 -0.03624789 -0.040778875 -0.0656993 0.027185917 0.045309864 -0.052106343 0.10194719 -0.10874367 0.015858453 0.018123945 -0.1313986 0.058902822 -0.04984085 0.024920424

while/MatMul1 i1 [192, 64] scale=0.0012053832 zero_point=0
000000 83 0c 16 7a 10 9d 4d 57 59 2e 8d cc a2 c5 63 8c
       -0.1506729 0.014464598 0.02651843 0.14705676 0.019286131 -0.11933294 0.092814505 0.10486834 0.10727911 0.055447627 -0.13861907 -0.062679924 -0.11330602 -0.07111761 0.11933294 -0.13982445
000010 fb f9 d8 6e 86 cd 91 a6 6c fc e4 43 75 ae 6f f9
       -0.006026916 -0.008437683 -0.04821533 0.13259216 -0.14705676 -0.061474543 -0.13379754 -0.10848449 0.13018139 -0.004821533 -0.03375073 0.08076067 0.14102983 -0.09884142 0.13379754 -0.008437683
000020 e6 0b 23 b7 72 4b 64 c9 10 dd 95 1a c9 e8 10 32
       -0.031339962 0.013259215 0.042188413 -0.08799297 0.13741368 0.09040374 0.120538324 -0.06629608 0.019286131 -0.042188413 -0.128976 0.031339962 -0.06629608 -0.028929196 0.019286131 0.060269162
000030 f2 f7 3f 9c d5 81 a0 01 08 a3 93 a1 6f 49 2c b2
       -0.016875366 -0.010848449 0.07593914 -0.120538324 -0.05183148 -0.15308367 -0.115716785 0.0012053832 0.009643066 -0.11210064 -0.13138677 -0.11451141 0.13379754 0.08799297 0.05303686 -0.09401989
000040 e2 b2 28 df ff 8b cc 0f a3 57 00 0a 17 61 bd e0
       -0.036161497 -0.09401989 0.04821533 -0.039777648 -0.0012053832 -0.14102983 -0.062679924 0.018080749 -0.11210064 0.10486834 0.0 0.012053832 0.027723813 0.11692217 -0.08076067 -0.038572263
000050 c5 06 63 7b ff 28 54 c1 69 68 90 d4 49 d6 30 86
       -0.07111761 0.007232299 0.11933294 0.14826214 -0.0012053832 0.04821533 0.10125219 -0.07593914 0.12656523 0.12535985 -0.13500293 -0.05303686 0.08799297 -0.050626095 0.057858393 -0.14705676
000060 14 76 f1 10 7b 4e 11 6b 60 67 63 bd 21 0b f7 8b
       0.024107665 0.14223522 -0.018080749 0.019286131 0.14826214 0.09401989 0.020491514 0.128976 0.115716785 0.12415447 0.11933294 -0.08076067 0.039777648 0.013259215 -0.010848449 -0.14102983
000070 04 af 4d 82 2d 95 6b 96 a7 08 ee 0a cc 96 20 fe
       0.004821533 -0.097636044 0.092814505 -0.15187828 0.054242246 -0.128976 0.128976 -0.12777062 -0.10727911 0.009643066 -0.021696897 0.012053832 -0.062679924 -0.12777062 0.038572263 -0.0024107664
000080 44 12 e7 57 e8 9b 1a 39 a1 63 b2 db 5e 3d 14 02
       0.08196606 0.021696897 -0.030134581 0.10486834 -0.028929196 -0.1217437 0.031339962 0.06870684 -0.11451141 0.11933294 -0.09401989 -0.04459918 0.11330602 0.07352838 0.024107665 0.0024107664
000090 3b 1c a1 a3 c4 61 f6 2e 21 9d 50 ca 82 f7 da db
       0.07111761 0.03375073 -0.11451141 -0.11210064 -0.072322994 0.11692217 -0.012053832 0.055447627 0.039777648 -0.11933294 0.09643066 -0.06509069 -0.15187828 -0.010848449 -0.045804564 -0.04459918
0000a0 42 77 39 b8 1f ab c5 0e cf 42 ad 01 c8 21 d7 0c
       0.079555295 0.1434406 0.06870684 -0.08678759 0.03736688 -0.102457576 -0.07111761 0.016875366 -0.059063777 0.079555295 -0.100046806 0.0012053832 -0.06750146 0.039777648 -0.04942071 0.014464598
0000b0 4d fd 08 c1 4d f6 94 bd 91 5b 33 6b 66 eb 19 b2
       0.092814505 -0.0036161495 0.009643066 -0.07593914 0.092814505 -0.012053832 -0.13018139 -0.08076067 -0.13379754 0.10968988 0.061474543 0.128976 0.122949086 -0.025313048 0.030134581 -0.09401989
0000c0 66 8e 42 40 f6 3f 72 bd 70 d6 00 70 e2 63 03 14
       0.122949086 -0.13741368 0.079555295 0.077144526 -0.012053832 0.07593914 0.13741368 -0.08076067 0.13500293 -0.050626095 0.0 0.13500293 -0.036161497 0.11933294 0.0036161495 0.024107665
0000d0 e4 0a d0 00 22 7f 12 7a 8d 7b 7e 12 a0 a1 17 ea
       -0.03375073 0.012053832 -0.057858393 0.0 0.04098303 0.15308367 0.021696897 0.14705676 -0.13861907 0.14826214 0.15187828 0.021696897 -0.115716785 -0.11451141 0.027723813 -0.02651843
0000e0 38 8f b7 50 56 22 5a a9 14 41 32 76 e9 33 14 b1
       0.06750146 -0.13620831 -0.08799297 0.09643066 0.10366296 0.04098303 0.10848449 -0.10486834 0.024107665 0.07834991 0.060269162 0.14223522 -0.027723813 0.061474543 0.024107665 -0.095225275
0000f0 0e 3e 9c 11 dd 4d 89 0e a9 17 22 78 2d d6 d5 ec
       0.016875366 0.07473376 -0.120538324 0.020491514 -0.042188413 0.092814505 -0.1434406 0.016875366 -0.10486834 0.027723813 0.04098303 0.14464599 0.054242246 -0.050626095 -0.05183148 -0.024107665

while/MatMul_12 i1 [192, 64] scale=0.0023646227 zero_point=0
000000 cd 2d dc f7 1b 01 e7 10 c1 d5 1f 18 0a 06 10 da
       -0.12059575 0.10640802 -0.085126415 -0.021281604 0.063844815 0.0023646227 -0.059115566 0.037833963 -0.14897123 -0.101678774 0.073303305 0.056750946 0.023646226 0.014187736 0.037833963 -0.08985566
000010 fb 02 11 ee f9 ef 29 07 22 09 0b f9 ef e9 f8 48
       -0.011823113 0.0047292453 0.040198587 -0.042563207 -0.016552359 -0.040198587 0.09694953 0.016552359 0.080397174 0.021281604 0.026010849 -0.016552359 -0.040198587 -0.05438632 -0.018916981 0.17025283
000020 f2 0b 0e 1c 00 f3 f7 1f 13 f3 02 df 1f e7 10 01
       -0.033104718 0.026010849 0.033104718 0.066209435 0.0 -0.030740095 -0.021281604 0.073303305 0.04492783 -0.030740095 0.0047292453 -0.078032546 0.073303305 -0.059115566 0.037833963 0.0023646227
000030 24 2e da 07 20 d3 dc ff b0 f7 e5 dd 01 ed 1f c6
       0.085126415 0.10877264 -0.08985566 0.016552359 0.075667925 -0.10640802 -0.085126415 -0.0023646227 -0.18916981 -0.021281604 -0.063844815 -0.082761794 0.0023646227 -0.04492783 0.073303305 -0.13714811
000040 01 dd 0f e2 fa 1b 00 d3 f7 0a 31 22 f2 f3 e6 00
       0.0023646227 -0.082761794 0.03546934 -0.07093868 -0.014187736 0.063844815 0.0 -0.10640802 -0.021281604 0.023646226 0.11586651 0.080397174 -0.033104718 -0.030740095 -0.06148019 0.0
000050 e8 fb 0a 01 c2 0c 00 3c 14 13 10 18 29 0d 13 08
       -0.056750946 -0.011823113 0.023646226 0.0023646227 -0.14660661 0.028375473 0.0 0.14187735 0.047292452 0.04492783 0.037833963 0.056750946 0.09694953 0.030740095 0.04492783 0.018916981
000060 e4 e9 11 1b ee e8 20 03 10 f0 0d 12 04 fd 06 0c
       -0.066209435 -0.05438632 0.040198587 0.063844815 -0.042563207 -0.056750946 0.075667925 0.007093868 0.037833963 -0.037833963 0.030740095 0.042563207 0.009458491 -0.007093868 0.014187736 0.028375473
000070 0d f2 0b f1 04 0a 03 e9 0e ae f6 45 17 e5 f4 da
       0.030740095 -0.033104718 0.026010849 -0.03546934 0.009458491 0.023646226 0.007093868 -0.05438632 0.033104718 -0.19389907 -0.023646226 0.16315897 0.05438632 -0.063844815 -0.028375473 -0.08985566
000080 ca e9 0f eb 0f 32 e9 f1 16 df 08 e2 01 c0 12 f5
       -0.12768963 -0.05438632 0.03546934 -0.049657077 0.03546934 0.11823113 -0.05438632 -0.03546934 0.052021697 -0.078032546 0.018916981 -0.07093868 0.0023646227 -0.15133585 0.042563207 -0.026010849
000090 ea 04 06 ea fc 25 20 05 1d f1 0f 08 19 18 ed ee
       -0.052021697 0.009458491 0.014187736 -0.052021697 -0.009458491 0.087491035 0.075667925 0.011823113 0.068574056 -0.03546934 0.03546934 0.018916981 0.059115566 0.056750946 -0.04492783 -0.042563207
0000a0 dc 20 02 ee 04 b0 d1 34 d5 e0 30 f3 dd ed 11 f0
       -0.085126415 0.075667925 0.0047292453 -0.042563207 0.009458491 -0.18916981 -0.11113726 0.12296038 -0.101678774 -0.075667925 0.11350189 -0.030740095 -0.082761794 -0.04492783 0.040198587 -0.037833963
0000b0 ef 1b d3 12 f3 07 dc 09 fc ee 06 f9 ea 14 0a f9
       -0.040198587 0.063844815 -0.10640802 0.042563207 -0.030740095 0.016552359 -0.085126415 0.021281604 -0.009458491 -0.042563207 0.014187736 -0.016552359 -0.052021697 0.047292452 0.023646226 -0.016552359
0000c0 fa e3 f1 e6 47 1e 09 ea 16 fa ec 0a fc de 0b e9
       -0.014187736 -0.068574056 -0.03546934 -0.06148019 0.16788821 0.07093868 0.021281604 -0.052021697 0.052021697 -0.014187736 -0.047292452 0.023646226 -0.009458491 -0.080397174 0.026010849 -0.05438632
0000d0 ef 0c 08 1d c0 e5 f1 06 1d 2a fc d6 48 01 2e fa
       -0.040198587 0.028375473 0.018916981 0.068574056 -0.15133585 -0.063844815 -0.03546934 0.014187736 0.068574056 0.09931415 -0.009458491 -0.09931415 0.17025283 0.0023646227 0.10877264 -0.014187736
0000e0 11 07 06 f8 d6 2c db fc f6 3b 10 07 15 fa d5 1f
       0.040198587 0.016552359 0.014187736 -0.018916981 -0.09931415 0.104043394 -0.087491035 -0.009458491 -0.023646226 0.13951273 0.037833963 0.016552359 0.049657077 -0.014187736 -0.101678774 0.073303305
0000f0 04 f2 ba d9 fd f9 fe c1 d3 e7 1d e5 fc 24 13 12
       0.009458491 -0.033104718 -0.16552359 -0.092220284 -0.007093868 -0.016552359 -0.0047292453 -0.14897123 -0.10640802 -0.059115566 0.068574056 -0.063844815 -0.009458491 0.085126415 0.04492783 0.042563207

while/MatMul2 i1 [192, 128] scale=0.0010781925 zero_point=0
000000 4e dc a4 39 9d 76 23 ab 47 02 e0 3d a5 5d 38 d6
       0.08409902 -0.03881493 -0.09919371 0.06145697 -0.106741056 0.12722671 0.037736736 -0.09164636 0.07655167 0.002156385 -0.03450216 0.06576974 -0.09811552 0.1002719 0.06037878 -0.045284085
000010 50 13 dc 40 92 a9 52 b2 38 d2 4e 37 f4 da 76 be
       0.0862554 0.020485658 -0.03881493 0.06900432 -0.11860117 -0.09380275 0.088411786 -0.08409902 0.06037878 -0.049596854 0.08409902 0.059300587 -0.012938309 -0.040971316 0.12722671 -0.071160704
000020 c9 ff 6e 45 cf 8f ba 4b 32 55 a9 a7 ea 99 10 f8
       -0.059300587 -0.0010781925 0.11860117 0.074395284 -0.052831434 -0.12183575 -0.07547347 0.08086444 0.053909626 0.09164636 -0.09380275 -0.095959134 -0.023720235 -0.111053824 0.01725108 -0.00862554
000030 e8 b0 f8 44 cf 2e 5a 17 5d 89 40 d9 98 51 b8 51
       -0.025876619 -0.0862554 -0.00862554 0.07331709 -0.052831434 0.049596854 0.09703732 0.024798427 0.1002719 -0.12830491 0.06900432 -0.04204951 -0.11213202 0.08733359 -0.07762986 0.08733359
000040 af 74 33 37 16 6c d3 4f 06 26 c1 93 42 37 05 b9
       -0.08733359 0.12507033 0.054987818 0.059300587 0.023720235 0.11644479 -0.04851866 0.085177206 0.0064691547 0.040971316 -0.067926124 -0.117522985 0.071160704 0.059300587 0.0053909626 -0.07655167
000050 f6 2a 99 ae 79 97 8f e5 7e 93 97 75 f2 02 2f e1
       -0.010781925 0.045284085 -0.111053824 -0.088411786 0.13046129 -0.11321021 -0.12183575 -0.029111197 0.13585225 -0.117522985 -0.11321021 0.12614852 -0.015094695 0.002156385 0.050675046 -0.033423968
000060 53 14 a7 24 cb 97 3f 73 82 fe cc ff 40 1e 02 d0
       0.089489974 0.02156385 -0.095959134 0.03881493 -0.057144202 -0.11321021 0.067926124 0.12399214 -0.13585225 -0.002156385 -0.05606601 -0.0010781925 0.06900432 0.032345776 0.002156385 -0.051753238
000070 e5 56 18 69 e3 6b 06 05 b1 3d e8 16 56 d5 c5 bf
       -0.029111197 0.092724554 0.025876619 0.11321021 -0.031267583 0.1153666 0.0064691547 0.0053909626 -0.085177206 0.06576974 -0.025876619 0.023720235 0.092724554 -0.046362277 -0.063613355 -0.070082515
000080 62 db a6 8e 09 b5 7a fa 5a df e5 02 12 e7 c7 79
       0.10566287 -0.03989312 -0.09703732 -0.12291394 0.009703732 -0.08086444 0.13153948 -0.0064691547 0.09703732 -0.035580352 -0.029111197 0.002156385 0.019407464 -0.026954813 -0.06145697 0.13046129
000090 9f 8b 79 4e ff 16 b2 41 e3 58 3e 0d 2e 47 6d 90
       -0.10458467 -0.12614852 0.13046129 0.08409902 -0.0010781925 0.023720235 -0.08409902 0.070082515 -0.031267583 0.09488094 0.066847935 0.014016503 0.049596854 0.07655167 0.117522985 -0.12075756
0000a0 4c 48 aa ef 9d bc 17 fb 23 f1 7b b4 18 00 16 46
       0.08194263 0.07762986 -0.092724554 -0.018329272 -0.106741056 -0.07331709 0.024798427 -0.0053909626 0.037736736 -0.016172888 0.13261768 -0.08194263 0.025876619 0.0 0.023720235 0.07547347
0000b0 25 3a fd 8a 17 c2 f2 d5 75 be 30 32 3d e7 aa c1
       0.03989312 0.06253517 -0.0032345774 -0.12722671 0.024798427 -0.066847935 -0.015094695 -0.046362277 0.12614852 -0.071160704 0.051753238 0.053909626 0.06576974 -0.026954813 -0.092724554 -0.067926124
0000c0 08 a2 af 03 12 c5 7a e9 28 e3 e0 4e 99 18 52 61
       0.00862554 -0.10135009 -0.08733359 0.0032345774 0.019407464 -0.063613355 0.13153948 -0.024798427 0.0431277 -0.031267583 -0.03450216 0.08409902 -0.111053824 0.025876619 0.088411786 0.10458467
0000d0 76 ff fb 22 95 3d 0d 62 da 30 c1 91 99 a6 05 8c
       0.12722671 -0.0010781925 -0.0053909626 0.036658544 -0.1153666 0.06576974 0.014016503 0.10566287 -0.040971316 0.051753238 -0.067926124 -0.11967937 -0.111053824 -0.09703732 0.0053909626 -0.12507033
0000e0 0a b4 f4 06 52 b0 72 d2 b7 31 ca 8f 34 ee 9e 05
       0.010781925 -0.08194263 -0.012938309 0.0064691547 0.088411786 -0.0862554 0.12291394 -0.049596854 -0.07870805 0.052831434 -0.058222394 -0.12183575 0.05606601 -0.019407464 -0.10566287 0.0053909626
0000f0 17 a8 57 cc b3 83 b9 fd 6e 0f 77 9e 22 fc df fc
       0.024798427 -0.09488094 0.09380275 -0.05606601 -0.08302082 -0.13477406 -0.07655167 -0.0032345774 0.11860117 0.016172888 0.12830491 -0.10566287 0.036658544 -0.00431277 -0.035580352 -0.00431277
